mnist_model2.pt (torch_old, 23746 bytes, 22 tensors)

conv1.weight f4 [8, 1, 2, 2]
0.37910628 0.19217753 0.11088369 0.18769167 -0.09040118 0.49553668 0.07408448 0.43288195
0.22346269 0.07837764 0.2450571 0.09090594 0.3040746 0.06893033 0.10857568 0.032167528
0.13385884 0.135153 0.47145918 0.20610629 -0.09111166 -0.29728124 -0.29112267 -0.047721576
0.0507841 0.057706807 0.2827404 0.3589996 -0.08804211 0.39778897 0.42580584 0.44879505
00000000: 381a c23e 30ca 443e fd16 e33d 3f32 403e
00000010: 4124 b9bd fcb6 fd3e 9bb9 973d b4a2 dd3e
00000020: 67d3 643e 7584 a03d 40f0 7a3e e52c ba3d
00000030: aaaf 9b3e 582b 8d3d ed5c de3d 19c2 033d
00000040: 4b12 093e 8c65 0a3e 1963 f13e 870d 533e
00000050: c098 babd 3f35 98be 080e 95be b377 43bd
00000060: fd02 503d f95d 6c3d 5ac3 903e ccce b73e
00000070: 6c4f b4bd ffaa cb3e 3903 da3e 77c8 e53e

conv1.bias f4 [8]
0.36961305 0.3864133 0.2709116 0.218334 0.4011203 0.2242936 0.31782693 0.50188583
00000000: ec3d bd3e f7d7 c53e edb4 8a3e f392 5f3e
00000010: a45f cd3e 39ad 653e 36ba a23e 977b 003f

conv2.weight f4 [8, 8, 4, 4]
0.05085537 -0.092795394 0.0008114944 0.014347194 -0.10311131 0.02716504 0.13347928 0.1356268
0.18019591 0.1538003 0.09417717 0.08635122 -0.116970174 -0.1286897 0.04281196 0.2561622
0.004856144 -0.07463413 -0.0025737896 0.038426597 -0.020087013 0.10142346 0.12895246 0.0070875064
0.17117108 0.040011566 0.14107968 0.05642643 -0.14320473 -0.04692517 0.076064505 0.07002408
-0.0052860705 -0.07636964 -0.014575572 0.05505462 -0.040371954 0.07739563 0.04968876 0.15778993
0.12348922 0.15195921 0.15910882 0.15188958 -0.057056047 -0.113665655 -0.035213415 0.16325858
0.015491944 -0.00984857 -0.018443964 0.009973242 -0.060818274 -0.043871086 0.043284707 0.18410483
0.12726393 0.16863765 0.10054225 0.10197714 -0.05024371 -0.09332137 0.044743415 0.18368508
-0.00085335225 -0.1019666 0.023745911 0.041941244 -0.027055036 0.02695496 0.12725927 0.047562916
0.18881804 0.05504491 0.051922128 0.17440312 -0.15708761 0.004015341 -0.01891266 0.0646366
-0.021086864 0.030752506 0.12095378 0.0215717 0.1283148 -0.09289326 -0.17816398 0.06606543
-0.18710588 -0.033035703 -0.1213325 -0.09632017 0.20664355 0.12557453 0.07161068 -0.06727919
0.029752586 -0.06016479 -0.0014835784 0.021274019 -0.06960764 0.030711407 0.1513329 0.055137366
0.19216034 0.054334346 0.10619687 0.13225295 -0.15913145 -0.03468525 0.024828045 0.114797816
0.023168387 -0.09098441 -0.02564475 0.048655313 -0.055153348 0.060945798 0.25486457 -0.023634754
0.23552546 0.046782944 0.15945096 0.2504797 -0.19728231 -0.049191695 0.033634342 0.072506845
-0.04131493 -0.039767202 0.007054983 -0.11141379 0.11956752 -0.038494438 0.13347112 0.08193293
0.0030667023 0.062916405 0.09581754 0.13613021 -0.10804185 -0.22751601 -0.27831748 -0.20369513
-0.021287493 0.028031949 -0.021696545 -0.08569606 0.031032931 0.0054089366 0.05929745 0.05495202
-0.008730841 0.117973894 0.100218095 0.052225985 -0.1230793 -0.22424453 -0.19994594 -0.108581126
-0.022265702 -0.056485858 0.016136933 -0.12783441 0.115982 0.015386997 0.04509677 0.069963805
-0.109234944 0.104301706 0.17058617 0.14991796 -0.0424739 -0.292226 -0.2848483 -0.2011607
0.007304987 -0.073578805 0.002360958 -0.033177935 0.060777497 0.087781996 0.0052261543 -0.008058504
-0.049285397 0.013755067 0.15618272 0.15720133 -0.04712732 -0.15489863 -0.22736129 -0.20035239
-0.0034458684 -0.017828025 0.004270864 -0.082041554 0.05518837 0.039229933 0.05571921 0.024255387
-0.07449491 0.018213555 0.17006046 0.10025229 -0.040551864 -0.23717667 -0.27037522 -0.15157557
-0.041754253 0.004444506 -0.015941944 0.07185094 -0.03273032 -0.10885541 -0.10362937 -0.10706262
0.060621988 0.0039143856 -0.044757623 -0.09641827 0.02197118 0.14475937 0.1553393 0.14960073
-0.03725471 -0.0043854504 0.039698593 -0.122705 0.07141252 -0.008238943 0.065043114 0.106357254
-0.051075373 0.060034804 0.11523969 0.045025107 -0.07513421 -0.25613102 -0.28717935 -0.13648677
-0.005724513 -0.013265705 0.049035348 -0.15749969 0.052824926 0.0069725313 0.114618786 0.16885762
-0.05117775 0.027549552 0.08379357 0.012065505 -0.06440839 -0.31283227 -0.29708573 -0.14280075
00000000: b84d 503d 830b bebd 78ba 543a 7e10 6b3c
00000010: 062c d3bd 3889 de3c cbae 083e c0e1 0a3e
00000020: 4785 383e d37d 1d3e f6df c03d e9d8 b03d
00000030: 0f8e efbd 3cc7 03be 985b 2f3d b127 833e
00000040: 4a20 9f3b c7d9 98bd 06ad 28bb 3565 1d3d
00000050: 858d a4bc 1ab7 cf3d 1d0c 043e 503e e83b
00000060: 7947 2f3e 2be3 233d 3177 103e 661f 673d
00000070: 43a4 12be 9b34 40bd b5c7 9b3d c968 8f3d
00000080: c636 adbb b067 9cbd 61ce 6ebc f480 613d
00000090: 105d 25bd 9a81 9e3d 7186 4b3d af93 213e
000000a0: ebe7 fc3d 329b 1b3e 6ced 223e f188 1b3e
000000b0: 9ab3 69bd 8ac9 e8bd f13b 10bd 422d 273e
000000c0: ecd1 7d3c e65b 21bc cc17 97bc cf66 233c
000000d0: 951c 79bd 2bb2 33bd 4e4b 313d fa85 3c3e
000000e0: 7a51 023e 59af 2c3e 18e9 cd3d 64d9 d03d
000000f0: 59cc 4dbd 461f bfbd df44 373d f117 3c3e
00000100: 80b3 5fba ddd3 d0bd c986 c23c 95ca 2b3d
00000110: 86a2 ddbc a6d0 dc3c 4150 023e 55d1 423d
00000120: 8459 413e c676 613d 4cac 543d bb96 323e
00000130: 93db 20be 1f93 833b b9ee 9abc 3260 843d
00000140: 5cbe acbc aeec fb3c 9eb6 f73d 22b7 b03c
00000150: f464 033e d23e bebd 9e70 36be 504d 873d
00000160: af98 3fbe 7250 07bd 2c7d f8bd 8243 c5bd
00000170: 5e9a 533e 9c96 003e 9fa8 923d acc9 89bd
00000180: b2bb f33c 5b6f 76bd a174 c2ba da46 ae3c
00000190: 738e 8ebd 7d96 fb3c 03f7 1a3e b8d7 613d
000001a0: aec5 443e b18d 5e3d bf7d d93d 516d 073e
000001b0: 5bf3 22be 1f12 0ebd 2f64 cb3c 1e1b eb3d
000001c0: a1cb bd3c 0956 babd f014 d2bc cb4a 473d
000001d0: 7ae8 61bd 4da2 793d 9c7d 823e ac9d c1bc
000001e0: 962d 713e 799f 3f3d 1d47 233e e03e 803e
000001f0: 6004 4abe 3b7d 49bd 2ac4 093d 787e 943d
00000200: d839 29bd efe2 22bd 7d2d e73b ea2c e4bd
00000210: d1df f43d 58ac 1dbd a7ac 083e 74cc a73d
00000220: bafa 483b 51da 803d fd3b c43d b865 0b3e
00000230: 0c45 ddbd f5f9 68be a17f 8ebe 7595 50be
00000240: 1c63 aebc 42a3 e53c f4bc b1bc 6a81 afbd
00000250: c638 fe3c 733d b13b e2e1 723d 5f15 613d
00000260: cd0b 0fbc 4c9c f13d 253f cd3d eaea 553d
00000270: 0011 fcbd 5ca0 65be a1be 4cbe c85f debd
00000280: 9066 b6bc b75d 67bd 9a31 843c 06e7 02be
00000290: f987 ed3d be19 7c3c 64b7 383d 2f49 8f3d
000002a0: 92b6 dfbd 229c d53d 24ae 2e3e 1884 193e
000002b0: 1df9 2dbd a59e 95be a3d7 91be 12fd 4dbe
000002c0: ac5e ef3b 7cb0 96bd 4dba 1a3b 96e5 07bd
000002d0: d3f1 783d 0cc7 b33d 2940 ab3b d107 04bc
000002e0: 7cdf 49bd ef5c 613c 5dee 1f3e 63f9 203e
000002f0: 9408 41bd bf9d 1ebe 66d1 68be 2d29 4dbe
00000300: 14d4 61bb 140c 92bc 9bf2 8b3b 6705 a8bd
00000310: 330d 623d 91af 203d d439 643d 3cb3 c63c
00000320: ca90 98bd 9834 953c 5424 2e3e 1351 cd3d
00000330: b619 26bd 71de 72be 9f6e 8abe a036 1bbe
00000340: 8206 2bbd 38a3 913b ae98 82bc 9626 933d
00000350: 3a10 06bd 96ef debd a33b d4bd a643 dbbd
00000360: c34e 783d 3f44 803b c553 37bd f176 c5bd
00000370: e7fc b33c cd3b 143e 4411 1f3e ef30 193e
00000380: 6598 18bd d3b3 8fbb fe9a 223d c24c fbbd
00000390: ba40 923d a2fc 06bc 5335 853d d5d1 d93d
000003a0: 6934 51bd 0ee7 753d c902 ec3d 3f6c 383d
000003b0: f7df 99bd 9b23 83be 2c09 93be 30c3 0bbe
000003c0: b294 bbbb 6658 59bc 4ad9 483d 9947 21be
000003d0: f35e 583d d579 e43b 41bd ea3d 03e9 2c3e
000003e0: c39f 51bd 99af e13c f79b ab3d 65ae 453c
000003f0: 8ce8 83bd 8d2b a0be 9f1b 98be 5c3a 12be

conv2.bias f4 [8]
0.21760803 0.020416908 -0.03649839 -0.10014086 0.25823662 0.068244286 0.096608534 0.16298735
00000000: a4d4 5e3e 5c41 a73c 567f 15bd a716 cdbd
00000010: 9737 843e a9c3 8b3d b2da c53d 28e6 263e

conv3.weight f4 [16, 8, 4, 4]
-0.25726512 0.16555902 -0.11516999 -0.10680598 -0.014019373 0.22059847 -0.09782314 -0.12599534
-0.022961933 0.054681167 0.01598134 0.027755609 0.06793532 -0.18044208 0.0045464807 -0.01863968
0.028713524 -0.06877778 -0.24448034 0.006240673 0.0042388877 -0.007075515 -0.10858987 -0.02441187
-0.04579655 0.036687534 0.085697696 -0.08689186 0.04159432 0.018877938 0.10060604 -0.12351939
5.9142465e-05 0.05885841 0.16049622 0.08356841 -0.15142335 0.13314275 0.0492776 -0.042504154
-0.07837617 0.051420305 -0.037699524 -0.12696132 -0.10944261 -0.1955737 -0.04160903 -0.1086423
-0.12985349 0.088992506 0.17939006 -0.112866394 0.01719896 0.0994748 -0.074923836 -0.13507661
0.029305847 0.04365661 0.04477436 -0.13252243 -0.16317399 -0.13500032 0.015307621 0.0749059
-0.03953692 -0.1112915 0.11669838 -0.11966145 -0.17544714 0.1812224 0.16230422 -0.24462281
-0.03878659 0.043346457 0.0053944066 -0.070215605 -0.035486966 -0.14710529 -0.028017703 0.13532324
-0.06578383 0.014587225 -0.05519377 -0.061459873 -0.036074504 0.06409071 -0.11366165 0.05529934
-0.087227695 0.07815745 0.056677636 -0.14562583 -0.029459279 0.055283077 0.084950946 -0.024396224
-0.24352022 0.15248074 0.10830576 -0.12623036 -0.1734896 0.18949181 -0.085836895 -0.01256877
-0.07853721 0.06372626 -0.098400556 0.009258955 0.00017715438 -0.0011856596 0.017983263 -0.0025968237
-0.12677887 0.032575257 0.18873937 -0.12860124 -0.024717499 0.014703097 0.0766793 -0.045042124
-0.03606217 -0.09861076 0.030250529 0.06547278 0.1521074 -0.16761856 0.0019395533 -0.082066044
0.30127355 0.11829963 0.24095696 0.0834867 -0.03944162 -0.25743428 -0.104712896 -0.122600965
-0.08106366 -0.22569466 0.02750457 0.0006344443 -0.04195582 -0.0069958935 -0.0052509657 -0.19327444
-0.023420371 0.057698596 0.11287958 -0.06523486 0.073871404 -0.06621043 -0.10357932 -0.11986437
-0.0677502 -0.14751752 -0.13108772 0.069930665 0.053967148 -0.054550327 0.11403538 0.06289635
0.08374216 0.049543165 -0.085102186 -0.14090653 -0.05399312 -0.010226114 0.020935616 0.044340152
-0.034200087 -0.052552894 0.15023388 0.111829214 -0.16842872 -0.07391365 -0.033638887 -0.027334694
0.09408154 0.096551195 0.007282608 -0.03853674 0.09345454 -0.023139384 0.23280305 0.17365015
-0.112715 -0.15465826 -0.08181535 -0.046583652 -0.15007429 -0.0854753 -0.07656148 -0.1694605
0.1711643 0.19856603 0.23701029 0.03862191 0.026411904 -0.083338685 -0.13660686 0.080150485
0.07342443 -0.26912528 -0.048814774 -0.04337982 -0.1283228 -0.089988485 0.005667798 -0.17344725
0.0423968 0.052512445 0.20264806 0.057041768 0.07256324 0.041790377 0.21001537 0.054054614
-0.05665801 -0.15873075 -0.20612925 -0.05919981 -0.09704926 -0.13216099 0.04402007 0.0729291
0.14494663 0.02271326 0.004296018 -0.026143694 -0.036907844 -0.28835526 -0.0026589027 -0.13010725
-0.11155693 0.030627124 0.077561565 0.033682182 -0.08601604 0.080384515 -0.01838475 -0.24349298
0.0925656 0.0954797 -0.023338731 0.05263666 0.018444257 -0.46812367 -0.033332508 -0.06185546
-0.036040556 -0.059567735 0.07049521 0.0692514 -0.029826026 0.062753014 -0.057077322 -0.20989038
00000000: 41b8 83be 4e88 293e 3ede ebbd 18bd dabd
00000010: 83b1 65bc 91e4 613e 8057 c8bd ec04 01be
00000020: aa1a bcbc 5cf9 5f3d 4deb 823c bb5f e33c
00000030: ac21 8b3d cfc5 38be a5fa 943b 3eb2 98bc
00000040: a038 eb3c 5ddb 8cbd 0e59 7abe 8f7e cc3b
00000050: 5ee6 8a3b b9d9 e7bb 5e64 debd 67fb c7bc
00000060: 2a95 3bbd ab45 163d 4682 af3d 5cf4 b1bd
00000070: ce5e 2a3d e8a5 9a3c 8a0a ce3d bcf7 fcbd
00000080: bd0f 7838 8415 713d 1f59 243e ea25 ab3d
00000090: b90e 1bbe 9356 083e 4fd7 493d d618 2ebd
000000a0: af83 a0bd 199e 523d d16a 1abd 2602 02be
000000b0: 7223 e0bd 7944 48be 3b6e 2abd db7f debd
000000c0: 50f8 04be b441 b63d 07b2 373e 7f26 e7bd
000000d0: d5e4 8c3c 72b9 cb3d ab71 99bd 8651 0abe
000000e0: d112 f03c 46d1 323d 5265 373d f6b3 07be
000000f0: 1517 27be 863d 0abe d1cc 7a3c 4468 993d
00000100: 77f1 21bd ccec e3bd 8fff ee3d 1011 f5bd
00000110: 6aa8 33be 5d92 393e 1433 263e 677e 7abe
00000120: b0de 1ebd 0e8c 313d 90c3 b03b 33cd 8fbd
00000130: c85a 11bd c5a2 16be 6285 e5bc 2d92 0a3e
00000140: acb9 86bd 42ff 6e3c dd12 62bd 59bd 7bbd
00000150: dcc2 13bd fd41 833d 70c7 e8bd 9081 623d
00000160: 6fa4 b2bd 0311 a03d cf26 683d f01e 15be
00000170: 9654 f1bc 8270 623d c3fa ad3d 97da c7bc
00000180: 5d5d 79be e923 1c3e 69cf dd3d 8842 01be
00000190: 42a7 31be 240a 423e 41cb afbd 3eed 4dbc
000001a0: 1ed8 a0bd ea82 823d 3b86 c9bd dfb2 173c
000001b0: 84c2 3939 2268 9bba a351 933c 792f 2abb
000001c0: 52d2 01be a26d 053d e544 413e 0bb0 03be
000001d0: 5a7c cabc 42e5 703c 090a 9d3d 177e 38bd
000001e0: edb5 13bd 70f4 c9bd f5cf f73c 9816 863d
000001f0: 0bc2 1b3e 33a4 2bbe 9c38 fe3a 3e12 a8bd
00000200: 8740 9a3e 1447 f23d 6cbd 763e 13fb aa3d
00000210: 898d 21bd 6dce 83be b773 d6bd 3716 fbbd
00000220: b404 a6bd 801c 67be 4451 e13c d650 263a
00000230: ded9 2bbd cf3d e5bb 4b10 acbb bce9 45be
00000240: 14dc bfbc 5d55 6c3d 692d e73d db99 85bd
00000250: e449 973d 5599 87bd 6521 d4bd 737b f5bd
00000260: 9ec0 8abd d50e 17be dc3b 06be cf37 8f3d
00000270: a80c 5d3d 2a70 5fbd 628b e93d cdcf 803d
00000280: 0281 ab3d c6ed 4a3d 0e4a aebd cd49 10be
00000290: e427 5dbd 6e8b 27bc 2b81 ab3c 059e 353d
000002a0: 6415 0cbd b441 57bd e9d6 193e b706 e53d
000002b0: 9478 2cbe 0a60 97bd eec8 09bd 02ed dfbc
000002c0: d3ad c03d a2bc c53d f2a2 ee3b b3d8 1dbd
000002d0: 1865 bf3d ce8e bdbc ec63 6e3e 58d1 313e
000002e0: 1fd7 e6bd bc5e 1ebe ce8e a7bd 80ce 3ebd
000002f0: 13ad 19be ad0d afbd 44cc 9cbd 0e87 2dbe
00000300: b245 2f3e e554 4b3e d3b2 723e 0232 1e3d
00000310: c75d d83c 79ad aabd abe2 0bbe f025 a43d
00000320: 8c5f 963d caca 89be 00f2 47bd 0aaf 31bd
00000330: 0d67 03be e24b b8bd f0b8 b93b 289c 31be
00000340: 44a8 2d3d 4a17 573d f982 4f3e a1a4 693d
00000350: 099c 943d 632c 2b3d 450e 573e 5f68 5d3d
00000360: 3b12 68bd 508a 22be 8c13 53be 807b 72bd
00000370: c3c1 c6bd 3655 07be 644e 343d da5b 953d
00000380: e46c 143e 2911 ba3c 9cc5 8c3b 4d2b d6bc
00000390: ae2c 17bd 4da3 93be fc40 2ebb d63a 05be
000003a0: f677 e4bd bce5 fa3c 99d8 9e3d 54f6 093d
000003b0: 2d29 b0bd a3a0 a43d 9d9b 96bc 3956 79be
000003c0: 0993 bd3d dc8a c33d de30 bfbc 8a99 573d
000003d0: 6918 973c e8ad efbe ab87 08bd 275c 7dbd
000003e0: 439f 13bd 4cfd 73bd cb5f 903d aed3 8d3d
000003f0: b655 f4bc a784 803d e9c9 69bd 81ed 56be

conv3.bias f4 [16]
-0.0067923893 0.041477025 -0.09335686 -0.104504496 0.031416863 0.038333982 -0.091011934 0.12133704
0.21813758 0.077861525 0.079553105 0.066850804 0.107792355 0.022779832 0.17832059 -0.031244043
00000000: b192 debb d0e3 293d e231 bfbd 7406 d6bd
00000010: f8ae 003d 1804 1d3d 7764 babd 8e7f f83d
00000020: 755f 5f3e dd75 9f3d bdec a23d 13e9 883d
00000030: 3dc2 dc3d c59c ba3c ac99 363e 82f3 ffbc

fc1.weight f4 [64, 16]
-0.17312051 -0.50911486 0.13624956 -0.3252107 0.18793 -0.2540465 0.32835135 -0.024755133
-0.3126738 -0.120951444 -0.024056505 -0.10479153 0.0712161 -0.034464534 0.20375402 0.26640114
0.1551655 -0.026101826 0.07083137 0.23035543 0.3263571 0.33323902 -0.29710215 -1.0517333
-0.15871492 -0.11911123 0.028110333 0.1626103 -0.2574905 -0.37757924 0.12835178 -0.001109117
-0.208204 0.117513925 -0.212608 0.10873813 -0.06439766 -0.088124126 -0.20255311 0.116170526
-0.036250766 0.15801649 0.27953625 0.46855524 -0.65497416 0.17168927 0.12006382 -0.19035709
0.12582494 -0.35902414 -0.16263491 0.2108928 -0.09006444 -0.26176575 -0.13692044 -0.042911317
0.10119499 -0.3921733 -0.02548276 0.09728882 -0.16379273 0.36622408 0.53979605 0.12926696
0.0010053987 0.32793176 0.48656783 -0.24446903 -0.23528138 -0.0042139953 0.07849917 0.3064057
-0.73065746 0.11679804 -0.038382754 -0.2862406 0.059431214 -0.2738112 -0.24671227 -0.09417806
-0.22636503 -0.062119156 -0.025767053 -0.11541909 -0.33919212 0.6681104 -0.29822654 -0.3958031
0.2944909 -0.035198294 -0.44345835 -0.0014285287 -0.03573596 -0.3316562 -0.20691466 0.56204104
0.5421762 0.09847201 0.37025622 -0.35724184 0.084661074 -0.006971506 -0.09532646 -0.49246714
-0.16028537 0.1477709 -0.11719106 0.3178816 -0.4907894 0.14986333 -0.33217737 0.06538047
-0.5800894 -0.21990089 -0.17620225 -0.1244125 -0.11413551 -0.2762566 -0.27811745 0.31598353
0.17059301 -0.14775783 -0.2608118 0.14182268 0.2997397 0.12317489 0.32453665 0.0134592485
0.52478826 -0.35966077 0.06725672 -0.049947206 0.4766853 -0.35299718 0.11673122 -0.56050324
-0.06348231 -0.049179066 0.13238916 0.113771155 0.0775292 -0.59239465 -0.4375376 0.11903129
0.35398966 0.23426361 0.43912813 -0.2278892 0.3717472 0.17983672 -0.03422245 -0.4951938
-0.07080424 -0.25960326 -0.5759386 0.040279694 -0.30041796 -0.18079975 -0.23987304 0.008194969
0.046282053 -0.4946927 -0.11646686 0.14639305 -0.01359032 0.15813638 -0.31015202 -0.30151188
-0.040769413 -0.20543514 0.29391038 0.1508079 0.32852396 0.13779132 -0.255256 -0.095995106
0.07371227 -0.15098675 0.26273978 -0.20776726 -0.22570081 0.5419793 -0.20133542 -0.11968699
-0.22105479 0.14843774 -0.88720804 -0.34845698 0.069582306 -0.10572142 0.07651316 0.316813
0.13011068 -0.06381442 -0.38417658 0.062811874 0.13811132 0.065519795 0.1573637 -0.27398252
-0.24033503 0.13393016 -0.20016956 -0.066190705 -0.5137006 -0.18153451 -0.012344402 0.22709502
0.047168452 -0.14034005 -0.051428724 -0.36326718 0.15554734 0.050254583 -0.61224246 0.02769184
0.20037346 -0.21682341 -0.06651044 -0.15460147 -0.3015396 0.45152134 -0.07526497 -0.30975768
-0.24141441 -0.21380378 -0.24756996 -0.025047598 0.23579924 -0.4371068 -0.38300657 0.47141725
-0.069955505 0.30674115 -0.22120667 -0.19581918 -0.57650256 -0.053975735 0.14250317 -0.10543461
-0.50304776 0.10326477 -0.22065006 0.07381791 0.5537869 0.08376082 0.08846663 -0.24623077
-0.13539757 -0.5963205 0.13715047 -0.34553406 0.3597137 -0.25905114 -0.27105772 0.24774721
00000000: 8146 31be 5a55 02bf 0185 0b3e 0482 a6be
00000010: b970 403e 6212 82be ab1d a83e 47cb cabc
00000020: c816 a0be 64b5 f7bd 2612 c5bc f19c d6bd
00000030: bfd9 913d af2a 0dbd e5a4 503e bb65 883e
00000040: b4e3 1e3e 7fd3 d5bc 0a10 913d 4be2 6b3e
00000050: 4718 a73e 4e9e aa3e c61d 98be 329f 86bf
00000060: 2a86 22be 97f0 f3bd a447 e63c 5183 263e
00000070: cbd5 83be 1152 c1be a66e 033e ca5f 91ba
00000080: 6e33 55be 24ab f03d e9b5 59be 19b2 de3d
00000090: ece2 83bd 6c7a b4bd 156a 4fbe d0ea ed3d
000000a0: af7b 14bd 13cf 213e 601f 8f3e 79e6 ef3e
000000b0: 63ac 27bf 50cf 2f3e 05e4 f53d f8ec 42be
000000c0: 41d8 003e 03d2 b7be c489 26be 48f4 573e
000000d0: b573 b8bd 2906 86be df34 0cbe c7c3 2fbd
000000e0: 523f cf3d f0ca c8be 39c1 d0bc 5c3f c73d
000000f0: 48b9 27be b981 bb3e 1330 0a3f 8f5e 043e
00000100: 95c7 833a ace6 a73e 6b1f f93e 1756 7abe
00000110: 9aed 70be 8e15 8abb 2cc4 a03d 35e1 9c3e
00000120: 5e0c 3bbf d033 ef3d 3c37 1dbd 218e 92be
00000130: 256e 733d fb30 8cbe 24a2 7cbe 6de0 c0bd
00000140: 3ccc 67be a870 7ebd 6d15 d3bc d860 ecbd
00000150: 97aa adbe 4809 2b3f 26b1 98be b4a6 cabe
00000160: 83c7 963e 162c 10bd f90c e3be 783d bbba
00000170: df5f 12bd d7ce a9be 70e1 53be ece1 0f3f
00000180: 0fcc 0a3f b1ab c93d 3992 bd3e 67e8 b6be
00000190: c962 ad3d 3b71 e4bb 853a c3bd a724 fcbe
000001a0: d921 24be 4151 173e de01 f0bd 61c1 a23e
000001b0: c048 fbbe c675 193e 2713 aabe 32e6 853d
000001c0: bd80 14bf b32d 61be 5d6e 34be fbcb febd
000001d0: e1bf e9bd 8171 8dbe 6965 8ebe 98c8 a13e
000001e0: efaf 2e3e d44d 17be 2089 85be f739 113e
000001f0: 7b77 993e 1e43 fc3d ab29 a63e 2e84 5c3c
00000200: 8658 063f 7525 b8be e4bd 893d 7195 4cbd
00000210: 1810 f43e 0cbc b4be c710 ef3d 247d 0fbf
00000220: 0303 82bd fd6f 49bd 0691 073e da00 e93d
00000230: a1c7 9e3d 2da7 17bf ee04 e0be adc6 f33d
00000240: 223e b53e cde2 6f3e 67d5 e03e c95b 69be
00000250: a655 be3e 1e27 383e d72c 0cbd 0b8a fdbe
00000260: d001 91bd b8ea 84be b670 13bf 52fc 243d
00000270: 62d0 99be 9223 39be 47a1 75be 3144 063c
00000280: 4092 3d3d 5d48 fdbe 2d86 eebd 0fe8 153e
00000290: efa9 5ebc 81ee 213e 3fcc 9ebe c45f 9abe
000002a0: d4fd 26bd 975d 52be 6c7b 963e 636d 1a3e
000002b0: 4b34 a83e 2b19 0d3e eab0 82be 1599 c4bd
000002c0: 75f6 963d 459c 1abe d485 863e f1c0 54be
000002d0: 1d1e 67be 28bf 0a3f df2a 4ebe 741e f5bd
000002e0: 305c 62be 1000 183e 1120 63bf f468 b2be
000002f0: 2b81 8e3d 7984 d8bd eeb2 9c3d 5035 a23e
00000300: bc3b 053e 22b1 82bd cbb2 c4be 83a3 803d
00000310: 0e6d 0d3e 3e2f 863d f323 213e 7047 8cbe
00000320: 631a 76be fd24 093e 40f9 4cbe fe8e 87bd
00000330: e281 03bf 2fe4 39be 2d40 4abc 998b 683e
00000340: b533 413d 4db5 0fbe eda6 52bd 28fe b9be
00000350: cd47 1f3e c0d7 4d3d ecbb 1cbf ffd9 e23c
00000360: b32e 4d3e f506 5ebe a036 88bd d94f 1ebe
00000370: 6663 9abe ce2d e73e 8524 9abd 8f98 9ebe
00000380: 5735 77be 61ef 5abe fb82 7dbe 9f30 cdbc
00000390: 5b75 713e 76cc dfbe 7019 c4be 9a5d f13e
000003a0: d544 8fbd 2d0d 9d3e 0084 62be d384 48be
000003b0: ac95 13bf a915 5dbd 5aec 113e 1aee d7bd
000003c0: bdc7 00bf 7b7c d33d 17f2 61be d82d 973d
000003d0: fac4 0d3f cb8a ab3d fe2d b53d eb23 7cbe
000003e0: a9a5 0abe 76a8 18bf 2c71 0c3e d7e9 b0be
000003f0: 652c b83e 5aa2 84be 14c8 8abe 72b1 7d3e

fc1.bias f4 [64]
-0.07905042 0.0929484 0.12026491 0.33923388 0.12487385 0.24217334 0.0675321 0.10138183
0.16718757 -0.060066037 0.11293438 0.32278827 0.025309796 0.343099 0.012832576 0.21809107
0.13832393 -0.08835767 -0.14710787 0.0492795 0.2810049 0.022792794 0.20351611 0.40915108
0.21833593 0.35766757 0.19315502 0.19414604 -0.06820214 0.1253847 0.22149745 0.14888978
0.44119385 0.023913527 -0.012546498 0.29054397 -0.00059942546 0.29791805 0.20917238 0.43935275
0.15032029 -0.00090432144 0.057807766 0.21395856 0.003890397 0.04785675 0.33107606 -0.011368403
-0.014818841 0.06089934 0.058216017 0.18563873 0.37465227 0.0245942 0.30221897 0.21238558
0.38209763 0.22921248 0.022105865 0.025984036 0.28531945 0.051697116 0.15337709 -0.0073444066
00000000: 30e5 a1bd bb5b be3d 734d f63d 10b0 ad3e
00000010: dcbd ff3d 4afc 773e 454e 8a3d 47a1 cf3d
00000020: 3833 2b3e ce07 76bd 244a e73d 8144 a53e
00000030: 7d56 cf3c acaa af3e ba3f 523c 4453 5f3e
00000040: caa4 0d3e def4 b4bd 72a3 16be 4dd9 493d
00000050: e0df 8f3e f4b7 ba3c 8766 503e 407c d13e
00000060: 7493 5f3e 3420 b73e 6eca 453e 38ce 463e
00000070: 90ad 8bbd d964 003e 3ad0 623e 9076 183e
00000080: 29e4 e13e 4de6 c33c d48f 4dbc 2ec2 943e
00000090: c322 1dba b788 983e 4931 563e d8f2 e03e
000000a0: 90ed 193e fc0f 6dba d6c7 6c3d f417 5b3e
000000b0: 08f6 7e3b 7105 443d cd82 a93e 8a42 3abc
000000c0: b9ca 72bc 9671 793d eb73 6e3d 1418 3e3e
000000d0: 6cd2 bf3e c779 c93c 72bc 9a3e 9b7b 593e
000000e0: 4da2 c33e adb6 6a3e 5c17 b53c 79dc d43c
000000f0: 6415 923e 5bc0 533d e20e 1d3e 59a9 f0bb

fc2.weight f4 [10, 64]
-0.3232237 0.11821366 -0.46456116 -0.26362813 0.2635291 0.35347128 -0.16362797 -0.3016951
-0.3666481 0.24256429 -0.2820822 0.42794135 -0.010150876 -0.037403993 -0.15018539 -0.26939058
0.25097826 -0.27607912 -0.20282646 -0.08986195 -0.14686413 -0.1558573 -0.09883791 -0.17933357
0.39887607 -0.31275308 -0.07911813 -0.17826203 -0.29724395 -0.31383905 -0.5691051 -0.12322415
-0.23841672 -0.3912783 -0.0489248 -0.08652206 0.10628804 -0.40978336 -0.035119485 -0.40797952
-0.12187863 -0.59724444 -0.05051506 -0.14502151 0.34490106 -0.17168108 0.19525051 0.21692161
-0.2894064 -0.71074075 -0.48763114 -0.4711799 -0.02389414 -0.22586532 -0.5422502 0.33096695
-0.106454805 -0.11908415 -0.083788365 -0.16843298 -0.47130617 -0.14915165 0.5142131 -0.3509513
-0.3727191 0.17484315 0.16366072 -0.107855104 -0.23241155 -0.38609853 0.47694787 -0.3558242
0.30126154 0.51067394 -0.23800714 -0.31372383 -0.11507354 0.1990629 -0.21452413 -0.33608964
-0.29851186 0.04064872 -0.21317455 -0.04446566 -0.4245833 -0.101973146 -0.2684636 0.48745963
-0.22282176 0.21258484 0.012984708 -0.056442164 -0.11230806 -0.4005082 0.17529812 -0.39348337
0.21434067 -0.46653956 -0.38972366 0.23633885 0.27456087 0.036709964 -0.37694034 0.47564352
-0.057839304 -0.10814961 0.1738516 -0.029328901 -0.34296125 0.12790412 -0.45868596 -0.28112727
-0.40394652 0.2471083 -0.4385985 -0.13833648 0.4305256 0.059368778 0.009394057 -0.22500665
-0.121511236 -0.3959569 -0.5380325 -0.31191683 -0.41346323 -0.2855325 -0.68321335 -0.46575707
-0.32589802 -0.23938844 0.11832972 0.27926946 -0.09204741 -0.035393924 -0.21512832 0.27602577
-0.3685082 -0.2029936 -0.0061977766 -0.29798624 -0.00017439896 -0.08581908 -0.025744077 -0.47314465
0.23654494 0.05392267 -0.14676377 -0.06558278 0.093680084 0.28257966 0.08442077 -0.0072862203
-0.26456726 0.3388168 -0.29874402 -0.039398998 -0.09298534 -0.110123955 0.048811905 -0.41553223
0.1783395 -0.061013125 0.17365216 0.18940923 -0.49920604 0.060814336 -0.025769766 -0.58029646
0.07515137 -0.32780352 -0.13354559 -0.1609275 -0.62618786 -0.33627045 0.20282516 0.03817826
0.07191656 -0.29795042 -0.0922407 -0.24214947 0.119582586 -0.5671715 -0.27226114 0.2681659
-0.019189501 0.034907583 -0.024987802 -0.08776159 0.29663464 -0.05825805 -0.12727976 -0.17267312
-0.1263916 -0.28682488 0.052660335 -0.06646081 -0.16310148 -0.23947953 -0.09178919 -0.17449065
0.05330851 -0.3756479 -0.19318672 -0.29728144 0.2246962 0.1667857 0.3519239 -0.5666757
-0.03219917 -0.09664446 -0.019645939 0.10209435 -0.2996894 0.12935495 0.1617013 -0.3621749
-0.20276184 -0.2841979 -0.47922495 0.14815013 -0.18594816 0.28106302 -0.016197434 -0.16196135
-0.11713002 0.1503771 -0.1658892 -0.5347432 -0.3155948 0.36973774 0.13039978 -0.13278398
0.25115868 -0.10802503 -0.5520831 -0.29701412 0.15870386 -0.14051603 -0.012017015 -0.4192559
-0.23781443 0.40056202 -0.13061117 -0.047101952 -0.02605881 -0.40087703 0.22095843 -0.3094342
-0.43847647 -0.29419804 -0.21790813 -0.22710535 -0.015446315 -0.08669005 0.15607856 0.02469573
00000000: 947d a5be 011a f23d f6da edbe 44fa 86be
00000010: 49ed 863e 30fa b43e 178e 27be c877 9abe
00000020: 4db9 bbbe c662 783e 146d 90be 211b db3e
00000030: dc4f 26bc ee34 19bd 33ca 19be 90ed 89be
00000040: 3980 803e 3e5a 8dbe bdb1 4fbe 8b09 b8bd
00000050: 8d63 16be 0e99 1fbe 886b cabd 38a3 37be
00000060: 7c39 cc3e 2c21 a0be b008 a2bd 528a 36be
00000070: 5c30 98be 83af a0be dfb0 11bf f15c fcbd
00000080: 8323 74be a155 c8be 5f65 48bd 7a32 b1bd
00000090: 8bad d93d 20cf d1be 73d9 0fbd b1e2 d0be
000000a0: 819b f9bd 03e5 18bf e1e8 4ebd 8580 14be
000000b0: df96 b03e 2acd 2fbe c0ef 473e b320 5e3e
000000c0: 132d 94be 1bf3 35bf caaa f9be 7e3e f1be
000000d0: a5bd c3bc 3d49 67be e9d0 0abf 8074 a93e
000000e0: fa04 dabd 64e2 f3bd 3c99 abbd b279 2cbe
000000f0: 0b4f f1be 36bb 18be 78a3 033f e4af b3be
00000100: 0ad5 bebe 150a 333e ad96 273e 23e3 dcbd
00000110: 4bfd 6dbe b5ae c5be 8332 f43e 972e b6be
00000120: f43e 9a3e 87bb 023f 25b8 73be 69a0 a0be
00000130: adab ebbd 25d7 4b3e 37ac 5bbe f113 acbe
00000140: 8cd6 98be 467f 263d 6e4a 5abe a021 36bd
00000150: fb62 d9be 4cd7 d0bd 1074 89be 4f94 f93e
00000160: 632b 64be d7af 593e d0bd 543c e62f 67bd
00000170: c501 e6bd 690f cdbe 5a81 333e a776 c9be
00000180: 1f7c 5b3e 46de eebe dc89 c7be d002 723e
00000190: 3e93 8c3e 305d 163d 53fe c0be 8c87 f33e
000001a0: e8e8 6cbd 8b7d ddbd 2706 323e 2a43 f0bc
000001b0: 9e98 afbe 4cf9 023e e3d8 eabe eaef 8fbe
000001c0: 14d2 cebe f509 7d3e fc8f e0be 14a8 0dbe
000001d0: da6d dc3e ad2c 733d 88e9 193c 2568 66be
000001e0: e2da f8bd ddba cabe 7fbc 09bf 90b3 9fbe
000001f0: 74b1 d3be 5131 92be 12e7 2ebf b677 eebe
00000200: 1bdc a6be 3e22 75be da56 f23d 68fc 8e3e
00000210: 5a83 bcbd 38f9 10bd 994a 5cbe 4053 8d3e
00000220: 1bad bcbe 8edd 4fbe b816 cbbb a791 98be
00000230: ddde 36b9 eac1 afbd 3ee5 d2bc 0440 f2be
00000240: d638 723e 05de 5c3d 3e49 16be 4450 86bd
00000250: 58db bf3d 48ae 903e cce4 ac3d 3fc1 eebb
00000260: 5c75 87be 6579 ad3e faf4 98be d860 21bd
00000270: 196f bebd ab88 e1bd feee 473d a4c0 d4be
00000280: a19e 363e e6e8 79bd dfd1 313e 7ef4 413e
00000290: ef97 ffbe 7418 793d 1e1b d3bc 4f8e 14bf
000002a0: f6e8 993d ddd5 a7be 2dc0 08be 2eca 24be
000002b0: d94d 20bf a42b acbe 66b1 4f3e cf60 1c3d
000002c0: fd48 933d f58c 98be b1e8 bcbd 08f6 77be
000002d0: b7e7 f43d 2732 11bf d065 8bbe 0a4d 893e
000002e0: 4d33 9dbc 41fb 0e3d 38b3 ccbc 59bc b3bd
000002f0: 7fe0 973e fe9f 6ebd a055 02be 39d1 30be
00000300: cd6c 01be b6da 92be 5db2 573d 9b1c 88bd
00000310: 1304 27be 1f3a 75be f9fb bbbd adad 32be
00000320: 065a 5a3d ec54 c0be bdd2 45be 4635 98be
00000330: c316 663e dfc9 2a3e 5f2f b43e a911 11bf
00000340: 47e3 03bd 88ed c5bd 85f0 a0bc d816 d13d
00000350: e470 99be a075 043e 0795 253e fd6e b9be
00000360: cda0 4fbe 6382 91be f95c f5be abb4 173e
00000370: 3269 3ebe 7ee7 8f3e 7bb0 84bc 32d9 25be
00000380: dde1 efbd 74fc 193e dcde 29be eee4 08bf
00000390: a495 a1be 444e bd3e 8587 053e 86f8 07be
000003a0: df97 803e 3a3c ddbd 5155 0dbf 3c12 98be
000003b0: 4483 223e 6fe3 0fbe 04e3 44bc b6a8 d6be
000003c0: a085 73be 7716 cd3e efbe 05be faed 40bd
000003d0: 4979 d5bc c13f cdbe ed42 623e 296e 9ebe
000003e0: fd7f e0be 20a1 96be 4f23 5fbe 4e8e 68be
000003f0: 8a12 7dbc 8e8a b1bd 0fd3 1f3e b34e ca3c

fc2.bias f4 [10]
-0.021577701 0.012922634 -0.0013077204 -0.0034030017 0.09251632 -0.16118357 -0.30525863 -0.10343612
-0.05164937 -0.0068111205
00000000: b8c3 b0bc 75b9 533c d167 abba e504 5fbb
00000010: 3279 bd3d 4e0d 25be dc4a 9cbe 51d6 d3bd
00000020: 4a8e 53bd d22f dfbb

batchnorm1.weight f4 [8]
0.49851072 0.6299602 0.49979043 0.54726744 0.68051124 0.7236114 0.66038686 0.5123458
00000000: cc3c ff3e 1245 213f 88e4 ff3e b819 0c3f
00000010: fc35 2e3f 993e 393f 1d0f 293f 1829 033f

batchnorm1.bias f4 [8]
0.10903214 0.12602104 0.13293156 0.14965768 0.16859853 0.08631292 0.12736617 0.07980552
00000000: 3e4c df3d a90b 013e 361f 083e dd3f 193e
00000010: 18a5 2c3e d4c4 b03d 476c 023e 1471 a33d

batchnorm1.running_mean f4 [8]
0.37608168 0.3688715 0.26744282 0.21039839 0.37713984 0.43163234 0.31081372 0.51671785
00000000: c78d c03e badc bc3e 44ee 883e ad72 573e
00000010: 7918 c13e eafe dc3e fa22 9f3e 9f47 043f

batchnorm1.running_var f4 [8]
1.4117506 1.5961163 0.7447124 0.4904201 1.5864239 0.26628947 1.0483612 2.7713857
00000000: 3eb4 b43f 8a4d cc3f 79a5 3e3f 5818 fb3e
00000010: f00f cb3f 1857 883e b330 863f 625e 3140

batchnorm2.weight f4 [8]
0.5473667 0.42997715 0.4211198 0.49705637 0.5896013 0.3762992 0.5150116 0.51609963
00000000: 3920 0c3f f725 dc3e 049d d73e 2c7e fe3e
00000010: 1cf0 163f 4aaa c03e cdd7 033f 1b1f 043f

batchnorm2.bias f4 [8]
0.25275078 0.1200624 0.12002722 0.21226883 0.2222645 0.10153405 0.13449554 0.19274046
00000000: 8d68 813e 47e3 f53d d5d0 f53d 005d 593e
00000010: 4e99 633e 16f1 cf3d 33b9 093e c15d 453e

batchnorm2.running_mean f4 [8]
2.4075043 0.5523625 1.1823931 1.6789184 3.1740277 0.8690694 1.8775369 1.952995
00000000: 8d14 1a40 a167 0d3f a858 973f cce6 d63f
00000010: 4523 4b40 557b 5e3f 2153 f03f bdfb f93f

batchnorm2.running_var f4 [8]
15.7210045 1.9403446 5.8694687 10.507814 27.21348 3.7580323 11.238339 11.36396
00000000: 3c89 7b41 365d f83f b0d2 bb40 0220 2841
00000010: 35b5 d941 9a83 7040 3dd0 3341 c8d2 3541

batchnorm3.weight f4 [16]
0.9523124 1.4387171 1.2552544 0.9220417 1.4045693 1.3006613 1.1201901 1.3772562
1.3217912 1.358212 1.4288261 1.2694184 1.2333835 1.3846797 1.0352751 0.8838568
00000000: bfca 733f e227 b83f 2dac a03f ed0a 6c3f
00000010: edc8 b33f 127c a63f 6462 8f3f ee49 b03f
00000020: 7430 a93f e4d9 ad3f c6e3 b63f 4d7c a23f
00000030: 83df 9d3f 2f3d b13f e583 843f 7044 623f

batchnorm3.bias f4 [16]
-0.08955265 -0.18323995 -0.19774434 -0.23372273 -0.024409395 0.038640726 -0.36024553 0.45387486
-0.02430284 -0.006563743 0.0015888688 -0.0002951151 0.2127739 0.019962361 -0.02110396 0.112347536
00000000: 6167 b7bd 41a3 3bbe 7e7d 4abe 0355 6fbe
00000010: 36f6 c7bc bd45 1e3d 1a72 b8be 4962 e83e
00000020: c016 c7bc ab14 d7bb 9741 d03a aeb9 9ab9
00000030: 67e1 593e 1b88 a33c 36e2 acbc 7716 e63d

batchnorm3.running_mean f4 [16]
0.402436 0.36262414 0.31976467 0.2081501 0.42945006 0.4896802 0.40007818 0.6498987
0.8696644 0.4206499 0.53962755 0.25360286 0.56648487 0.63899726 0.43860808 0.20766859
00000000: 170c ce3e dfa9 b93e 32b8 a33e 4d25 553e
00000010: e1e0 db3e 5db7 fa3e 0cd7 cc3e c35f 263f
00000020: 53a2 5e3f 6c5f d73e 0825 0a3f 3cd8 813e
00000030: 2705 113f 5395 233f 3d91 e03e 13a7 543e

batchnorm3.running_var f4 [16]
0.15580107 0.30566862 0.18601732 0.15481225 0.18102111 0.34797567 0.14111008 0.30206144
0.3770887 0.26175106 0.34034327 0.16190557 0.27997524 0.3211998 0.19854309 0.12821883
00000000: 518a 1f3e 9980 9c3e 537b 3e3e 1a87 1e3e
00000010: 995d 393e de29 b23e 297f 103e cca7 9a3e
00000020: c511 c13e 3c04 863e 7941 ae3e 93ca 253e
00000030: ea58 8f3e 4d74 a43e e14e 4b3e cc4b 033e
