mnist_model2.pt (torch_old, 604254 bytes, 16 tensors)

conv1.weight f4 [8, 1, 2, 2]
0.47001472 -0.036264695 0.10960813 0.2099892 -0.4001154 0.2785703 -0.009457886 0.4031937
0.1135071 -0.028322041 0.3298707 0.13397968 0.3145823 -0.17851682 0.009506422 -0.006120998
0.057728145 -0.08850386 0.67731047 0.14851254 0.019945558 -0.122057006 -0.27800894 -0.37184978
-0.11604444 0.05362869 0.32200333 0.43456066 -0.3703018 0.36212254 0.12178593 0.63259256
00000000: c5a5 f03e 4a8a 14bd 3a7a e03d 6907 573e
00000010: eddb ccbe c4a0 8e3e 40f5 1abc 686f ce3e
00000020: 6976 e83d a003 e8bc d0e4 a83e f831 093e
00000030: ee10 a13e 1dcd 36be d3c0 1b3c a792 c8bb
00000040: 5974 6c3d 8341 b5bd 3864 2d3f ac13 183e
00000050: de64 a33c 06f9 f9bd 3057 8ebe 1863 bebe
00000060: b5a8 edbd c2a9 5b3d 9fdd a43e bc7e de3e
00000070: 3398 bdbe 2068 b93e e76a f93d 96f1 213f

conv1.bias f4 [8]
0.07453463 -0.3793001 -0.28165847 -0.021852773 0.21590881 0.027801078 0.05550086 -0.2622667
00000000: 9da5 983d 9f33 c2be 8a35 90be 9604 b3bc
00000010: 3317 5d3e 16bf e33c df54 633d d247 86be

conv2.weight f4 [16, 8, 4, 4]
0.13363226 -0.122565016 -0.087199576 -0.10602961 0.045691554 -0.012228008 -0.1366789 0.110638104
0.046649043 -0.1774532 -0.16648032 0.10256778 -0.0768223 -0.2651869 -0.02732498 0.124442145
-0.08672988 -0.21807611 -0.053431146 -0.00988623 -0.18212233 -0.11420383 -0.009923295 0.03266789
-0.20425127 -0.119284734 0.055280052 -0.0042527644 -0.21073489 -0.043757066 0.017312042 -0.059048522
0.0606057 -0.021443602 -0.15417886 -0.06761851 0.1140954 -0.0944734 -0.2902621 0.109435454
0.014235109 -0.20156986 -0.18719637 0.10526058 -0.057046063 -0.21160173 -0.15454604 0.075746626
0.07717685 -0.009808276 -0.019275075 -0.16330886 0.04078856 -0.0037597085 -0.09786092 -0.11051218
0.010315161 -0.036411747 -0.24565722 -0.010231701 -0.031476554 -0.09993488 -0.24068978 0.08666863
0.05958239 -0.108673684 -0.13078123 -0.08331958 0.099133186 -0.16107342 -0.14296849 0.11574693
0.022514839 -0.28461418 -0.033330925 0.15937665 -0.07097476 -0.123611405 -0.09200944 0.0033598705
-0.15088503 0.055452902 0.1402003 0.0061932644 -0.038530286 0.03900727 -0.021583078 -0.042184263
-0.020458529 0.10602079 -0.09799503 -0.03805793 0.055001482 0.057208218 -0.017461177 -0.0074443086
0.13386334 -0.10776009 -0.19310503 -0.07536994 0.09791954 -0.22925182 -0.10519347 0.147318
0.051954433 -0.18765487 0.008606705 0.06556471 -0.09790298 -0.077953726 -0.11296721 0.04072334
0.060439654 -0.21116902 -0.10420716 -0.027100021 -0.10381406 -0.18394133 0.14491199 0.0021020595
-0.2327628 -0.053170845 0.08981197 0.02881872 -0.20601504 0.0021000127 -0.016522933 0.0054042614
-0.15707894 -0.09187501 -0.015561035 0.055470094 -0.049993724 -0.030692564 0.055560056 0.1071773
0.007981937 -0.07561929 -0.10917167 0.10970865 -0.027954109 -0.07492217 -0.1776885 -0.071467474
-0.02865753 0.09721235 -0.06798448 -0.19669285 -0.05537774 0.025670404 0.0705691 -0.09053997
-0.11054301 0.020427473 0.10422163 -0.061031308 -0.020376358 -0.0055298638 0.06846569 -0.036771517
-0.11290848 -0.17185962 0.08755542 0.040607717 0.012446311 -0.11491069 -0.025805114 0.10404413
-0.0034518398 -0.0503298 -0.096196845 0.048384264 -0.10444407 -0.012927412 -0.10057817 -0.073473714
-0.027192248 -0.10972131 -0.08853662 0.112496644 -0.12869526 0.07376057 -0.19798385 -0.034767658
0.05897266 -0.041849945 -0.1259169 0.051648676 0.08477689 0.051635016 -0.1028536 -0.105359346
-0.03969525 -0.10283628 -0.015956577 0.10067035 -0.15102728 -0.040524304 0.065005414 0.030817805
-0.1138073 -0.09179952 -0.037909694 0.07751165 -0.004639875 -0.012826887 -0.15150207 -0.07103073
-0.14037508 -0.06415886 -0.09003865 -0.10927995 0.013237709 -0.044112004 -0.06820807 -0.16351455
0.11659244 0.026582452 -0.018406423 -0.11778512 0.15857199 0.1413141 -0.009737588 0.029458426
-0.06373062 -0.10510236 0.06837909 -0.013934055 0.04887569 -0.13142262 0.01683506 0.0941937
-0.0114166895 -0.013576469 -0.062043894 0.042808183 -0.080293626 -0.060425475 -0.095385045 -0.014605387
-0.014507135 0.042294413 0.09091378 -0.007655235 -0.094808415 -0.075833805 -0.051476896 0.0908281
-0.053116757 -0.058611434 -0.024852652 -0.012182097 0.0520416 -0.04329963 -0.07288427 -0.024066685
00000000: e5d6 083e 5e03 fbbd b195 b2bd 0d26 d9bd
00000010: 1127 3b3d fc57 48bc 8ef5 0bbe 3b96 e23d
00000020: 1113 3f3d 4bb6 35be d179 2abe 0e0f d23d
00000030: 0355 9dbd 94c6 87be a3d8 dfbc 86db fe3d
00000040: 6f9f b1bd 584f 5fbe 9eda 5abd dbf9 21bc
00000050: 477e 3abe b3e3 e9bd 5195 22bc c4ce 053d
00000060: 3f27 51be 8e4b f4bd 566d 623d c65a 8bbb
00000070: e3ca 57be 9c3a 33bd fcd1 8d3c dddc 71bd
00000080: af3d 783d 7eaa afbc 10e1 1dbe 937b 8abd
00000090: d9aa e93d 457b c1bd 3c9d 94be b21f e03d
000000a0: 603a 693c 5468 4ebe 68b0 3fbe dc92 d73d
000000b0: 22a9 69bd 20ae 58be 5141 1ebe 0c21 9b3d
000000c0: e50e 9e3d e4b2 20bc c3e6 9dbc 703a 27be
000000d0: e811 273d 7165 76bb 4e6b c8bd 3654 e2bd
000000e0: ec00 293c 7c24 15bd 918d 7bbe dda2 27bc
000000f0: 8fed 00bd a9aa ccbd 6277 76be 537f b13d
00000100: aa0c 743d 4f90 debd 84eb 05be 75a3 aabd
00000110: 5706 cb3d 6ef0 24be 5566 12be ba0c ed3d
00000120: 0a71 b83c f3b8 91be 0286 08bd a233 233e
00000130: 375b 91bd fa27 fdbd 726f bcbd 4631 5c3b
00000140: 9b81 1abe 9522 633d ab90 0f3e def0 ca3b
00000150: efd1 1dbd 16c6 1f3d ffce b0bc 68c9 2cbd
00000160: a598 a7bc 6e21 d93d 9eb1 c8bd a2e2 1bbd
00000170: 3c49 613d 2a53 6a3d be0a 8fbc 63ef f3bb
00000180: 7913 093e 52b1 dcbd 53bd 45be 8e5b 9abd
00000190: 0a8a c83d fdc0 6abe ad6f d7bd 88da 163e
000001a0: 2cce 543d 9928 40be 2303 0d3c ca46 863d
000001b0: 5c81 c8bd 34a6 9fbd 5a5b e7bd 84cd 263d
000001c0: 928f 773d b13c 58be 906a d5bd dd00 debc
000001d0: 779c d4bd 1e5b 3cbe cf63 143e b5c2 093b
000001e0: 5f59 6ebe acc9 59bd 57ef b73d 3c15 ec3c
000001f0: 9bf5 52be 5ea0 093b 1a5b 87bc 3b16 b13b
00000200: 4dd9 20be f728 bcbd b6f3 7ebc 9c34 633d
00000210: 38c6 4cbd f96e fbbc f192 633d c67f db3d
00000220: acc6 023c 49de 9abd 6695 dfbd eeae e03d
00000230: 0400 e5bc cb70 99bd f9f3 35be 8a5d 92bd
00000240: 32c3 eabc 4517 c73d 723b 8bbd da69 49be
00000250: c5d3 62bd bd4a d23c 8886 903d 056d b9bd
00000260: 6064 e2bd 8457 a73c 2672 d53d f7fb 79bd
00000270: 52ec a6bc dc33 b5bb bd37 8c3d bb9d 16bd
00000280: 903c e7bd f8fb 2fbe 4250 b33d 4754 263d
00000290: 9deb 4b3c 4c56 ebbd 3f65 d3bc 1715 d53d
000002a0: 4338 62bb 9f26 4ebd da02 c5bd 942e 463d
000002b0: c6e6 d5bd 7fcd 53bc edfb cdbd 6379 96bd
000002c0: 47c2 debc 91b5 e0bd b052 b5bd a464 e63d
000002d0: b1c8 03be c80f 973d 47bc 4abe 8868 0ebd
000002e0: 518d 713d d96a 2bbd 5cf0 00be 908d 533d
000002f0: 829f ad3d 3d7f 533d e9a4 d2bd a4c6 d7bd
00000300: 7d97 22bd d49b d2bd 5eb7 82bc 422c ce3d
00000310: e5a6 1abe d0fc 25bd 8f21 853d 9f75 fc3c
00000320: cd13 e9bd 6301 bcbd 3247 1bbd 6ebe 9e3d
00000330: 180a 98bb dd27 52bc 5c23 1bbe 8f78 91bd
00000340: 7cbe 0fbe b865 83bd 2f66 b8bd 2bce dfbd
00000350: fae2 583c caae 34bd acb0 8bbd 5c70 27be
00000360: 04c8 ee3d 71c3 d93c 11c9 96bc 5339 f1bd
00000370: b260 223e a5b4 103e 688a 1fbc cc52 f13c
00000380: 3385 82bd e83f d7bd 560a 8c3d aa4b 64bc
00000390: e031 483d a793 06be aee9 893c a0e8 c03d
000003a0: 110d 3bbc d76f 5ebc bd21 7ebd a257 2f3d
000003b0: fc70 a4bd b480 77bd 3c59 c3bd 6f4b 6fbc
000003c0: 56af 6dbc e83c 2d3d 0131 ba3d c4d8 fabb
000003d0: ea2a c2bd c14e 9bbd 70d9 52bd 1504 ba3d
000003e0: f590 59bd 8b12 70bd ca97 cbbc 6b97 47bc
000003f0: 9329 553d f45a 31bd 5944 95bd 7f27 c5bc

conv2.bias f4 [16]
0.057307284 -0.09233603 -0.120383285 -0.006586103 -0.14781143 -0.0781149 -0.052935347 -0.23408091
-0.14057714 -0.097174674 -0.102493756 0.029538436 -0.10887345 0.02068106 0.0653058 -0.12302265
00000000: 0bbb 6a3d ac1a bdbd 838b f6bd 3cd0 d7bb
00000010: e15b 17be b4fa 9fbd bcd2 58bd e8b2 6fbe
00000020: 74f3 0fbe 8403 c7bd 3fe8 d1bd 97fa f13c
00000030: 0bf9 debd 546b a93c 0cbf 853d 4df3 fbbd

fc1.weight f4 [64, 2304]
-0.019806433 -0.0025649678 0.0021370032 -0.018539492 0.020115767 0.02659607 -0.011747835 0.013214945
0.024716679 -0.007929468 0.0063149068 -0.014180273 0.015631085 -0.0075797513 0.004762465 -0.035800356
0.040978882 0.059340995 0.099707805 0.119581796 0.01431797 0.005704461 0.012998163 -0.0076271505
-0.015575847 -0.06093839 -0.048685413 -0.016019948 0.077306725 0.076763086 0.07905221 0.11560918
0.02243935 -0.017527431 0.034517366 -0.048382092 -0.009919743 -0.04684872 0.015914097 0.04770091
0.10545209 0.15197673 0.10038752 0.12882237 0.061116982 -0.040995877 0.03771734 -0.022953581
-0.007144351 -0.0013072009 0.08294517 0.12353814 0.1764825 0.09176679 0.17994896 0.061760735
-0.050502393 -0.025882535 0.003477585 -0.0204718 -0.004131497 0.037759684 0.079984084 0.089178436
0.046986878 0.016875505 0.03492399 -0.066994466 -0.04890518 0.014936193 0.017276509 -0.010759484
-0.016100062 -0.042253226 0.0041982764 -0.021992505 -0.07716499 -0.1135842 -0.070385195 -0.08265187
-0.005032806 0.00824329 0.03271856 0.0071315626 -0.031628653 0.022052262 -0.022421302 -0.11107663
-0.175612 -0.10086399 -0.0937508 -0.09445228 0.010644748 0.071553804 0.033842757 -0.023431992
-0.041846357 -0.039457146 -0.06470177 -0.072949104 -0.091977164 -0.039871883 -0.019819675 0.009626795
0.06860679 0.03984734 -0.009176809 -0.019503023 -0.013950686 -0.005379954 -0.0057719676 -0.033785608
-0.011932345 0.059650347 -0.0076199477 0.042485047 0.019798502 -0.07078856 -0.015188372 -0.02207029
0.0001897947 -0.0069178957 0.017841635 0.03832641 0.037512235 0.06819866 0.082661584 0.0056277807
-0.016364906 -0.022785475 -0.008135768 0.008013981 0.013766497 -0.0077147773 -0.016838245 0.0404493
0.017965807 0.07770751 -0.03801665 -0.013554416 -0.012152013 -0.014372471 0.032382168 0.0060279476
-0.017673591 -0.0120325815 0.017903024 0.012622758 0.014338189 0.01129325 -0.0009278115 0.023846734
0.016296696 0.005334248 0.016814524 -0.008605054 -0.013551678 -0.008926639 -0.009125115 -0.015329336
-0.014977047 0.036282454 0.0048679505 0.012341873 0.020680608 0.013157384 0.011035843 -0.013477214
0.00919831 0.0053571914 0.0044618645 -0.039887853 -0.039858304 0.026525099 0.013728234 -0.014250566
0.007169231 0.013853863 -0.00046459353 0.0051523675 -0.024247462 -0.023684992 -0.033221412 -0.07738586
-0.032446537 -0.04587974 0.005417386 0.013365891 -0.0016666324 0.00016585912 0.027387677 0.011483942
-0.0136599615 -0.022866698 -0.044936452 -0.10931668 -0.045496814 -0.07401368 0.03335659 -0.013485738
-0.019602831 0.010388862 0.029235946 -0.008296426 -0.009234304 -0.032279342 -0.044655155 -0.024535537
-0.061467987 -0.094668604 -0.02489785 0.004630953 -0.06292087 0.029452529 0.018145666 0.01779435
0.0071827755 0.045098204 0.032949362 0.00036545016 -0.0019647386 -0.054331746 0.02095564 0.033838104
-0.010770056 0.005345221 0.0010615187 -0.0017932488 0.03018977 0.028307877 0.03811562 0.058429483
0.026490455 -0.0005497299 0.023866095 0.07900207 -0.03180211 0.014978646 -0.007152538 0.0072465097
0.0025428494 -0.0031699 0.059961863 0.07633245 0.0041435477 -0.024071084 0.005042666 0.044978447
0.017934065 0.04809518 0.033643294 -0.0009160341 -0.0175084 -0.041662958 0.02317431 0.025013529
00000000: 1a41 a2bc 0519 28bb f70c 0c3b 22e0 97bc
00000010: d2c9 a43c 00e0 d93c fe79 40bc 7f83 583c
00000020: a27a ca3c 99ea 01bc 47ed ce3b 6054 68bc
00000030: c30c 803c 905f f8bb 740e 9c3b 65a3 12bd
00000040: 79d9 273d 8b0f 733d 9b33 cc3d 4de7 f43d
00000050: eb95 6a3c 7dec ba3b 3ff6 543c 2ded f9bb
00000060: d631 7fbc 899a 79bd 5b6a 47bd 443c 83bc
00000070: fd52 9e3d f735 9d3d 20e6 a13d 81c4 ec3d
00000080: bad2 b73c b095 8fbc 1562 0d3d 4d2c 46bd
00000090: 6b86 22bc 72e4 3fbd 485e 823c 0862 433d
000000a0: 44f7 d73d ca9f 1b3e f997 cd3d 03ea 033e
000000b0: cd55 7a3d 4beb 27bd 7f7d 1a3d 2609 bcbc
000000c0: 291b eabb 6256 abba 28df a93d 9001 fd3d
000000d0: d4b7 343e 3af0 bb3d 8a44 383e d3f8 7c3d
000000e0: 99db 4ebd 9c07 d4bc 32e8 633b 7ab4 a7bc
000000f0: 8261 87bb e6a9 1a3d b2ce a33d 2fa3 b63d
00000100: 5075 403d 803e 8a3c 750c 0f3d 6534 89bd
00000110: cc50 48bd efb6 743c 7787 8d3c 8c48 30bc
00000120: 47e4 83bc b811 2dbd b291 893b a029 b4bc
00000130: ae08 9ebd d59e e8bd 1d26 90bd 6245 a9bd
00000140: 3dea a4bb dd0e 073c e603 063d e2af e93b
00000150: 0c8d 01bd f2a6 b43c e1ac b7bc 257c e3bd
00000160: a2d3 33be c891 cebd 6b00 c0bd 3270 c1bd
00000170: 4f67 2e3c cd8a 923d b49e 0a3d 73f4 bfbc
00000180: 1667 2bbd d19d 21bd 5d82 84bd 5766 95bd
00000190: 865e bcbd b350 23bd df5c a2bc b4b9 1d3c
000001a0: b781 8c3d f736 233d 545a 16bc cec4 9fbc
000001b0: 6b91 64bc 534a b0bb c622 bdbb c762 0abd
000001c0: e27f 43bc ec53 743d c1b0 f9bb cd04 2e3d
000001d0: 7830 a23c 98f9 90bd a6d8 78bc c1cc b4bc
000001e0: a003 4739 84af e2bb 9f28 923c 27fc 1c3d
000001f0: 6ea6 193d bdab 8b3d 7a4a a93d 3f69 b83b
00000200: b20f 86bc 9ba8 babc e24b 05bc 134d 033c
00000210: e08c 613c 3ecc fcbb 5cf0 89bc 2aae 253d
00000220: 072d 933c 1d25 9f3d 59b7 1bbd 5713 5ebc
00000230: 3d19 47bc 837a 6bbc 2aa3 043d 1786 c53b
00000240: 35c8 90bc 4e24 45bc 5da9 923c afcf 4e3c
00000250: b9ea 6a3c 5307 393c 6038 73ba 3a5a c33c
00000260: a680 853c eaca ae3b 9dbe 893c 36fc 0cbc
00000270: db07 5ebc 0a41 12bc 8281 15bc e527 7bbc
00000280: 4a62 75bc e99c 143d 5483 9f3b 9135 4a3c
00000290: 616a a93c 1192 573c aecf 343c 88cf 5cbc
000002a0: 82b4 163c 618b af3b d534 923b 7261 23bd
000002b0: 7642 23bd 2a4b d93c 63ec 603c 357b 69bc
000002c0: deeb ea3b 50fb 623c b094 f3b9 31d5 a83b
000002d0: 9da2 c6bc 0707 c2bc 2d13 08bd 7a7c 9ebd
000002e0: a9e6 04bd 65ec 3bbd 5484 b13b 9cfc 5a3c
000002f0: e772 daba 78ea 2d39 1f5c e03c 2527 3c3c
00000300: 08ce 5fbc f152 bbbc 490f 38bd 6ce1 dfbd
00000310: de5a 3abd 7c94 97bd eba0 083d 49f3 5cbc
00000320: 1e96 a0bc 0c36 2a3c 3980 ef3c bced 07bc
00000330: 7a4b 17bc 5837 04bd 53e8 36bd c0fe c8bc
00000340: dbc5 7bbd 9de1 c1bd 93f6 cbbc 40bf 973b
00000350: a8dc 80bd 6e46 f13c 38a6 943c 75c5 913c
00000360: 7d5d eb3b e5b8 383d e9f5 063d e499 bf39
00000370: d8c2 00bb f78a 5ebd 2aab ab3c d399 0a3d
00000380: e474 30bc f726 af3b a822 8b3a 720b ebba
00000390: 8950 f73c ece5 e73c 201f 1c3d c153 6f3d
000003a0: 8302 d93c c01b 10ba d482 c33c d6cb a13d
000003b0: ee42 02bd ff68 753c d65f eabb 2174 ed3b
000003c0: efa5 263b 19be 4fbb 929a 753d 3054 9c3d
000003d0: 99c6 873b b930 c5bc f33c a53b 523b 383d
000003e0: 76ea 923c 74ff 443d 8dcd 093d 0222 70ba
000003f0: c76d 8fbc c7a6 2abd 0dd8 bd3c 2ce9 cc3c

fc1.bias f4 [64]
0.012673401 0.006456847 0.0061037038 0.0016977768 0.031263493 0.03069467 0.026633427 0.0036319739
-0.046896785 0.011797545 0.029342221 0.045816664 0.007814418 0.0397828 0.041812815 -0.008641967
0.0052355505 -0.014488944 -0.0027742174 -0.00088457746 -0.027854146 -0.020227835 0.028503863 0.0023437047
0.030367091 0.01749921 -0.010838183 0.02906905 0.018363606 0.06909859 0.054885052 -0.019514479
0.022299662 0.0065107825 0.009983538 -0.015936228 0.011228568 -0.008380747 0.056454178 0.034456503
0.031454656 0.022905352 -0.010612128 0.022670196 0.033259813 -0.008638896 -0.0029742809 0.021097444
0.0049590063 0.02522948 0.0013169573 0.01927205 0.02070087 0.0147709455 0.042483706 -0.020021692
0.014295848 -0.017314406 0.04613986 0.0105117 0.026860965 -0.01545156 0.019686889 0.036339324
00000000: 19a4 4f3c f593 d33b 9401 c83b f087 de3a
00000010: 260e 003d 6373 fb3c 582e da3c 6906 6e3b
00000020: d816 40bd 7d4a 413c 195f f03c 41aa 3b3d
00000030: 0b08 003c 4af3 223d ea43 2b3d 0997 0dbc
00000040: fb8e ab3b 0963 6dbc a5cf 35bb fde2 67ba
00000050: 612e e4bc d8b4 a5bc ef80 e93c d798 193b
00000060: 68c4 f83c 815a 8f3c a292 31bc 3722 ee3c
00000070: 466f 963c 9083 8d3d 26cf 603d d4dc 9fbc
00000080: c8ad b63c 6758 d53b fe91 233c b18c 82bc
00000090: 07f8 373c 674f 09bc 7f3c 673d 4322 0d3d
000000a0: 99d6 003d 01a4 bb3c 7ede 2dbc d9b6 b93c
000000b0: 713b 083d 288a 0dbc 27ec 42bb 8cd4 ac3c
000000c0: 297f a23b 0eae ce3c c19d ac3a 6be0 9d3c
000000d0: df94 a93c d601 723c 6503 2e3d 8804 a4bc
000000e0: 2239 6a3c f1d6 8dbc 26fd 3c3d 4439 2c3c
000000f0: 870b dc3c 8a28 7dbc 6646 a13c 8bd8 143d

fc2.weight f4 [10, 64]
-0.15339623 0.15300018 0.021186369 0.10605069 0.06163609 -0.17859116 0.17371455 0.1505916
0.08304157 0.0422425 -0.09542325 0.11515042 0.018108081 0.062337704 0.060446877 -0.024428923
-0.2661335 -0.11642115 -0.1305046 -0.14180301 0.1314177 0.09112825 0.033980396 -0.18034536
-0.33202952 -0.08373182 0.19238359 -0.14834012 -0.19481324 -0.3438604 -0.19069895 0.1801956
0.15154095 -0.24225084 0.040322438 0.05914415 0.14377856 -0.09134009 -0.18852292 -0.21837218
-0.30446398 -0.24299452 -0.19374692 0.08025981 0.09579497 -0.021048218 -0.071577564 -0.20482348
-0.2561193 0.00025976397 -0.21947232 -0.3774708 0.15998353 -0.11054456 -0.28606716 -0.1469922
-0.28092143 -0.14333335 -0.26506472 -0.23367496 -0.01149593 -0.12535265 0.074852414 -0.07703583
-0.22526382 0.13791315 -0.19225802 -0.26974607 -0.33359486 -0.25462222 -0.103454955 -0.095526196
-0.092656866 -0.24321824 0.10989699 -0.031643342 -0.2952442 -0.32433882 0.059133235 0.18175553
-0.15692376 -0.049761046 -0.09195712 -0.14389916 -0.08259894 0.061381552 0.0663692 -0.058516603
0.20242313 -0.10995026 -0.26474708 0.061707076 0.12778555 -0.023041824 -0.27646816 -0.077350385
-0.16329846 -0.07841933 -0.23515075 -0.16984223 0.08112222 -0.2592982 -0.0452504 0.17444974
0.09155382 0.1088532 0.035598435 -0.2589721 -0.35866618 0.15981606 -0.24646188 -0.017508565
0.10178889 -0.4336765 0.08855146 -0.007862695 0.12044316 -0.13826141 0.093981825 -0.068094976
-0.12095575 0.0073318947 0.022156231 0.1648307 -0.15582818 0.0063337022 -0.375841 0.19045234
-0.06844198 -0.025583375 -0.22329397 0.13729158 0.12362342 -0.29865363 0.0142270615 -0.18434994
-0.31975138 -0.077416755 0.09701345 0.08947673 -0.14171931 0.10694154 -0.22266038 -0.18311293
-0.16134462 -0.073505044 0.053990107 0.027885113 -0.27628487 0.024653316 -0.21124564 0.16898292
-0.044124965 -0.25071257 -0.15875311 0.2072529 -0.13607793 -0.01423809 0.084143326 0.035509843
0.17640448 -0.22111711 -0.12985955 -0.14137866 -0.33132088 0.038880643 0.13419801 0.21649058
0.15722434 -0.08512412 -0.21287805 0.15276974 0.13024114 -0.1981716 -0.12998874 -0.0012485203
-0.020189082 -0.15078035 -0.22496378 -0.4509401 0.1882184 -0.2619976 -0.18436615 -0.014346946
0.06429723 -0.06522133 0.1595091 0.087457255 -0.28668514 -0.3548024 -0.2205299 -0.03835745
-0.24379255 0.124562226 0.16785921 -0.044052754 -0.34593087 0.10087588 -0.08279817 -0.07954011
-0.24603835 -0.1464494 -0.28174013 0.07542864 -0.23634021 -0.18558517 -0.035412125 -0.18155763
-0.017524641 -0.08696059 0.10553381 0.24295138 -0.09016778 0.092327796 -0.0791452 -0.22174999
-0.34083647 0.046831105 -0.26309523 -0.14706424 -0.09730176 0.09898897 0.11348491 -0.13976048
-0.20953746 -0.18900691 0.13266133 -0.23745658 -0.29662228 -0.11888186 0.05786762 -0.24607673
-0.0135923475 0.18458666 0.11169425 0.081055604 -0.16258287 -0.28907022 0.049162243 -0.15272959
0.056986492 -0.023666127 -0.20084557 0.00071265415 -0.30982918 -0.15529217 0.18805534 -0.003317671
0.15093969 -0.26371595 -0.3016156 -0.2687472 -0.20028827 -0.057667863 0.110971175 0.023746574
00000000: e713 1dbe 14ac 1c3e 098f ad3c 1b31 d93d
00000010: 2076 7c3d 9ae0 36be 3ae2 313e af34 1a3e
00000020: b311 aa3d 7906 2d3d 446d c3bd fcd3 eb3d
00000030: 6657 943c d255 7f3d 2597 773d 2a1f c8bc
00000040: a642 88be 366e eebd ffa2 05be cf34 11be
00000050: 5d92 063e 73a1 ba3d 072f 0b3d 74ac 38be
00000060: c6ff a9be 977b abbd 3400 453e 79e6 17be
00000070: 1f7d 47be 780e b0be 9646 43be 3285 383e
00000080: 8d2d 1b3e 9b10 78be 2429 253d 2341 723d
00000090: b03a 133e 8310 bbbd 270c 41be f59c 5fbe
000000a0: b4e2 9bbe 8ed3 78be 9865 46be 415f a43d
000000b0: 2730 c43d 506d acbc 4297 92bd 3fbd 51be
000000c0: 1222 83be ee30 8839 5abd 60be da43 c1be
000000d0: b9d2 233e 3065 e2bd 6577 92be 2085 16be
000000e0: efd4 8fbe fac5 12be 90b6 87be 7d48 6fbe
000000f0: 6d59 3cbc 725c 00be 394c 993d f6c4 9dbd
00000100: 8fab 66be 1b39 0d3e 49df 44be 281c 8abe
00000110: f2cc aabe d85d 82be 31e0 d3bd 3da3 c3bd
00000120: e2c2 bdbd 340e 79be ac11 e13d 739c 01bd
00000130: 3f2a 97be bd0f a6be b135 723d 1f1e 3a3e
00000140: 9fb0 20be 3dd2 4bbd 0454 bcbd 4d5a 13be
00000150: a229 a9bd 396b 7b3d 93ec 873d 1baf 6fbd
00000160: 0248 4f3e 9a2d e1bd ee8c 87be 8fc0 7c3d
00000170: 37da 023e 35c2 bcbc 3c8d 8dbe e169 9ebd
00000180: b637 27be 509a a0bd 5ccb 70be 1feb 2dbe
00000190: 6823 a63d bcc2 84be 7c58 39bd f4a2 323e
000001a0: 9280 bb3d 6dee de3d aacf 113d fe97 84be
000001b0: 18a3 b7be d2a6 233e 8160 7cbe 1f6e 8fbc
000001c0: b276 d03d d90a debe 785a b53d 88d2 00bc
000001d0: e7aa f63d 6694 0dbe 8b79 c03d 6175 8bbd
000001e0: a6b7 f7bd 6440 f03b fc80 b53c 61c9 283e
000001f0: 6c91 1fbe f28a cf3b 3b6e c0be f005 433e
00000200: 4f2b 8cbd 3a94 d1bc 2da7 64be 2a96 0c3e
00000210: 472e fd3d 21e9 98be 9f18 693c 3bc6 3cbe
00000220: 74b6 a3be ad8c 9ebd fdae c63d 933f b73d
00000230: de1e 11be 2b04 db3d 1501 64be f581 3bbe
00000240: 8637 25be d089 96bd bb24 5d3d 526f e43c
00000250: 3675 8dbe c0f5 c93c c750 58be dc09 2d3e
00000260: 61bc 34bd 665d 80be 2d90 22be 1b3a 543e
00000270: 0358 0bbe e146 69bc 5653 ac3d c572 113d
00000280: 60a3 343e 866c 62be e7f9 04be 91c5 10be
00000290: e4a2 a9be 4f41 1f3d 346b 093e b5af 5d3e
000002a0: 6bff 203e 8e55 aebd b4fc 59be ac6f 1c3e
000002b0: ef5d 053e 7fed 4abe c51b 05be 64a5 a3ba
000002c0: 9363 a5bc 2a66 1abe e85c 66be 9fe1 e6be
000002d0: 53bc 403e 8d24 86be 7bca 3cbe 740f 6bbc
000002e0: 44ae 833d c392 85bd 5a56 233e ca1c b33d
000002f0: 65c8 92be a9a8 b5be 97d2 61be b41c 1dbd
00000300: c1a4 79be 7b1a ff3d 49e3 2b3e a970 34bd
00000310: da1d b1be 0398 ce3d 1692 a9bd ede5 a2bd
00000320: 7af1 7bbe d5f6 15be 3e40 90be 557a 9a3d
00000330: 2b03 72be 0a0a 3ebe 4e0c 11bd 3eea 39be
00000340: d68f 8fbc 6518 b2bd 1c22 d83d 3fc8 783e
00000350: e3a9 b8bd 5b16 bd3d e116 a2bd 6e12 63be
00000360: 1e82 aebe f9d1 3f3d 6bb4 86be 0298 16be
00000370: 2546 c7bd bbba ca3d c76a e83d 5f1d 0fbe
00000380: fd90 56be 078b 41be 5fd8 073e d127 73be
00000390: e0de 97be 5578 f3bd 9906 6d3d 8afb 7bbe
000003a0: 70b2 5ebc 4904 3d3e f4bf e43d 7b00 a63d
000003b0: 207c 26be 0301 94be 595e 493d 2565 1cbe
000003c0: ab6a 693d 77df c1bc 76aa 4dbe 69d1 3a3a
000003d0: eea1 9ebe e904 1fbe 9491 403e 486d 59bb
000003e0: ef8f 1a3e c705 87be 5c6d 9abe 3c99 89be
000003f0: 5e18 4dbe 2335 6cbd db44 e33d 2d88 c23c

fc2.bias f4 [10]
0.02790014 -0.10169761 -0.08450229 0.020956397 -0.024150286 0.071860045 -0.013336019 -0.0997328
-0.1205755 -0.08321758
00000000: d68e e43c d646 d0bd 890f adbd c0ac ab3c
00000010: d2d6 c5bc 5c2b 933d 517f 5abc b640 ccbd
00000020: 4af0 f6bd fb6d aabd

batchnorm1.weight f4 [8]
0.6331921 0.6159904 0.6308267 0.6695744 0.6020815 0.48203295 0.7836967 0.70715755
00000000: e118 223f 8cb1 1d3f dc7d 213f 3a69 2b3f
00000010: 0322 1a3f 06cd f63e 59a0 483f 4708 353f

batchnorm1.bias f4 [8]
0.13483392 0.076349795 0.071806565 0.13186558 0.15128338 0.25820667 0.20834659 0.10880131
00000000: e711 0a3e 485d 9c3d 520f 933d c507 073e
00000010: 08ea 1a3e aa33 843e cf58 553e 39d3 de3d

batchnorm1.running_mean f4 [8]
0.28055453 0.08308345 0.14578976 0.06197864 0.3514989 0.26969945 0.2700977 0.26038036
00000000: d8a4 8f3e a827 aa3d e949 153e 50dd 7d3d
00000010: aaf7 b33e 0c16 8a3e 3f4a 8a3e 9350 853e

batchnorm1.running_var f4 [8]
0.84947103 0.13938087 0.27433375 0.05866473 1.3289738 0.111516066 0.8381082 0.8694216
00000000: ef76 593f dcb9 0e3e 7975 8c3e 6e4a 703d
00000010: d01b aa3f 8962 e43d 428e 563f 6a92 5e3f

batchnorm2.weight f4 [16]
1.1440055 0.7836621 1.142287 1.0563561 0.3786405 0.42276534 0.8451421 0.8991339
0.4975823 0.79839224 0.39414856 1.3942496 0.4227183 0.7108319 1.2502007 1.0188662
00000000: c66e 923f 149e 483f 7636 923f ad36 873f
00000010: 2bdd c13e b374 d83e 3c5b 583f a42d 663f
00000020: 1bc3 fe3e 6f63 4c3f d7cd c93e c576 b23f
00000030: 886e d83e 14f9 353f 9406 a03f 356a 823f

batchnorm2.bias f4 [16]
0.06459522 0.033443734 0.095389575 0.13205723 0.028258441 0.06715852 0.0833721 0.15853441
0.08398071 0.105633296 0.062483575 0.124980435 0.030846465 0.14078274 0.10417452 0.15796627
00000000: 804a 843d 4cfc 083d 9c5b c33d 033a 073e
00000010: 3f7e e73c 688a 893d febe aa3d d856 223e
00000020: 14fe ab3d 4556 d83d c7ee 7f3d bef5 ff3d
00000030: bab1 fc3c 5a29 103e 7359 d53d e9c1 213e

batchnorm2.running_mean f4 [16]
0.44860283 0.116464026 0.17004298 0.3400363 0.032026626 0.2126455 0.18249911 0.35969466
0.28819194 0.20860296 0.49520367 0.31388283 0.09579348 0.6702988 0.40321842 0.28791854
00000000: 45af e53e b184 ee3d bf1f 2e3e 3d19 ae3e
00000010: 5a2e 033d bebf 593e 0ce1 3a3e e629 b83e
00000020: e58d 933e 049c 553e 568b fd3e 40b5 a03e
00000030: 5f2f c43d b498 2b3f a572 ce3e 0f6a 933e

batchnorm2.running_var f4 [16]
0.17694876 0.08283468 0.2016964 0.18588927 0.02103886 0.21627142 0.20761883 0.7600749
0.44101828 0.25915092 0.87475073 0.20743081 0.061131127 1.4071193 0.24722625 0.37124196
00000000: 0e32 353e 3ba5 a93d 8089 4e3e c259 3e3e
00000010: b059 ac3c 4176 5d3e 089a 543e 4594 423f
00000020: 26cd e13e 6eaf 843e aaef 5f3f be68 543e
00000030: a264 7a3d 7c1c b43f e128 7d3e 6d13 be3e
