mnist_model2_part.pt (torch_old, 604254 bytes, 16 tensors)

conv1.weight f4 [8, 1, 2, 2]
0	0x3eb7d572	0.35905033
1	0xbe0c2ec0	-0.13689709
2	0xbccc88fd	-0.024967665
3	0x3e871a03	0.26387033
4	0xbecc32e1	-0.39882568
5	0x3e953ee9	0.2914956
6	0xbd96db53	-0.073660515
7	0x3ea190d6	0.31555814
8	0x3dc67ef0	0.0969218
9	0xbd94c6b7	-0.07264464
10	0x3e24482f	0.16043161
11	0x3d007197	0.031358328
12	0x3e593158	0.2121023
13	0xbe39d08f	-0.18145965
14	0x3d2818f5	0.041039426
15	0xbd8a29e8	-0.06746274
16	0x3e083c08	0.1330415
17	0x3d17ef4c	0.037093446
18	0x3f0af426	0.5427879
19	0x3e36c5e3	0.17848925
20	0xbdf5bd52	-0.119990006
21	0xbe969ecd	-0.2941803
22	0xbe142744	-0.14468104
23	0xbe80a705	-0.25127426
24	0xbe3d5502	-0.18489459
25	0x3d6a6a03	0.057230007
26	0x3e7f393e	0.2492418
27	0x3eaa9412	0.33316094
28	0xbee2710e	-0.4422688
29	0x3ebb7d9c	0.3661927
30	0x3dfde508	0.123972
31	0x3f029d0d	0.5102089

conv1.bias f4 [8]
0	0x3e54671c	0.20742458
1	0xbeea227d	-0.45729437
2	0xbee40071	-0.44531587
3	0xbe5699c4	-0.20957094
4	0x3e9ea005	0.3098146
5	0xbcc76098	-0.024338052
6	0x3e257659	0.16158427
7	0xbe6e5c7b	-0.23277466

conv2.weight f4 [16, 8, 4, 4]
0	0x3db82b11	0.08992589
1	0xbdc512f1	-0.096227534
2	0xbd1fbad9	-0.03899655
3	0xbd6a2a38	-0.05716917
4	0x3c991c70	0.018690318
5	0x3ca39d1b	0.019972375
6	0xbdab25e2	-0.08356835
7	0x3d743d49	0.05962876
8	0x3c67a7c6	0.014139121
9	0xbd453e49	-0.048155103
10	0xbe0619ff	-0.13095854
11	0x3cda9e77	0.02668689
12	0x3cc97fb5	0.024597028
13	0xbdaff88f	-0.08592331
14	0x3d63c652	0.055609055
15	0x3db89241	0.09012271
16	0xbd0be04f	-0.034149464
17	0xbd8ac06a	-0.06774981
18	0x3cdc9d3f	0.02693045
19	0xbc364784	-0.011125449
20	0xbdda5df8	-0.10662454
21	0x3d8548d4	0.065080315
22	0x3cf08561	0.029360475
23	0x3d04a009	0.032379184
24	0xbd8cddd0	-0.06878245
25	0x3cddf0a9	0.027092295
26	0xbc67204c	-0.014106821
27	0xbc3d09ba	-0.0115379635
28	0xbd334e76	-0.043775998
29	0xbd19130c	-0.03737168
30	0x3ccb22e3	0.024796909
31	0xbcfdf34c	-0.030999802
32	0x3d9f4826	0.07777433
33	0xbc883fa2	-0.016631905
34	0xbda6d4cb	-0.08146056
35	0xbd3ea1bf	-0.04654097
36	0x3dbe3757	0.09287899
37	0xbc983fc7	-0.018585099
38	0xbe2000dc	-0.15625328
39	0x3d15add9	0.036542747
40	0xbb0e5186	-0.0021716072
41	0xbdc40b4e	-0.09572469
42	0xbdb7d6ac	-0.08976492
43	0x3bb4598c	0.005503839
44	0x3c807cd2	0.015684519
45	0xbd9a343f	-0.075294964
46	0xbd9a96d4	-0.075482994
47	0x3dba4032	0.090942755
48	0xbd06ce81	-0.03291178
49	0xbb88f6b4	-0.0041798
50	0xbcca9723	-0.02473027
51	0xbdb56246	-0.08856635
52	0x3be06401	0.006847859
53	0x3bde6ebe	0.006788104
54	0xbd827b30	-0.063711524
55	0xbd2df22e	-0.04246729
56	0x3c866f2f	0.016410438
57	0x3d842635	0.064526
58	0xbda5013b	-0.08056875
59	0xbc35e5ce	-0.011102153
60	0x3ca23558	0.019800827
61	0xbce7b982	-0.0282867
62	0xbafdf4ef	-0.0019375364
63	0x3da464d3	0.08027043
64	0xbb34694c	-0.0027528582
65	0xbde99c0d	-0.114067174
66	0xbb8aa952	-0.0042316103
67	0xbcd5cc8c	-0.026098512
68	0x3da7fb37	0.08202212
69	0xbd6b9538	-0.057515353
70	0xbd4cf1a8	-0.05003515
71	0x3d8bb2ec	0.06821236
72	0x3d3220cc	0.04348831
73	0xbe130393	-0.14356832
74	0xbcf3308f	-0.02968624
75	0x3dc1286e	0.094315395
76	0x3c53f2dc	0.01293632
77	0xbb13205f	-0.0022449715
78	0xbd735921	-0.05941117
79	0xbc8ab1bc	-0.016930453
80	0xbd5edc3c	-0.05440925
81	0x3d3bdb0c	0.045863196
82	0x3e1157f0	0.14193702
83	0xbcb07626	-0.021540713
84	0x3cd41c60	0.025892437
85	0xbce7505d	-0.028236562
86	0xbd46aef4	-0.048506692
87	0xbd0952c4	-0.033526197
88	0x3c9b383d	0.018947715
89	0x3d77e7d6	0.06052383
90	0xbdb3e537	-0.08783954
91	0xbcb41f41	-0.02198756
92	0x3d365e4a	0.044523515
93	0x3cd976a3	0.026545828
94	0x3bf1dcca	0.0073810564
95	0x3b65ed9a	0.0035084249
96	0x3dc10849	0.094254084
97	0xbcf9f091	-0.030510219
98	0xbdf4c797	-0.11952131
99	0xbd4dd6dc	-0.050253734
100	0x3c24ad87	0.010051138
101	0xbd811cde	-0.06304334
102	0xbdaa5cdb	-0.08318492
103	0x3db053bf	0.08609723
104	0xbb220f70	-0.002472844
105	0xbdafaa7f	-0.085774414
106	0xbc39dc58	-0.011344038
107	0x3ce7ba13	0.02828697
108	0xbc714668	-0.014726259
109	0xbc28d364	-0.010304306
110	0xbd9fe7f4	-0.078079134
111	0x3d93712d	0.07199321
112	0xbcb381e8	-0.02191253
113	0xbd9cae57	-0.0765044
114	0xbdab9d5d	-0.08379624
115	0xbc196ff2	-0.009365069
116	0xbdb9eb9e	-0.090781435
117	0xbdb7fb82	-0.08983518
118	0x3da3f3e5	0.080055036
119	0xbaf6ed62	-0.0018839056
120	0xbe0e44de	-0.13893458
121	0x3be4c13d	0.0069810436
122	0x3d07184f	0.032982167
123	0x3d61b641	0.05510545
124	0xbdcdab45	-0.10042433
125	0x3c419613	0.011815566
126	0xbcbaa85a	-0.022785354
127	0x3be485f6	0.006973977
128	0xbdec4417	-0.115364246
129	0xbd8cd47c	-0.06876466
130	0xbc5bbc20	-0.013411552
131	0x3d411aaa	0.04714457
132	0xbcb5092e	-0.022099104
133	0xbd575ea1	-0.05258048
134	0x3d6eb160	0.058274627
135	0x3df7146c	0.12064442
136	0x3cffed3a	0.031241048
137	0xbd8909b9	-0.066913076
138	0xbdd34754	-0.10316339
139	0x3dbc4a3a	0.09193845
140	0xbd314365	-0.043277163
141	0xbd2f736f	-0.042834695
142	0xbdfc29bf	-0.1231265
143	0xbc527c8b	-0.012847076
144	0xbd83b824	-0.064316064
145	0x3d6fdb68	0.05855885
146	0xbdb06566	-0.0861309
147	0xbdfeee58	-0.12447804
148	0xbd0ddee1	-0.034636382
149	0x3bdd69ef	0.006757013
150	0x3ce29678	0.02765964
151	0xbdf45e70	-0.11932075
152	0xbd814620	-0.063122034
153	0x3d2aec0d	0.04172902
154	0x3d6d7108	0.057969123
155	0xbe00a815	-0.12564118
156	0xbc0eaffb	-0.008708949
157	0x3caccb84	0.021093138
158	0x3dca26c4	0.09870675
159	0xbd55c80e	-0.05219274
160	0x3ab2b9f0	0.0013635736
161	0xbdd0399d	-0.10167239
162	0x3dcaf4da	0.09909983
163	0xbd041045	-0.03224208
164	0x3d1ea132	0.038727947
165	0xbd06aa01	-0.032876972
166	0xbb91d979	-0.0044509736
167	0x3d2fbdd7	0.042905655
168	0xbcc92710	-0.02455476
169	0x3c94b727	0.01815374
170	0xbc646db0	-0.013942167
171	0x3d1ba7f5	0.038001973
172	0xbde9707c	-0.11398408
173	0x3d2d8524	0.0423633
174	0x3cacbdbb	0.021086564
175	0x3d149db3	0.036283206
176	0x3cb8f396	0.022577088
177	0xbdbe1ad4	-0.09282461
178	0xbd110229	-0.03540245
179	0x3daa668c	0.083203405
180	0xbd9049ec	-0.070453495
181	0x3d6e4624	0.05817236
182	0xbdbd2cc2	-0.092370525
183	0xbd2e077b	-0.042487603
184	0x3d365eb5	0.044523913
185	0xbc9a545a	-0.01883905
186	0xbd5fd1ab	-0.054643314
187	0x3d44060c	0.04785733
188	0x3d8202a0	0.06348157
189	0x3e09310a	0.13397613
190	0xbd500771	-0.050788347
191	0xbd48b6d4	-0.049002483
192	0x3d322fe3	0.0435027
193	0xbd60571e	-0.05477058
194	0xbd2f9aae	-0.042872123
195	0x3cf8bc1b	0.030363133
196	0xbdc35fcb	-0.095397554
197	0x3cff43a4	0.031160183
198	0x3d6ef0ed	0.058335233
199	0xbd503583	-0.050832283
200	0xbdbe817b	-0.0930204
201	0xbc8359d7	-0.01603405
202	0x3d42fac1	0.04760242
203	0x3cf6096d	0.030033791
204	0xbd4903df	-0.049075957
205	0x3bdec6ef	0.006798617
206	0xbd822a53	-0.06355729
207	0xbced4268	-0.028962329
208	0xbda6129d	-0.08109019
209	0x3d4bd83d	0.049766768
210	0x3d517169	0.051133547
211	0xbd759ba0	-0.05996287
212	0xbcb2bb56	-0.021817844
213	0x3caede57	0.021346254
214	0xbb8b9aa7	-0.0042603794
215	0xbda4de7d	-0.08050249
216	0x3ce90fc6	0.028449904
217	0x3d1cfe48	0.03832844
218	0xbd0b479a	-0.03400383
219	0xbd69b13f	-0.0570538
220	0x3d8b6c0c	0.06807718
221	0x3d867d47	0.065668635
222	0xbda520d8	-0.08062905
223	0x3d2cd5c4	0.04219605
224	0x3891a763	6.945317e-05
225	0xbd9c0812	-0.07618727
226	0x3d727b64	0.059199706
227	0xbd4c71e0	-0.049913287
228	0x3d486d6c	0.048932478
229	0xbdc389e7	-0.09547787
230	0x3ca08858	0.019596264
231	0x3d091735	0.033469398
232	0x3b2383ab	0.0024950306
233	0x3d57658e	0.052587084
234	0xbd0df00c	-0.034652755
235	0xbc97d119	-0.018532323
236	0xbd54fda7	-0.051999714
237	0x3c3f2a8b	0.011667858
238	0xbd004fd8	-0.031326145
239	0x3c3e882f	0.011629148
240	0xbda7a6c0	-0.08186102
241	0xba807d46	-0.0009802959
242	0x3d97f03c	0.07418868
243	0xbb425b9c	-0.0029656654
244	0xbd6afca5	-0.057369847
245	0xbd1cbf9f	-0.03826868
246	0xbd957257	-0.07297199
247	0x3d824288	0.06360346
248	0xbcfc82c9	-0.030824082
249	0x3b4e43e7	0.0031473578
250	0xbc699b4c	-0.014258217
251	0xbd4da75f	-0.050208446
252	0x3c4d6a53	0.012537557
253	0x3c045a34	0.008078147
254	0xbc3e8364	-0.011628006
255	0xbca07faf	-0.019592134

conv2.bias f4 [16]
0	0x3cd6ba49	0.026211875
1	0xbde11377	-0.10990041
2	0xbe09e8a3	-0.1346765
3	0xbd84a7a0	-0.064772844
4	0xbdbefc7b	-0.093255006
5	0x3bc786b7	0.0060890573
6	0xbd7bef28	-0.061507374
7	0xbdb4b5d6	-0.08823745
8	0xbd1e79f0	-0.038690507
9	0xbc9628ee	-0.018330064
10	0xbdade2ae	-0.08490501
11	0xbdbaed55	-0.09127299
12	0xbd0f4b17	-0.03498372
13	0x3d213329	0.03935543
14	0x3d65ed19	0.056134317
15	0xbccdbe15	-0.025115052

fc1.weight f4 [64, 2304]
0	0xbc9795fe	-0.018504139
1	0xbbdc08cb	-0.0067149154
2	0x3b2646a8	0.0025371704
3	0xbc37b645	-0.01121289
4	0x3bb19341	0.0054191654
5	0xbae14c65	-0.0017188905
6	0xbc414f0a	-0.01179863
7	0xbccca309	-0.024980085
8	0x3ca4b726	0.020106863
9	0xbc40cbfc	-0.011767384
10	0x3b1fc290	0.0024377443
11	0xbc8c945c	-0.017160587
12	0x3c4670e5	0.012111877
13	0xbb39e265	-0.0028363701
14	0x3b9dc985	0.0048152828
15	0xbc8f2294	-0.017472543
16	0x3afac993	0.001913356
17	0x3ccb1ed5	0.024794975
18	0x3cc568d1	0.024097832
19	0x3ce8cd0e	0.02841809
20	0x3cb49703	0.022044664
21	0x3b25cd04	0.00252992
22	0x3b944165	0.004524397
23	0xbc26e39e	-0.010186104
24	0xbc76944c	-0.015050005
25	0xbce8312d	-0.028343761
26	0xbd03d188	-0.032182246
27	0xbc070955	-0.008241971
28	0x3c834013	0.016021764
29	0x3cdeb165	0.027184198
30	0x3d019166	0.031632803
31	0x3cc7b218	0.024376914
32	0x3bd4fa51	0.0064995666
33	0xbc36e1ec	-0.011162262
34	0x39ac3bd4	0.00032850972
35	0xbc877d80	-0.016539335
36	0xbc199467	-0.009373761
37	0x3ba711a2	0.0050985375
38	0x3baeb19c	0.0053312313
39	0x3b5953de	0.003316156
40	0x3c23cece	0.009998037
41	0x3d235e35	0.039884765
42	0x3c2c7a77	0.010527245
43	0x3d1b86aa	0.037970223
44	0x3c687f50	0.01419051
45	0xbb96ffef	-0.0046081464
46	0xbc48a104	-0.01224542
47	0xbc6826ef	-0.014169439
48	0xbc5d8292	-0.0135199
49	0x3a7385bd	0.0009289643
50	0x3d20c9af	0.03925484
51	0x3d3e6662	0.04648436
52	0x3d302f59	0.043013904
53	0x3cd67ed9	0.026183533
54	0x3c950473	0.018190598
55	0x3a98150f	0.0011602956
56	0xbce7547f	-0.028238533
57	0xbca35892	-0.019939695
58	0xbbc0525b	-0.0058691925
59	0xbc41844a	-0.011811325
60	0x36b3dc50	5.3602635e-06
61	0x3cbd30bf	0.023094533
62	0x3c922cfd	0.017843718
63	0x3d37eb40	0.044902086
64	0xbc5f2602	-0.013619902
65	0xbcc0de18	-0.023543403
66	0xbca0aaa2	-0.019612614
67	0xbc3a65e9	-0.011376836
68	0xbcf73a63	-0.030179208
69	0x3bf330a1	0.0074215685
70	0x3c84b892	0.016201291
71	0xb846ad33	-4.7368183e-05
72	0xbbf7bfa8	-0.007560689
73	0x3cb8cf59	0.022559809
74	0xbb7d5212	-0.0038653654
75	0xbb23b2b6	-0.0024978346
76	0xbd19d751	-0.037558857
77	0xbc822c79	-0.015890347
78	0xbca92a6d	-0.020650113
79	0xbc9fdd71	-0.019514771
80	0xb9beabab	-0.00036367527
81	0xb9ce8f4f	-0.00039398155
82	0x3b670b9e	0.0035254727
83	0xbbddd292	-0.0067694867
84	0xbcba9adf	-0.022778926
85	0x3ba3eb9d	0.0050024525
86	0xbc0766f4	-0.008264292
87	0xbcff3cff	-0.031157015
88	0xbd5549fa	-0.052072503
89	0xbcdb2246	-0.026749741
90	0xbd6abe35	-0.0573103
91	0xbd2edfb9	-0.042693827
92	0x3c61414a	0.013748476
93	0x3caf3663	0.021388238
94	0x3c4c6fb3	0.012477803
95	0x3a47af52	0.00076173723
96	0xbcffa337	-0.031205757
97	0xbc47d5c4	-0.012196962
98	0xbc10fdb3	-0.008849549
99	0xbd119fbb	-0.03555272
100	0xbc2ed542	-0.010670962
101	0xbd010708	-0.031500846
102	0xbd35eea4	-0.04441704
103	0xbcec416f	-0.028839795
104	0x3c3750b3	0.011188674
105	0xbbab15b2	-0.005221092
106	0xbb0b3ed0	-0.0021247156
107	0xbc35357f	-0.011060118
108	0xb98a22bf	-0.000263473
109	0xba8d5e18	-0.0010785488
110	0xbc60a60b	-0.013711463
111	0xbcbb018c	-0.022827886
112	0xbc50c180	-0.0127414465
113	0x3b8d2389	0.0043072146
114	0xbcbabcac	-0.022795044
115	0xb98d70e7	-0.00026977735
116	0xbd259ed9	-0.040434692
117	0xbc8ead32	-0.01741657
118	0xbbd5218c	-0.0065042432
119	0xbb97ec8f	-0.0046363543
120	0xbb7175e5	-0.0036843952
121	0xbcf1e8b7	-0.029529912
122	0xbc16c5ff	-0.009202479
123	0x3a6d52ad	0.0009053152
124	0xbc89a4e9	-0.016802268
125	0xbc3e5764	-0.011617515
126	0x3d0a6d84	0.03379585
127	0xbc8bf9d9	-0.01708691
128	0xbcbbe00e	-0.022933986
129	0x3c4dd1b4	0.012562204
130	0xbc487af0	-0.012236342
131	0x3c34e8e2	0.011041852
132	0x3bae7d2a	0.0053249793
133	0xbcc8d7f7	-0.024517043
134	0xbce1d8d7	-0.027569218
135	0xbc6bd5b9	-0.014394217
136	0x3bd07bf0	0.0063624308
137	0x3d019783	0.031638633
138	0x3b7fbaa6	0.0039021163
139	0xbcaa75bb	-0.020808091
140	0xbc3953e1	-0.011311502
141	0xbce16f5d	-0.027518922
142	0x3caf7200	0.021416664
143	0xbaac9319	-0.0013166397
144	0xbc92051f	-0.017824708
145	0xbc8048a9	-0.015659647
146	0x3c556652	0.013024883
147	0x3c167123	0.009182247
148	0x3c553552	0.013013201
149	0x3ad378b0	0.001613399
150	0xbbad699c	-0.0052921306
151	0x3c2fb534	0.010724355
152	0x3c6950bc	0.01424044
153	0xbafa3015	-0.0019087816
154	0x3c2ee3bc	0.010674413
155	0xbc27f6c1	-0.010251702
156	0xbc82dccf	-0.01597443
157	0xbbd32bda	-0.0064444365
158	0xbc5722ad	-0.013130826
159	0x3b49e570	0.0030806921
160	0xbb0f6075	-0.0021877561
161	0x3c2d236e	0.010567529
162	0x3b2224c9	0.0024741164
163	0x3c05112e	0.008121772
164	0xba73fd1d	-0.0009307431
165	0x3b2b2bc0	0.0026118606
166	0x3b1c6fd7	0.0023870373
167	0xbc55924a	-0.013035366
168	0xbaba5367	-0.001421553
169	0x3bc6ddfd	0.0060689435
170	0x3c061d4c	0.008185696
171	0xbc8364e7	-0.016039325
172	0xbc31ff56	-0.0108640995
173	0x3c7be250	0.015373781
174	0xba1c853d	-0.0005970782
175	0xbc8915ed	-0.016734088
176	0x3a1c9c7e	0.0005974247
177	0x3b84882f	0.0040445547
178	0xbc1edeff	-0.009696721
179	0xbbbc8da6	-0.0057541905
180	0xbcccab21	-0.024983944
181	0xbbd6dbb5	-0.006556953
182	0xbcbdf801	-0.023189547
183	0xbb719806	-0.0036864295
184	0x3b5e9d1a	0.0033968152
185	0xbcff3a2e	-0.031155672
186	0x3aaa6941	0.0013001339
187	0xbab04e1a	-0.001345101
188	0xbb04380c	-0.0020175008
189	0x3b66e524	0.0035231793
190	0xbbc54306	-0.0060199527
191	0x39cac5aa	0.00038675714
192	0xbc5061f9	-0.012718671
193	0x3aada23a	0.00132472
194	0xb9a7f818	-0.00032037566
195	0xbccfb52d	-0.025354946
196	0x3b98bb67	0.004661012
197	0xbcaac246	-0.02084459
198	0x3bb1bae6	0.0054238914
199	0xbcecb441	-0.028894546
200	0xbc254389	-0.010086902
201	0x3be35815	0.0069379904
202	0x3c8ed257	0.017434282
203	0xbb8b81cb	-0.004257416
204	0xbc584bd9	-0.013201677
205	0xbc27394e	-0.010206534
206	0xbc01b47e	-0.007916568
207	0x3cdbe1a5	0.026840994
208	0xbcc91798	-0.024547383
209	0xbcf99370	-0.030465811
210	0xbb304c0a	-0.0026900792
211	0xbc31ade5	-0.010844682
212	0xbd0db661	-0.03459776
213	0x3c825899	0.015911387
214	0x3c06a593	0.008218187
215	0x3ca5f884	0.020260103
216	0x39b94e35	0.00035344218
217	0x3cda60cf	0.02665749
218	0x3c95f733	0.01830635
219	0x3ce135e9	0.027491527
220	0xbac20a46	-0.0014804087
221	0xbcf12a01	-0.029438974
222	0xbb80ed26	-0.0039345203
223	0xbd19f1fd	-0.037584294
224	0xbabdd634	-0.0014483393
225	0x3cdca4a9	0.026933985
226	0xbc33aa17	-0.010965846
227	0xbc28e984	-0.010309581
228	0x3b697cc2	0.003562734
229	0x3c4667db	0.012109722
230	0x3ca97e66	0.020690154
231	0x3cc37d2d	0.0238634
232	0x3c1f6487	0.009728557
233	0xbc7da3ca	-0.015480945
234	0x3be05045	0.0068455064
235	0xbc5295f7	-0.012853137
236	0xbcd0a048	-0.025467053
237	0x3bd50657	0.006501
238	0xbc7b77b1	-0.015348361
239	0xba62b344	-0.00086479285
240	0x3c12e398	0.008965395
241	0xbca16876	-0.019703131
242	0x3c1dac8f	0.009623661
243	0x3caaa892	0.020832334
244	0x3b873d3c	0.0041271728
245	0xbca213bd	-0.019784803
246	0x3c96e807	0.018421186
247	0xbd04e300	-0.032443047
248	0x3b55706b	0.0032568227
249	0x3bebc395	0.007194946
250	0x3c91b19d	0.017784888
251	0xbbb6b9ab	-0.0055763326
252	0xbb43c17a	-0.002986996
253	0xbca52722	-0.020160262
254	0xbc152ddd	-0.009105173
255	0xbc5ab7ca	-0.013349483

fc1.bias f4 [64]
0	0x3c943669	0.018092351
1	0x3c07afa0	0.008281618
2	0x3c3147f9	0.010820382
3	0x3c3892cd	0.011265469
4	0x3cbce329	0.023057537
5	0x3c93a4ad	0.01802286
6	0x3cdd8682	0.027041677
7	0x3c8e7aa8	0.017392471
8	0x3bc0e7e1	0.005887017
9	0x3c372b90	0.01117982
10	0x3d1b2bc1	0.037883524
11	0x3d0dadcc	0.034589574
12	0xbabf6dc3	-0.0014604855
13	0x3cfd0fb5	0.030891279
14	0x3d00450b	0.031315845
15	0x3bdfbfbb	0.006828276
16	0x3cad38e8	0.0211453
17	0xbc350b22	-0.011050018
18	0x3bf6abfb	0.007527826
19	0xbb31a12f	-0.002710413
20	0xbbae6524	-0.0053221155
21	0xbb025db1	-0.001989227
22	0x3c8509b3	0.016239977
23	0x3cb0c19c	0.021576695
24	0x3c016128	0.007896699
25	0xbc195ffc	-0.009361263
26	0x3c29162c	0.010320228
27	0x3c6a1cd2	0.014289098
28	0x3caea8de	0.021320757
29	0x3d228692	0.039679118
30	0x3d3a4e26	0.045484684
31	0x3c5a9119	0.013340258
32	0x3ce10455	0.027467886
33	0x3a4b62a8	0.00077585364
34	0x3bb51dc0	0.005527228
35	0xbbf4a6ab	-0.0074661574
36	0x3caa7787	0.020808948
37	0xb768e9bb	-1.3882697e-05
38	0x3d2eaddb	0.04264627
39	0x3c8f1bf9	0.017469393
40	0x3ca9833d	0.020692462
41	0xbab2e530	-0.0013648625
42	0xbc5db24c	-0.013531279
43	0x3d2eb5bc	0.042653784
44	0x3cf73c6c	0.030180179
45	0xbc208386	-0.009796983
46	0x3c9d7708	0.019221798
47	0xbc2865bd	-0.010278163
48	0xbbc8c6d7	-0.006127219
49	0x3d0a8019	0.03381357
50	0x3c2e2737	0.010629467
51	0x3cb61b5f	0.022229848
52	0x3d049812	0.032371588
53	0xba66bbce	-0.0008801789
54	0x3cf2a7b5	0.029620985
55	0x3b153e3f	0.0022772697
56	0x3c865168	0.01639624
57	0xbc5a7fd5	-0.013336142
58	0x3d0191dc	0.031633243
59	0x3c0d40e3	0.008621427
60	0x3ce79ef6	0.02827404
61	0xbbdb54ac	-0.0066934433
62	0xba6afbd3	-0.00089639163
63	0x3d171484	0.0368848

fc2.weight f4 [10, 64]
0	0xbe00d31d	-0.12580533
1	0x3e17e1b5	0.14832194
2	0x3d38b4fd	0.04509448
3	0x3dc57fac	0.09643492
4	0x3d6be948	0.05759552
5	0xbd99bb13	-0.07506385
6	0x3de87c0e	0.113517866
7	0x3e07ef9c	0.13274997
8	0x3cc03b6e	0.023465838
9	0x3d6bb8c1	0.057549242
10	0xbd245a99	-0.040125463
11	0x3df83aed	0.12120614
12	0xbb8a8b49	-0.00422803
13	0x3ceee633	0.029162502
14	0x3cd78ea5	0.026313135
15	0xbca04b40	-0.019567132
16	0xbe27d2db	-0.16389029
17	0xbdca99ce	-0.09892617
18	0xbbf6019f	-0.0075075175
19	0x3bdef607	0.006804231
20	0x3e02c983	0.12772183
21	0x3dfa351d	0.12217162
22	0x3d3e1ddc	0.046415195
23	0xbe216390	-0.15760636
24	0xbe3816b0	-0.17977405
25	0xbc087a7a	-0.008329982
26	0x3e552492	0.20814732
27	0xbded384a	-0.11583002
28	0xbdb99d05	-0.09063152
29	0xbe495e42	-0.19664863
30	0xbd6688b0	-0.0562827
31	0x3e2f32a1	0.17109157
32	0x3df9ca7b	0.12196823
33	0xbd7bf2a9	-0.061510716
34	0x3d76a321	0.060214166
35	0x3cfb4ff1	0.030677767
36	0x3e1c6916	0.15274462
37	0xbdcc359b	-0.09971162
38	0xbe1f9f1b	-0.15588038
39	0xbdddab9d	-0.10823748
40	0xbe284efb	-0.16436379
41	0xbdd836b9	-0.105573125
42	0xbe144558	-0.14479578
43	0x3da65fcb	0.0812374
44	0x3dd1cdab	0.10244306
45	0x3c2e4114	0.010635633
46	0xbd93db0c	-0.07219514
47	0xbd35677c	-0.044288144
48	0xbdeefea3	-0.11669662
49	0x3d198674	0.03748174
50	0xbd9152a9	-0.07095844
51	0xbe4bb6ed	-0.19894
52	0x3e197e2b	0.14989536
53	0xbd848296	-0.0647022
54	0xbe17f055	-0.14837773
55	0xbd84c4c1	-0.0648284
56	0xbe1438f0	-0.14474845
57	0xbd6cf01b	-0.05784617
58	0xbe268632	-0.16262129
59	0xbdc2ef31	-0.095182784
60	0xbb86ec8c	-0.004117554
61	0xbd07cabf	-0.033152338
62	0x3e135927	0.14389478
63	0xbb8b2397	-0.004246186
64	0xbda163a3	-0.07880332
65	0x3dd40177	0.10351842
66	0xbdea14a2	-0.11429717
67	0xbdaf3b22	-0.085562006
68	0xbe3e2bac	-0.18571347
69	0xbe09771d	-0.13424344
70	0xbd92b9ad	-0.07164321
71	0xbd9fb312	-0.07797827
72	0xbd7650cc	-0.060135648
73	0xbe123c19	-0.14280738
74	0x3d91914b	0.071077906
75	0x3d1fed87	0.039044883
76	0xbde7dea1	-0.1132176
77	0xbe0732e9	-0.13203014
78	0x3d9cbf16	0.07653634
79	0x3e423783	0.18966489
80	0xbd23d987	-0.040002372
81	0xbbf007f4	-0.007325167
82	0xbdd033f5	-0.1016616
83	0xbdb31d11	-0.08745778
84	0xbd401b5a	-0.046901084
85	0x3dbb4e09	0.091457434
86	0x3caba495	0.020952502
87	0x3c972cf8	0.01845406
88	0x3e1f8816	0.15579256
89	0xbde17f1f	-0.110105745
90	0xbdcead17	-0.10091608
91	0x3dc2369a	0.09483071
92	0x3d284fbf	0.041091677
93	0xbd156a5e	-0.036478393
94	0xbe133ec0	-0.14379406
95	0xbcb91a2d	-0.02259549
96	0xbdfef84d	-0.12449703
97	0xbd8892b2	-0.06668605
98	0xbde154f2	-0.1100253
99	0xbdf192ef	-0.117956035
100	0x3d9277a2	0.071517244
101	0xbe34f5c4	-0.17671877
102	0xbd8dfdc1	-0.06933165
103	0x3e1c7926	0.1528059
104	0x3dcdf648	0.1005674
105	0x3e00864e	0.12551233
106	0x3d484326	0.048892163
107	0xbe659e0a	-0.22423568
108	0xbe512e90	-0.20427918
109	0x3e2f44d9	0.17116107
110	0xbe358242	-0.1772547
111	0xbb5f9473	-0.0034115582
112	0x3de27670	0.110577464
113	0xbe26248a	-0.16224876
114	0x3d3ece71	0.046583597
115	0x3d445eaa	0.04794184
116	0x3d8f029f	0.06982922
117	0xbd8d150b	-0.06888779
118	0x3e0ace42	0.13555244
119	0xbd8ee762	-0.069777265
120	0xbde3f8d4	-0.111314446
121	0x3cc5da8d	0.024152065
122	0x3cb43844	0.021999486
123	0x3d498fb9	0.04920933
124	0xbcd3174c	-0.025767945
125	0xbc4588ee	-0.012056572
126	0xbdd7d732	-0.10539092
127	0x3d4f7d15	0.050656397
128	0xbd5d7c90	-0.05407387
129	0xbb89d4e9	-0.004206289
130	0xbe31546b	-0.17317359
131	0x3e000480	0.12501717
132	0x3d3f4053	0.046692204
133	0xbe123e29	-0.14281525
134	0xbcc19244	-0.023629315
135	0xbcab2008	-0.020889297
136	0xbe177d4f	-0.14793895
137	0xbdc045da	-0.09388323
138	0x3e10c7ce	0.1413872
139	0x3d8a7a6a	0.0676163
140	0xbe22baa1	-0.15891506
141	0x3d21e93d	0.039529074
142	0xbe268abe	-0.16263863
143	0xbd9009a4	-0.07033089
144	0xbdedfc6a	-0.1162041
145	0xbdbc0d7a	-0.09182258
146	0x3d5cfc90	0.0539518
147	0x3db7eb24	0.089803964
148	0xbdf907d0	-0.12159693
149	0xbd14f9aa	-0.03637091
150	0xbdfd29b6	-0.12361471
151	0x3e0cc73e	0.1374788
152	0x3bc86b19	0.0061162827
153	0xbde4331b	-0.1114256
154	0xbddc274a	-0.10749681
155	0x3e27b154	0.16376239
156	0xbd64049b	-0.055668455
157	0x3d01aa64	0.031656638
158	0x3d9da0d2	0.0769669
159	0x3d0474bd	0.032337893
160	0x3e0590af	0.13043474
161	0xbdc9fe99	-0.09863014
162	0xbddd2aa3	-0.10799148
163	0xbd2be98a	-0.041970767
164	0xbe0e6ba1	-0.13908245
165	0xbc9ee92b	-0.019398293
166	0x3e06d748	0.13168061
167	0x3e166f67	0.14690934
168	0x3e193bdb	0.1496424
169	0xbd92fe9a	-0.07177468
170	0xbe1c313a	-0.15253153
171	0x3e0c91c7	0.13727485
172	0x3db41111	0.08792318
173	0xbe176a34	-0.14786607
174	0xbdd06bc8	-0.10176808
175	0x3c25c130	0.01011686
176	0x3d16cf16	0.036818586
177	0xbe04f5ba	-0.12984362
178	0xbe1c75e8	-0.15279353
179	0xbe41955a	-0.1890463
180	0x3e09346f	0.13398908
181	0xbdb0b974	-0.086291224
182	0xbd99ad9a	-0.07503815
183	0x3cc19471	0.023630353
184	0x3da8263f	0.0821042
185	0xbd7ac07e	-0.06121873
186	0x3df3567d	0.11881731
187	0x3ddb393d	0.10704277
188	0xbe27c8c8	-0.16385186
189	0xbe064f3f	-0.13116167
190	0xbe1ecda0	-0.15508127
191	0xbc7a00a0	-0.015258938
192	0xbe0b316d	-0.13593073
193	0x3e0c5bed	0.13706942
194	0x3de58d97	0.11208647
195	0x3c9626d4	0.018329062
196	0xbe3bbd04	-0.18333822
197	0x3d36a76a	0.044593252
198	0xbce78878	-0.028263316
199	0xbd6bcd73	-0.05756898
200	0xbe145461	-0.14485313
201	0xbda0c1c9	-0.078494616
202	0xbdf75036	-0.12075846
203	0x3d90e9e0	0.07075858
204	0xbe098593	-0.13429861
205	0xbdaaac72	-0.083336726
206	0x3da4a098	0.08038443
207	0xbdb02299	-0.08600349
208	0xbd35de88	-0.044401675
209	0xbd7bca0c	-0.061471984
210	0x3db0b4f7	0.08628266
211	0x3e032d9d	0.12810369
212	0x3d081745	0.033225317
213	0x3ddbfcc1	0.10741568
214	0xbbee9dbd	-0.0072819875
215	0xbe11803c	-0.14209074
216	0xbde25356	-0.11051051
217	0x3d982ff2	0.0743102
218	0xbda050ad	-0.07827888
219	0xbdb7d61e	-0.089763865
220	0xbcd76598	-0.02629356
221	0x3dd76539	0.105173536
222	0x3de21b7e	0.110404
223	0xbc8cc860	-0.01718539
224	0xbe10eaa5	-0.1415201
225	0xbd9b1f0b	-0.0757428
226	0x3deda57a	0.11603828
227	0xbd6600be	-0.05615305
228	0xbe251051	-0.16119505
229	0xbdb883ae	-0.09009491
230	0x3d8bc979	0.06825537
231	0xbdcdc623	-0.10047557
232	0x3d769938	0.060204715
233	0x3e149517	0.14509998
234	0x3d9f56c7	0.07780223
235	0x3dbff195	0.0937225
236	0xbdbc5339	-0.09195561
237	0xbd34b14d	-0.0441144
238	0x3d929aa5	0.07158402
239	0xbd2afa34	-0.04174252
240	0x3db9e057	0.090759926
241	0x3d150140	0.036378145
242	0xbdd0c4ee	-0.10193811
243	0xbcb12bfc	-0.021627419
244	0xbe0bde32	-0.1365898
245	0xbc0e1d07	-0.008673913
246	0x3e16410b	0.1467325
247	0x3cbdff11	0.023192914
248	0x3de73b82	0.11290647
249	0xbdfbbcde	-0.12291883
250	0xbe1d3838	-0.15353477
251	0xbdf7744a	-0.12082727
252	0xbe012782	-0.12612727
253	0xbcfca979	-0.03084253
254	0x3d851d44	0.064997226
255	0x3d482c85	0.048870582

fc2.bias f4 [10]
0	0x3da1d5b8	0.07902092
1	0xbd9bd183	-0.076083206
2	0xbd8d7823	-0.0690768
3	0x3cd8c110	0.026459247
4	0xbc93fc6d	-0.018064702
5	0x3de4aa4c	0.11165294
6	0x3d124786	0.03571274
7	0xbdb97b38	-0.09056705
8	0xbe0329fd	-0.12808986
9	0xbda0bb19	-0.07848186

batchnorm1.weight f4 [8]
0	0x3f1bdd5e	0.60884655
1	0x3f269ac2	0.6507989
2	0x3eff745a	0.49893457
3	0x3f268171	0.6504126
4	0x3f13ea0e	0.57779014
5	0x3eff09dd	0.49812213
6	0x3f44e2e9	0.7690874
7	0x3f4813ea	0.78155386

batchnorm1.bias f4 [8]
0	0x3d673e53	0.05645592
1	0x3da365f2	0.07978429
2	0x3ae02a7e	0.0017102507
3	0x3d7ca820	0.061683774
4	0x3d29b53e	0.04143261
5	0x3dd17dae	0.102290496
6	0x3dbb6163	0.091494344
7	0x3d5a26f2	0.053259797

batchnorm1.running_mean f4 [8]
0	0x3e670d32	0.22563627
1	0x3d2650ae	0.040604286
2	0x3c6ac231	0.014328525
3	0x3c4b6953	0.012415248
4	0x3ecc099f	0.3985109
5	0x3e782a45	0.24234875
6	0x3e5b4b8f	0.21415542
7	0x3e49f7ea	0.19723478

batchnorm1.running_var f4 [8]
0	0x3edbb9c6	0.4291517
1	0x3d768366	0.060183905
2	0x3b9a79c8	0.0047142245
3	0x3bff8a98	0.007798504
4	0x3fcb29fd	1.5872189
5	0x3dc06049	0.09393365
6	0x3f00d48c	0.5032432
7	0x3f0c4adf	0.54801744

batchnorm2.weight f4 [16]
0	0x3f474acd	0.7784851
1	0x3ef8316a	0.484752
2	0x3f0d84b8	0.5528064
3	0x3f973f62	1.1816218
4	0x3f058ae4	0.52165055
5	0x3f1a627e	0.6030654
6	0x3f33c23e	0.70218265
7	0x3f93659a	1.1515381
8	0x3f20d8bc	0.6283071
9	0x3f455fa4	0.7709906
10	0x3f1fb2ad	0.6238201
11	0x3f7710ad	0.9650982
12	0x3e3f1a0c	0.1866228
13	0x3f8cf5c8	1.1012506
14	0x3f769cd2	0.9633304
15	0x3f83f6cd	1.0309693

batchnorm2.bias f4 [16]
0	0xbbeeaad4	-0.007283548
1	0xbbc531fe	-0.0060179224
2	0x3ca4b2b0	0.020104736
3	0x3d36220b	0.04446606
4	0x3c5b1cf6	0.013373604
5	0x3c1cf356	0.0095795
6	0x3cc9611b	0.024582436
7	0x3c36255c	0.011117306
8	0x3c1c317f	0.009533285
9	0x3c9a251b	0.018816521
10	0x3c27c8a6	0.010240709
11	0x3c645ffe	0.013938902
12	0xbc0866be	-0.008325277
13	0x3c4f839e	0.012665657
14	0x3cf4c6fa	0.029880036
15	0x3c807860	0.0156824

batchnorm2.running_mean f4 [16]
0	0x3e9253d2	0.28579575
1	0x3d91ed24	0.07125309
2	0x3d67695a	0.056496955
3	0x3e8c2504	0.2737199
4	0x3dba9bb1	0.09111727
5	0x3e880523	0.2656642
6	0x3e19711e	0.14984557
7	0x3ea24e73	0.31700477
8	0x3e6ff8d6	0.23434767
9	0x3de8d5e4	0.113689214
10	0x3e318aaa	0.17338052
11	0x3dc8c383	0.09802916
12	0x3e730ecb	0.23736112
13	0x3e802b3d	0.25032988
14	0x3e888d8e	0.26670498
15	0x3e8c2013	0.2736822

batchnorm2.running_var f4 [16]
0	0x3d6d17a5	0.057883877
1	0x3ced7a92	0.02898911
2	0x3cd523b2	0.026017997
3	0x3dd2a06c	0.10284504
4	0x3d6e694f	0.0582059
5	0x3e763d2f	0.24046777
6	0x3d3d4dba	0.046216704
7	0x3ebf8fa3	0.37414274
8	0x3e1e40e7	0.15454446
9	0x3d099f8d	0.033599425
10	0x3e0a1d9d	0.13487859
11	0x3d2cbbaa	0.042171158
12	0x3e3f6a29	0.1869284
13	0x3e2fe215	0.17176087
14	0x3da24036	0.079224035
15	0x3e703654	0.23458225
