mnist_model2.pt (torch_old, 604254 bytes, 16 tensors)

conv1.weight f4 [8, 1, 2, 2]
0	0x3eee9323	0.4659663
1	0xbd092689	-0.033484016
2	0x3e0fcf46	0.14043912
3	0x3e61f2f9	0.22065343
4	0xbec7c3e7	-0.3901665
5	0x3e9e24c2	0.3088742
6	0xbd23045c	-0.03979908
7	0x3ecb2b6c	0.39681566
8	0x3de41ef4	0.11138716
9	0xbcc133d1	-0.023584278
10	0x3ea98a65	0.331134
11	0x3dc62a95	0.09676091
12	0x3ea18527	0.315469
13	0xbe389648	-0.18026078
14	0x3c3cf031	0.0115318755
15	0xbb8c940f	-0.004290111
16	0x3d3110e1	0.043228988
17	0xbdbe5cee	-0.09295069
18	0x3f2d60ca	0.67725813
19	0x3e3014b0	0.17195392
20	0x3c3c0d2f	0.011477753
21	0xbe096b30	-0.13419795
22	0xbe7e2e7d	-0.24822421
23	0xbebfb69d	-0.3744401
24	0xbde881eb	-0.11352905
25	0x3d76d25a	0.0602592
26	0x3e9ddf5c	0.30834472
27	0x3ee4c62d	0.44682446
28	0xbeae2463	-0.34012136
29	0x3eb81b24	0.35958207
30	0x3e130b35	0.14359744
31	0x3f320c4d	0.6955002

conv1.bias f4 [8]
0	0x3de3aa85	0.111165084
1	0xbeb486d2	-0.3525911
2	0xbe9568a8	-0.2918141
3	0xba970be5	-0.0011523931
4	0x3e50bad3	0.20383768
5	0x3d4f9145	0.05067565
6	0x3d2c0f06	0.042006515
7	0xbe708d3e	-0.2349138

conv2.weight f4 [16, 8, 4, 4]
0	0x3e09bed1	0.13451697
1	0xbe050bfb	-0.12992851
2	0xbdf4062e	-0.11915241
3	0xbdf3387b	-0.11876007
4	0x3d2cb5b1	0.042165462
5	0xbccc6ea4	-0.024955101
6	0xbe2a7742	-0.16647056
7	0x3de61d19	0.11236019
8	0x3d3c2248	0.04593113
9	0xbe2f0139	-0.1709031
10	0xbe2e6bb2	-0.1703327
11	0x3de1fadd	0.110341765
12	0xbd887e0e	-0.06664668
13	0xbe9567aa	-0.29180652
14	0xbd554151	-0.052064244
15	0x3dea5cd2	0.11443485
16	0xbd9b7412	-0.07590498
17	0xbe5b1db9	-0.21398057
18	0xbd94ef0f	-0.07272159
19	0xba943d27	-0.0011309729
20	0xbe4acae1	-0.19803955
21	0xbdfb7cfe	-0.122797
22	0xbbf9c0bf	-0.007621854
23	0x3d1039d3	0.035211395
24	0xbe5ae228	-0.21375334
25	0xbe10e4d7	-0.14149795
26	0x3d5770e4	0.052597895
27	0x3a9faebe	0.0012182815
28	0xbe683e4e	-0.22680017
29	0xbd149bc1	-0.03628135
30	0x3c4939b2	0.012281822
31	0xbd57549d	-0.052570928
32	0x3d4c1835	0.049827773
33	0xbcfcc160	-0.030853927
34	0xbe165d78	-0.14684093
35	0xbdbb3117	-0.091402225
36	0x3dd31200	0.103061676
37	0xbdd759c9	-0.10515172
38	0xbe9eee45	-0.3104116
39	0x3ddb56a1	0.107098825
40	0x3c0dbfa1	0.008651645
41	0xbe6425c9	-0.22280039
42	0xbe3af40d	-0.1825716
43	0x3dcb3be1	0.0992353
44	0xbd8d59cb	-0.06901892
45	0xbe679f9f	-0.22619484
46	0xbe1df25e	-0.15424487
47	0x3d8a21bc	0.067447156
48	0x3d8eaf15	0.06966988
49	0xbc91f660	-0.017817676
50	0xbbff587b	-0.00779253
51	0xbe2f803b	-0.1713876
52	0x3ca165d4	0.019701876
53	0x3c2c0754	0.010499794
54	0xbdaeaafe	-0.08528708
55	0xbded8796	-0.115981266
56	0x3c8bdc36	0.017072778
57	0xbca69cef	-0.020338504
58	0xbe7a91e4	-0.24469715
59	0xbb6cab41	-0.0036112817
60	0xbd04e3a9	-0.032443676
61	0xbe0eebc3	-0.13957123
62	0xbe72b5a8	-0.23702109
63	0x3d9fa1ba	0.07794519
64	0x3d600a65	0.054697413
65	0xbd92f426	-0.07175474
66	0xbdef96ae	-0.11698662
67	0xbdcd7c78	-0.10033506
68	0x3dc385c5	0.09546999
69	0xbe16282a	-0.14663759
70	0xbe281520	-0.16414309
71	0x3decc576	0.115611
72	0x3d21664e	0.039404206
73	0xbe932298	-0.2873733
74	0xbd076fdb	-0.033065658
75	0x3e28e9d3	0.16495447
76	0xbd77da7f	-0.06051111
77	0xbe10b67f	-0.14132117
78	0xbdd2fb6c	-0.10301861
79	0x3a0e108d	0.00054193364
80	0xbe243c29	-0.16038574
81	0x3d79209b	0.06082211
82	0x3e0fe85e	0.14053485
83	0xbb21c7c0	-0.002468571
84	0xbd1f2ee6	-0.038863085
85	0x3d446239	0.047945235
86	0xbc917961	-0.017758073
87	0xbd3a8184	-0.045533672
88	0xbc96e160	-0.018418014
89	0x3de0cfea	0.109771565
90	0xbdd42fff	-0.10360717
91	0xbd24095f	-0.040048
92	0x3d60d1bc	0.05488752
93	0x3d5f44d0	0.054508984
94	0xbcec21cd	-0.028824711
95	0xbc7e8eb1	-0.01553695
96	0x3dfacf21	0.12246538
97	0xbdfff2e6	-0.12497501
98	0xbe4c4d13	-0.19951276
99	0xbd58dcd6	-0.05294498
100	0x3db9ad48	0.09066254
101	0xbe805e97	-0.25072166
102	0xbdb29336	-0.087194845
103	0x3e1a3dbc	0.15062612
104	0x3d2de81e	0.042457692
105	0xbe4071c3	-0.18793397
106	0x3c8fb659	0.017543005
107	0x3d80b761	0.06284977
108	0xbdb54d87	-0.08852678
109	0xbd96d552	-0.07364906
110	0xbdf7e6d7	-0.12104576
111	0x3d213580	0.039357662
112	0x3d839879	0.06425566
113	0xbe54b5ae	-0.2077243
114	0xbdf72bf6	-0.12068932
115	0xbcc0c987	-0.023533596
116	0xbdb45886	-0.08805947
117	0xbe471b49	-0.19444002
118	0x3e00d889	0.12582602
119	0xbc9cdb94	-0.019147672
120	0xbe5ecb43	-0.21757226
121	0xbd8fc748	-0.07020432
122	0x3da03741	0.07823039
123	0x3c893591	0.016749175
124	0xbe716038	-0.23571861
125	0xbc3543a4	-0.01106349
126	0xbcd9e5cb	-0.026598832
127	0x3a6dce7c	0.0009071601
128	0xbe18c668	-0.14919436
129	0xbda59281	-0.08084584
130	0xbd0a177b	-0.0337138
131	0x3d5b88b8	0.053597182
132	0xbd903552	-0.0704142
133	0xbd256b94	-0.040385798
134	0x3d1a9d5c	0.037747726
135	0x3de76cce	0.1130005
136	0x3b740e41	0.0037239941
137	0xbda66339	-0.08124394
138	0xbe19c02b	-0.15014713
139	0x3dd7b755	0.10533015
140	0xbba4a3ea	-0.005024423
141	0xbd44167d	-0.04787301
142	0xbe431042	-0.1904917
143	0xbd9ff45e	-0.07810281
144	0xbc6db472	-0.014508354
145	0x3dafa792	0.085768834
146	0xbd89a47e	-0.067208275
147	0xbe11b0fb	-0.14227669
148	0xbd6f5eb6	-0.058439933
149	0x3cf5fd05	0.030027876
150	0x3d9f9d13	0.077936314
151	0xbdbbe897	-0.09175222
152	0xbdfc7aab	-0.123280846
153	0x3c1dc861	0.009630294
154	0x3dbc3793	0.091902874
155	0xbcb94873	-0.022617554
156	0xbcf00b81	-0.02930236
157	0xbd75cfbd	-0.060012568
158	0x3d58ad3d	0.052899588
159	0xbcb62344	-0.022233613
160	0xbdf651c9	-0.12027318
161	0xbe179d38	-0.14806068
162	0x3d883481	0.06650639
163	0x3d3f826f	0.04675525
164	0x3c073b98	0.008253954
165	0xbd944e16	-0.07241456
166	0xbb409719	-0.0029386936
167	0x3dc3a3c9	0.09552724
168	0xbd3d193c	-0.046166644
169	0xbd3c41e3	-0.045961272
170	0xbdc4644a	-0.09589441
171	0x3caf6da0	0.021414578
172	0xbe0230d5	-0.1271394
173	0xbd047e4c	-0.03234701
174	0xbdf8a0a7	-0.12140017
175	0xbd86ae7a	-0.065762475
176	0xbd058f77	-0.03260752
177	0xbe04aad2	-0.12955788
178	0xbd5cb719	-0.053885553
179	0x3e0b3e74	0.13598043
180	0xbe0698cb	-0.13144223
181	0x3d12bad3	0.0358227
182	0xbe006cc1	-0.12541486
183	0xbca74915	-0.02042059
184	0x3c1f4b0d	0.009722483
185	0xbd84cbf7	-0.06484216
186	0xbe23ce01	-0.15996553
187	0x3d3576fc	0.044302925
188	0x3dc696a7	0.096967034
189	0x3d9545ab	0.07288679
190	0xbdfde0b0	-0.12396371
191	0xbdeb0c29	-0.11476929
192	0xbd87a7c3	-0.06623795
193	0xbdb12ef9	-0.086515374
194	0xbb56f4fa	-0.0032799826
195	0x3dd38aed	0.10329232
196	0xbe1a858e	-0.1509001
197	0xbd0f98a6	-0.035057686
198	0x3d9ea5a5	0.07746438
199	0x3d185844	0.03719355
200	0xbd9bdddc	-0.07610676
201	0xbdb25135	-0.08706895
202	0xbd9c0541	-0.076181896
203	0x3d786f37	0.060652938
204	0x3d0ecaab	0.034861248
205	0xbc08fb20	-0.008360654
206	0xbe28d228	-0.16486418
207	0xbda78bac	-0.08180937
208	0xbe15f65d	-0.14644761
209	0xbd4541ee	-0.04815858
210	0xbdae291b	-0.08503934
211	0xbe073724	-0.13204628
212	0x3b3cbccc	0.0028799055
213	0xbd04d531	-0.032429878
214	0xbd8c6a52	-0.068562165
215	0xbe3e1532	-0.18562773
216	0x3df19d2d	0.11797557
217	0x3c462329	0.012093344
218	0xbcae358c	-0.021265768
219	0xbe08684b	-0.13321035
220	0x3e1d980b	0.15390031
221	0x3e0de280	0.13855934
222	0xbc8ee7c5	-0.0174445
223	0x3cee7e97	0.029113097
224	0xbd78a62d	-0.060705353
225	0xbdc652d0	-0.09683764
226	0x3daab264	0.083348066
227	0xbcb394bf	-0.021921514
228	0x3d2cb217	0.042162027
229	0xbe0dc917	-0.13846241
230	0x3c70b83d	0.014692363
231	0x3de64967	0.11244469
232	0x3a8fb0ce	0.0010962726
233	0xbcdaa4fe	-0.026690003
234	0xbdae6f7a	-0.08517356
235	0x3d25bc64	0.040462866
236	0xbd547a1a	-0.051874258
237	0xbd88cd50	-0.06679785
238	0xbe0029d5	-0.12515958
239	0xbcb2acde	-0.021810945
240	0xbd2cca30	-0.04218501
241	0x3c019c4a	0.007910797
242	0x3dbb8b87	0.09157472
243	0x3cdd7dde	0.027037557
244	0xbdc7b389	-0.097510405
245	0xbdcb3e91	-0.09924043
246	0xbd93a376	-0.07208912
247	0x3dd61cb8	0.104546964
248	0xbcff6ec8	-0.031180754
249	0xbdb6b1fe	-0.08920668
250	0xbd12a41f	-0.03580105
251	0xbb3b00d9	-0.002853444
252	0x3dce374e	0.10069142
253	0xbd1e3985	-0.038629074
254	0xbd930ee4	-0.071805745
255	0xbd0cadbb	-0.03434537

conv2.bias f4 [16]
0	0x3d800a1f	0.062519304
1	0xbe054540	-0.13014698
2	0xbdfec641	-0.12440158
3	0xbc2ab0e3	-0.01041815
4	0xbe1e836f	-0.15479825
5	0xbd950955	-0.072771706
6	0xbd140049	-0.036133084
7	0xbe5667d3	-0.20938043
8	0xbd71ca76	-0.059030972
9	0xbd97d251	-0.074131615
10	0xbdbc4eed	-0.091947414
11	0x3b18a23b	0.0023290056
12	0xbde154b5	-0.11002485
13	0x3c5ec1e6	0.013596034
14	0x3d509c2f	0.0509302
15	0xbde9f31f	-0.11423325

fc1.weight f4 [64, 2304]
0	0xbc9483d9	-0.018129276
1	0xbab94db0	-0.0014137533
2	0x3bba8b0e	0.005692846
3	0xbc890139	-0.016724216
4	0x3cd05b41	0.025434138
5	0x3c9521a8	0.018204525
6	0xbc3e52f6	-0.011616459
7	0x3c88c59d	0.016695792
8	0x3cc07321	0.023492398
9	0xbc45f3db	-0.012082065
10	0x3bdf35b2	0.006811821
11	0xbc2e5810	-0.010641113
12	0x3c8ef527	0.017450882
13	0xbb62a40e	-0.0034582647
14	0x3c3d13a8	0.011540331
15	0xbd291c25	-0.041286606
16	0x3d60d508	0.054890662
17	0x3d785064	0.06062354
18	0x3de4b27e	0.11166857
19	0x3dfb3149	0.1226526
20	0x3c747f2d	0.014922899
21	0xbb010a1d	-0.0019689866
22	0x3c9e0105	0.019287596
23	0xbbdcb2fc	-0.006735204
24	0xbc47da40	-0.012198031
25	0xbd702157	-0.058625545
26	0xbd22730b	-0.039660495
27	0xbd144375	-0.036197145
28	0x3db7076a	0.08936961
29	0x3dac596d	0.08415494
30	0x3dad2c96	0.0845577
31	0x3dea7f43	0.114500545
32	0x3c34427c	0.011002179
33	0xbc96af00	-0.018393993
34	0x3d2d5ac0	0.042322874
35	0xbd478330	-0.048709095
36	0xbb60a6de	-0.0034279148
37	0xbd4bd42c	-0.04976289
38	0x3bc4ddb6	0.0060078753
39	0x3d53fdfa	0.051755883
40	0x3def8070	0.116944194
41	0x3e08cffc	0.1336059
42	0x3dcf422f	0.101200454
43	0x3e1c32d4	0.15253764
44	0x3d943ff2	0.07238759
45	0xbd042b83	-0.03226806
46	0x3d2041d8	0.039125293
47	0xbcac8e37	-0.021063907
48	0xbb550df5	-0.003250954
49	0xbc7b22f9	-0.015328162
50	0x3db69c8d	0.089165784
51	0x3dff0d8f	0.12453758
52	0x3e35796d	0.17722102
53	0x3db3e886	0.08784585
54	0x3e502057	0.20324837
55	0x3d725ad6	0.05916866
56	0xbd4b500a	-0.049636878
57	0xbd01603c	-0.031585917
58	0x3a0aea3d	0.00052991865
59	0xbc83f3f9	-0.016107546
60	0xbb584c43	-0.003300444
61	0x3d03385c	0.03203617
62	0x3d954a0d	0.07289515
63	0x3db37699	0.08762855
64	0x3d85aa89	0.065266676
65	0x3d2b6306	0.041842483
66	0x3d7db002	0.061935432
67	0xbd838c8c	-0.064232916
68	0xbd30a5ab	-0.043126743
69	0x3cc0b184	0.023522146
70	0x3c8390dd	0.016060287
71	0xbc3818f4	-0.011236418
72	0xbc4a6aa6	-0.0123545285
73	0xbd43bc4c	-0.047786996
74	0x3b41e1be	0.0029584016
75	0xbd24d662	-0.040243514
76	0xbd984b22	-0.074362054
77	0xbe0157da	-0.12631169
78	0xbd91c817	-0.07118242
79	0xbdd767e8	-0.105178654
80	0xba9d8c8b	-0.0012020034
81	0x3bacc84e	0.0052729016
82	0x3d00e54a	0.031468667
83	0x3c17439b	0.009232427
84	0xbd0b89e7	-0.03406706
85	0x3c886dc8	0.01665391
86	0xbcff8cfb	-0.031195154
87	0xbdeaf7a4	-0.11473015
88	0xbe468fd9	-0.19390811
89	0xbdc272ca	-0.094945505
90	0xbdf1afc4	-0.11801103
91	0xbe02acea	-0.12761274
92	0x3c675d79	0.014121407
93	0x3d550576	0.05200716
94	0x3d164cbe	0.03669428
95	0xbce23203	-0.027611738
96	0xbd3b9c1e	-0.04580318
97	0xbcfdcc1d	-0.030981118
98	0xbd5e7e92	-0.054319926
99	0xbda99374	-0.082800776
100	0xbda2a747	-0.07942062
101	0xbc9c2f41	-0.019065501
102	0xbcf78d1d	-0.030218655
103	0x3a833ba6	0.0010012283
104	0x3d93831b	0.07202741
105	0x3d0b9502	0.03407765
106	0xbbd4b102	-0.0064908275
107	0xbc6fb3eb	-0.014630298
108	0xbc120105	-0.008911376
109	0x3ae61a94	0.0017555528
110	0xbb846b3e	-0.0040411046
111	0xbd33435b	-0.043765407
112	0x3b10a78f	0.002207253
113	0x3d8e8495	0.06958882
114	0xbc2f6cab	-0.010707061
115	0x3d4c8281	0.049929146
116	0x3d0765d7	0.033056106
117	0xbd9866a1	-0.0744145
118	0xbb270974	-0.0025487812
119	0xbc659aed	-0.014013988
120	0x3b903d72	0.004401856
121	0x3a813888	0.0009858767
122	0x3cadecb5	0.021231035
123	0x3d390cda	0.04517827
124	0x3d62e9c5	0.05539872
125	0x3d987a86	0.074452445
126	0x3db63534	0.088968664
127	0x3929eeab	0.00016206007
128	0xba611d7f	-0.0008587464
129	0xbcb051fa	-0.021523464
130	0xbb490c47	-0.0030677484
131	0x3c08f81a	0.008359933
132	0x3c86a88d	0.016437793
133	0xbba844de	-0.0051351627
134	0xbcd3b4a8	-0.02584298
135	0x3d2fa87d	0.042885292
136	0x3ce8e3c3	0.028428918
137	0x3d96fa79	0.073719926
138	0xbd3325eb	-0.043737333
139	0xbc0b695f	-0.008509009
140	0x3c21638d	0.009850395
141	0xbccbdd51	-0.024885805
142	0x3cebe22e	0.028794374
143	0x3b332b54	0.0027339058
144	0xbc9e8ff2	-0.019355748
145	0xbc6842c5	-0.014176075
146	0x3c7f7cba	0.015593702
147	0x3c061686	0.008184081
148	0x3c1e7fbe	0.009674011
149	0x3bcf75c2	0.0063311765
150	0xbbda1c79	-0.0066562262
151	0x3cb3c056	0.021942299
152	0x3c8104ad	0.0157493
153	0x3ba54c19	0.005044472
154	0x3c8c5648	0.017130986
155	0xbc3f86bf	-0.011689841
156	0xbc70396b	-0.014662127
157	0xbc4158f8	-0.011800997
158	0xbc3df131	-0.011593149
159	0xbcaf2377	-0.021379216
160	0xbc9663ce	-0.018358137
161	0x3ce88627	0.028384281
162	0xbb1e19dd	-0.0024124302
163	0x3c05a4c3	0.008156958
164	0x3ce34c93	0.027746474
165	0x3c91b1d4	0.01778499
166	0x3c2488a0	0.01004234
167	0xbc4f7ec9	-0.012664505
168	0x3bc757e4	0.0060834754
169	0x3ac1424b	0.0014744488
170	0x3c04ea3e	0.008112488
171	0xbd586ff6	-0.05284115
172	0xbd2498d1	-0.0401848
173	0x3c9e33d6	0.019311827
174	0x3c0fda15	0.008780022
175	0xbcd9f944	-0.026608117
176	0x3c3c96d3	0.011510569
177	0x3c8474fc	0.016169064
178	0xbad7d962	-0.0016467983
179	0x3afa4b4c	0.0019095927
180	0xbcd325fd	-0.02577495
181	0xbcd72609	-0.026263254
182	0xbd1271ca	-0.03575305
183	0xbda8ce8d	-0.082425214
184	0xbd1af57a	-0.03783176
185	0xbd45f610	-0.048330367
186	0x3af75462	0.0018869753
187	0x3c46e4c6	0.012139505
188	0x3bdb8574	0.0066992585
189	0xbbd7d28a	-0.0065863775
190	0x3cc5467d	0.024081463
191	0x3bff8560	0.007797882
192	0xbc24d190	-0.010059729
193	0xbcb24804	-0.021762855
194	0xbd0ed9ca	-0.03487567
195	0xbddaeb97	-0.106894664
196	0xbd09105b	-0.033462863
197	0xbd95b5ba	-0.07310052
198	0x3d1a4688	0.03766492
199	0xbca9eb8e	-0.020742204
200	0xbc09646f	-0.008385762
201	0xbba6a80b	-0.0050859503
202	0x3cde0cda	0.027105737
203	0xbbaf9bfe	-0.005359172
204	0xbb9a31a4	-0.0047056247
205	0xbcecdd85	-0.028914222
206	0xbd1ebc0a	-0.038753547
207	0xbc67c09b	-0.014145042
208	0xbd42bcd5	-0.047543366
209	0xbdc32490	-0.09528458
210	0xbc80a505	-0.015703687
211	0x3b9a5fdc	0.0047111344
212	0xbd419039	-0.047256682
213	0x3c68555f	0.01418051
214	0x3c837df3	0.016051268
215	0x3c8fc530	0.017550081
216	0x3bf33c9b	0.007422996
217	0x3d7d8778	0.06189677
218	0x3cff9577	0.0311992
219	0x3b998a78	0.004685696
220	0x3b455efc	0.003011643
221	0xbd550984	-0.052011028
222	0x3c929e5d	0.01789778
223	0x3d07766b	0.033071917
224	0xbc789e27	-0.015174425
225	0xbbd3875b	-0.0064553446
226	0x39a3bcd2	0.00031230465
227	0xbc0a1dcf	-0.0084299585
228	0x3d07ebac	0.03318374
229	0x3d4c6567	0.049901392
230	0x3d42f155	0.047593433
231	0x3d5289d3	0.05140097
232	0x3cd461aa	0.025925476
233	0xbc6cf851	-0.0144635
234	0x3c7ed4fa	0.015553707
235	0x3d943893	0.07237353
236	0xbd09fa8b	-0.033686202
237	0x3c8346f3	0.016025042
238	0xbbb2bee9	-0.005454887
239	0x3b90c6e7	0.0044182423
240	0x3a96a80d	0.0011494175
241	0x3b89add7	0.0042016315
242	0x3d8a5cd4	0.06755987
243	0x3d9652b2	0.07339992
244	0x3c8c0ce9	0.017096
245	0xbced3ab3	-0.028958654
246	0xbb1578c5	-0.002280758
247	0x3d034584	0.032048717
248	0x3cdcb54f	0.026941923
249	0x3d36c219	0.0446187
250	0x3d142593	0.036168646
251	0xbb839d24	-0.0040165354
252	0xbcceb723	-0.02523381
253	0xbd41e422	-0.047336705
254	0x3cef2e72	0.029196952
255	0x3ca2149b	0.019785216

fc1.bias f4 [64]
0	0x3c1a095b	0.009401645
1	0x3c64980c	0.013952266
2	0xbb87fbfa	-0.004149911
3	0x3c0c4a96	0.008562705
4	0x3d06ad68	0.032880217
5	0x3d60bdba	0.054868437
6	0x3cbabfe2	0.022796575
7	0x3b1850b1	0.0023241455
8	0xbd2e4ac7	-0.042551782
9	0x3b6d7692	0.0036234003
10	0x3cf15481	0.02945924
11	0x3d3713c5	0.044696588
12	0xb9a52d09	-0.00031504806
13	0x3d1d8c58	0.03846392
14	0x3d31c423	0.04339994
15	0xbc5d08cb	-0.013490866
16	0x3bf9e93a	0.0076266797
17	0xbcb96d60	-0.022635162
18	0x3a909981	0.0011032076
19	0xbb76fd03	-0.0037687428
20	0xbd0158cd	-0.031578828
21	0xbbdbda80	-0.006709397
22	0x3cf5f273	0.030022835
23	0x3c22c2cb	0.009934138
24	0x3cdc3a8e	0.02688339
25	0x3caad5e7	0.02085395
26	0xbc34c5d5	-0.011033495
27	0x3cce7952	0.025204334
28	0x3ce02f86	0.027366411
29	0x3d916811	0.07099927
30	0x3d6c6c34	0.057720378
31	0xbaa62efa	-0.0012678795
32	0x3cdeb8c6	0.027187716
33	0x3a9dadf7	0.0012029995
34	0x3c2c71fd	0.010525224
35	0xbcf4c30f	-0.029878167
36	0x3c82e52b	0.015978416
37	0xbc8c682d	-0.017139519
38	0x3d8e2521	0.069406755
39	0x3ce88bac	0.028386913
40	0x3d02ac50	0.03190261
41	0x3ca5ea5a	0.02025335
42	0xbcc2f319	-0.023797559
43	0x3cf1984b	0.029491564
44	0x3d0f94e0	0.035054088
45	0xbca9fb1f	-0.020749627
46	0x394eb9df	0.00019714933
47	0x3c958172	0.0182502
48	0x3c22c40d	0.009934437
49	0x3cf1e364	0.029527374
50	0x3b3bcf4b	0.0028657492
51	0x3ce8f0da	0.02843516
52	0x3cfa907b	0.030586472
53	0x3bb756c2	0.005595059
54	0x3ce53058	0.027977154
55	0xbc893468	-0.016748622
56	0x3cc1e6f0	0.02366969
57	0xbc913d8a	-0.01772954
58	0x3d47661f	0.048681375
59	0x3c62b870	0.013837919
60	0x3cd3c412	0.02585033
61	0xbca6effc	-0.020378105
62	0x3ce48905	0.027897367
63	0x3d07cae8	0.03315249

fc2.weight f4 [10, 64]
0	0xbe3d63ea	-0.18495145
1	0x3e1441dd	0.1447825
2	0x3c86a71f	0.016437111
3	0x3dbd9f60	0.09258914
4	0x3d5f2f0c	0.054488227
5	0xbe38bafd	-0.1804008
6	0x3e26c614	0.16286498
7	0x3e2bae4f	0.16765712
8	0x3dab73ce	0.08371697
9	0x3cf29542	0.029612187
10	0xbdbe8e9d	-0.09304545
11	0x3de01e73	0.10943308
12	0xbc4f9e83	-0.0126720695
13	0x3d828464	0.06372908
14	0x3d856421	0.06513239
15	0xbcd13d5c	-0.025541954
16	0xbe8cce1b	-0.27500996
17	0xbdf6adaa	-0.120448425
18	0xbe1e0ee9	-0.15435375
19	0xbe1adc55	-0.15123112
20	0x3e164c61	0.14677574
21	0x3dd2df07	0.10296445
22	0x3d48c7c9	0.049018655
23	0xbe470ac4	-0.194377
24	0xbeb3bf22	-0.3510676
25	0xbddfc1c5	-0.109256305
26	0x3e40dc13	0.18833952
27	0xbdd6cc40	-0.10488176
28	0xbe4431d0	-0.19159627
29	0xbeb1862b	-0.34672675
30	0xbe8a6528	-0.270303
31	0x3e4e98c7	0.20175467
32	0x3e24b463	0.16084437
33	0xbe595090	-0.21222138
34	0x3d30cc97	0.043163862
35	0x3d845047	0.06460624
36	0x3e0b37a3	0.13595442
37	0xbdcfa32d	-0.10138545
38	0xbe49c3a1	-0.19703533
39	0xbe5bba7e	-0.2145786
40	0xbea7ec83	-0.32797632
41	0xbe908162	-0.2822371
42	0xbe21c407	-0.15797435
43	0x3d906836	0.07051127
44	0x3daf3592	0.085551396
45	0xbc9dfe21	-0.019286217
46	0xbda2bcca	-0.07946165
47	0xbe54a931	-0.20767666
48	0xbe8749ad	-0.26423398
49	0x3a18cdfd	0.00058290345
50	0xbe5dada8	-0.21648276
51	0xbece86d5	-0.40337244
52	0x3e29f9c1	0.1659918
53	0xbe5ea189	-0.21741308
54	0xbe946279	-0.2898138
55	0xbe0eda33	-0.13950424
56	0xbe94212f	-0.28931567
57	0xbe3de65a	-0.18544903
58	0xbea8a2e1	-0.32936767
59	0xbe821c5d	-0.25412264
60	0xbc6df404	-0.01452351
61	0xbe036176	-0.12830147
62	0x3d625822	0.05525983
63	0xbda49e91	-0.08038057
64	0xbe718660	-0.23586416
65	0x3e12eac2	0.14347365
66	0xbe6adef7	-0.22936617
67	0xbe80864d	-0.25102463
68	0xbeb5c179	-0.3549917
69	0xbe971e23	-0.2951518
70	0xbdbc3a86	-0.0919085
71	0xbe4188bb	-0.18899815
72	0xbe00f187	-0.12592135
73	0xbe8220f8	-0.25415778
74	0x3df46862	0.11933972
75	0xbd552f79	-0.052047227
76	0xbea345a6	-0.31889075
77	0xbea19d20	-0.3156519
78	0x3d8321c5	0.064029254
79	0x3e426fbe	0.18987939
80	0xbe48c155	-0.19605
81	0xbd6a31d0	-0.05717641
82	0xbddae6f9	-0.10688586
83	0xbe2e04d7	-0.16994034
84	0xbd94f05c	-0.072724074
85	0x3d83827f	0.064213745
86	0x3db0ec4d	0.08638821
87	0xbd78c907	-0.06073859
88	0x3e5ea6e9	0.21743359
89	0xbdbd891e	-0.09254669
90	0xbe93b768	-0.28850865
91	0x3d94165a	0.07230826
92	0x3e28fb05	0.16502006
93	0xbd00783f	-0.031364676
94	0xbe9f62d9	-0.31130102
95	0xbe0fc545	-0.14040096
96	0xbe23aabe	-0.15983102
97	0xbd9eaaaf	-0.07747399
98	0xbe6d4d80	-0.23174095
99	0xbe29f4bc	-0.16597265
100	0x3db1ac16	0.08675401
101	0xbe827ff8	-0.25488257
102	0xbd42445d	-0.047428478
103	0x3e38d432	0.18049696
104	0x3dd4a5a3	0.10383155
105	0x3dea9add	0.11455319
106	0x3cd43f62	0.02590913
107	0xbe8fe5af	-0.28104922
108	0xbeb62473	-0.35574684
109	0x3e366350	0.17811322
110	0xbe948abd	-0.290121
111	0xbcd5980c	-0.026073478
112	0x3dd74a66	0.10512237
113	0xbef3fb85	-0.47652832
114	0x3dc7ec80	0.09761906
115	0xbc8e4994	-0.01736907
116	0x3df0da7f	0.11760425
117	0xbd8e56fb	-0.06950184
118	0x3dd7c9c8	0.105365336
119	0xbd903478	-0.070412576
120	0xbdeb9eb0	-0.115048766
121	0x3b616148	0.003439026
122	0x3c8b993d	0.017040843
123	0x3e46ff7f	0.19433402
124	0xbe1daa1e	-0.15396926
125	0x3d1e1f9a	0.038604356
126	0xbece31d9	-0.40272406
127	0x3e6133fc	0.21992487
128	0xbd90864b	-0.07056864
129	0xbd02242d	-0.03177278
130	0xbe6b5bab	-0.22984187
131	0x3e03bbc3	0.12864594
132	0x3e0a6abe	0.13517281
133	0xbea23c62	-0.31686693
134	0xbcc63d21	-0.02419907
135	0xbe4b1f26	-0.19836101
136	0xbe917b78	-0.28414512
137	0xbe0d5340	-0.13801289
138	0x3ddfe7d2	0.10932888
139	0x3dc0120d	0.09378443
140	0xbe17cb88	-0.14823735
141	0x3df5d89d	0.12004206
142	0xbe5aebea	-0.21379057
143	0xbe54faa1	-0.20798732
144	0xbe2d0920	-0.16898012
145	0xbd883342	-0.06650402
146	0x3d57e050	0.052704155
147	0x3c9305b5	0.017947057
148	0xbe99218d	-0.2990841
149	0x3ca2ffdf	0.0198974
150	0xbe7fbbbf	-0.24973963
151	0x3e42429f	0.18970726
152	0xbd496dc5	-0.04917695
153	0xbe93cc50	-0.28866816
154	0xbe3a859e	-0.18215033
155	0x3e5c36cc	0.21505278
156	0xbe1051dc	-0.14093727
157	0xbc90ecc8	-0.017691031
158	0x3d6bc35f	0.057559367
159	0x3cdacb11	0.026708158
160	0x3e38725b	0.18012373
161	0xbe492f79	-0.19647016
162	0xbe4a380a	-0.1974794
163	0xbe0755f2	-0.1321638
164	0xbeba4dc1	-0.36387447
165	0x3d21c91d	0.039498437
166	0x3e101bee	0.14073154
167	0x3e5c97cd	0.21542282
168	0x3e2ae153	0.16687517
169	0xbdbefeff	-0.093259804
170	0xbe5d91d1	-0.21637656
171	0x3e1b072d	0.15139456
172	0x3e0cecf8	0.13762271
173	0xbe7c16ac	-0.24618024
174	0xbe068818	-0.13137853
175	0x3c947077	0.018120034
176	0xbcb7e77a	-0.022449244
177	0xbe3a44ce	-0.1819031
178	0xbe838d1d	-0.25693598
179	0xbef60ea6	-0.4805805
180	0x3e526a85	0.20548446
181	0xbe9c4524	-0.305215
182	0xbe494b58	-0.19657648
183	0xbc5c4d0d	-0.013446105
184	0x3d8b0878	0.06788725
185	0xbd805a04	-0.06267169
186	0x3e01e0ae	0.12683365
187	0x3d7d40e9	0.06182948
188	0xbe8f62e4	-0.28005135
189	0xbebe10f2	-0.37122303
190	0xbe6ea654	-0.23305637
191	0xbd2f0903	-0.042733204
192	0xbe98106b	-0.29700026
193	0x3df5c460	0.12000346
194	0x3e2fa779	0.1715373
195	0xbcfc4eaa	-0.030799229
196	0xbeb85195	-0.35999742
197	0x3dc50a46	0.096211
198	0xbd9625e7	-0.07331448
199	0xbdf7149f	-0.1206448
200	0xbe7aed27	-0.24504529
201	0xbe15eb47	-0.14640532
202	0xbe9a2d04	-0.3011247
203	0x3db47d85	0.088130035
204	0xbe920fff	-0.2852783
205	0xbe46ad62	-0.19402078
206	0xbd8b9268	-0.06815034
207	0xbe4e0cb5	-0.20122035
208	0xbd6161aa	-0.05502478
209	0xbdbfbeb5	-0.09362546
210	0x3de2c9d1	0.1107365
211	0x3e814afa	0.25252515
212	0xbdc60a66	-0.09669952
213	0x3da4074e	0.08009206
214	0xbde358cb	-0.1110092
215	0xbe80ae32	-0.251329
216	0xbeaf3ff3	-0.34228477
217	0x3d43fcc7	0.04784849
218	0xbe8933fa	-0.26797467
219	0xbe4fa4b1	-0.20277669
220	0xbdc8f51f	-0.09812378
221	0x3dcd8db6	0.10036795
222	0x3e01d667	0.12679444
223	0xbe1908fb	-0.14944832
224	0xbe5609fa	-0.20902243
225	0xbe45804f	-0.19287227
226	0x3e1e5adb	0.15464346
227	0xbe8693b5	-0.26284567
228	0xbea53629	-0.32267883
229	0xbe2035bf	-0.15645503
230	0x3d7afc2d	0.06127565
231	0xbe83040c	-0.25589025
232	0xbca78757	-0.020450277
233	0x3e2f3eb5	0.17113765
234	0x3dd0c4d1	0.1019379
235	0x3dbf28aa	0.09333928
236	0xbe3523b4	-0.17689401
237	0xbe90d06f	-0.28284022
238	0x3d408866	0.04700508
239	0xbe3d9390	-0.18513322
240	0x3d3dc1f1	0.046327535
241	0xbd3d092b	-0.04615132
242	0xbe722aee	-0.23649189
243	0xbc727163	-0.014797541
244	0xbea968b4	-0.33087695
245	0xbe6843ba	-0.22682086
246	0x3e434b63	0.19071727
247	0xbc53adbf	-0.012919842
248	0x3e23f64e	0.16011927
249	0xbe9ca306	-0.30593127
250	0xbeaa1471	-0.3321872
251	0xbe8583e4	-0.26077187
252	0xbe524d0f	-0.20537208
253	0xbd85c27b	-0.06531235
254	0x3db37181	0.087618835
255	0x3ca56e7c	0.020194285

fc2.bias f4 [10]
0	0x3c404c35	0.011736919
1	0xbdeb4bd1	-0.1148907
2	0xbdb9519c	-0.09048769
3	0x3c206b34	0.009791184
4	0xbd15e0b1	-0.036591236
5	0x3d867514	0.065653
6	0xbd0620f0	-0.032746255
7	0xbde8a460	-0.11359477
8	0xbe15328c	-0.14570063
9	0xbdad32cb	-0.084569536

batchnorm1.weight f4 [8]
0	0x3f209c98	0.62738943
1	0x3f1d0974	0.6134255
2	0x3f1e60e1	0.61866575
3	0x3f3527ef	0.7076406
4	0x3f1e6e61	0.61887175
5	0x3f0076ee	0.5018147
6	0x3f4737a3	0.7781927
7	0x3f39636e	0.7241734

batchnorm1.bias f4 [8]
0	0x3e17c2ff	0.14820479
1	0x3db45b31	0.08806456
2	0x3d91441c	0.07093069
3	0x3dffd7a6	0.124923036
4	0x3e19d698	0.15023267
5	0x3e707201	0.23480989
6	0x3e5dc944	0.21658808
7	0x3def46e8	0.11683446

batchnorm1.running_mean f4 [8]
0	0x3e9c13c9	0.30483845
1	0x3db42470	0.087960124
2	0x3e04554b	0.12923162
3	0x3d895b4c	0.067068666
4	0x3ea88dc0	0.32920647
5	0x3e94834e	0.29006428
6	0x3e885261	0.2662535
7	0x3e96a162	0.2942

batchnorm1.running_var f4 [8]
0	0x3f7a7dba	0.97848094
1	0x3e1ae3a4	0.151259
2	0x3e66e244	0.22547251
3	0x3d86cd1c	0.0658209
4	0x3f9f7274	1.2456803
5	0x3e00e1d6	0.1258615
6	0x3f53504d	0.82544404
7	0x3f8ea788	1.1144876

batchnorm2.weight f4 [16]
0	0x3f9d1b91	1.2274038
1	0x3f584e53	0.84494513
2	0x3f96553d	1.1744763
3	0x3f88fde7	1.0702485
4	0x3eddcab5	0.43318716
5	0x3ef05895	0.46942583
6	0x3f6a76f3	0.9158775
7	0x3f6d30f1	0.92652804
8	0x3f113ea1	0.5673619
9	0x3f5d8ead	0.8654583
10	0x3ed9df78	0.42553306
11	0x3fbad684	1.4596715
12	0x3ef5b0cc	0.47986448
13	0x3f3b8874	0.73255086
14	0x3fa461ac	1.2842307
15	0x3f8e4fe5	1.1118132

batchnorm2.bias f4 [16]
0	0x3d59653c	0.05307506
1	0x3c8f016c	0.017456733
2	0x3df0fc9b	0.11766931
3	0x3e029afc	0.12754434
4	0x3d0420fd	0.032258023
5	0x3da294bb	0.07938524
6	0x3dbe8661	0.093029745
7	0x3e2081e0	0.15674543
8	0x3dcd02d1	0.10010303
9	0x3e003c0b	0.12522905
10	0x3d9cf17c	0.07663247
11	0x3dfc4fc9	0.12319905
12	0x3d286ae5	0.041117568
13	0x3e293784	0.16525084
14	0x3df9ab8e	0.121909246
15	0x3e355c9d	0.1771111

batchnorm2.running_mean f4 [16]
0	0x3ee3d87f	0.4450111
1	0x3ded0ec9	0.11575086
2	0x3e26a227	0.16272794
3	0x3eb3242d	0.34988537
4	0x3cd9494e	0.026524212
5	0x3e8bdf74	0.2731892
6	0x3e5febac	0.21867245
7	0x3e92e19f	0.2868776
8	0x3eeee146	0.46656245
9	0x3e664193	0.22485952
10	0x3ee5cb94	0.4488188
11	0x3e8ee9b7	0.27912685
12	0x3d878eae	0.06619011
13	0x3f0a3737	0.539905
14	0x3ec396b8	0.38200927
15	0x3ea14e3f	0.3150501

batchnorm2.running_var f4 [16]
0	0x3e20dac9	0.1570846
1	0x3db3cf7f	0.08779811
2	0x3e4b13d2	0.1983178
3	0x3e5ae4a8	0.21376288
4	0x3c842468	0.016130641
5	0x3eacef72	0.33776432
6	0x3e88c187	0.2671015
7	0x3f0fd429	0.56183106
8	0x3f5a0269	0.8515993
9	0x3e891e1e	0.2678079
10	0x3f3e7cf6	0.74409425
11	0x3e27256a	0.16322866
12	0x3d17c54b	0.037053388
13	0x3f79f19b	0.97634286
14	0x3e5b9919	0.21445121
15	0x3ed28191	0.41114476
