mnist_model.pt (torch_old, 58119 bytes, 8 tensors)

conv1.weight f4 [8, 1, 3, 3]
000000 5d 3f fe 3d 5a aa b4 bc 82 d6 2e 3d 96 7d 37 3e
       0.12414429 -0.022053886 0.04268504 0.17919001
000010 87 3c 3e bd ab 12 9f 3e 8d 83 4a 3c 4f 9c ca 3d
       -0.046444442 0.3106893 0.012360466 0.09893095
000020 88 e7 fa 3d 89 d1 ab bd 21 ce ff 3d c6 56 8e bc
       0.12251192 -0.08389575 0.12490488 -0.017375361
000030 b2 95 36 3e 8f 28 db 3d 8c 72 e1 3d 30 8f 83 3d
       0.17830542 0.10701095 0.11008176 0.06423795
000040 90 81 39 3d 50 02 28 3e 25 57 85 3e f2 cb 28 3e
       0.045289576 0.16407132 0.26043049 0.16484049
000050 af b2 2f bd 2a f3 8e bd 71 90 0a 3d 49 7c 30 3d
       -0.042895015 -0.069799736 0.033829156 0.043087278
000060 b9 1c b7 3c ff 13 e0 3d 7f e8 a8 3e 4e a2 17 3e
       0.022352563 0.10941314 0.3298988 0.14808008
000070 a4 68 03 be e8 c6 0d 3e 99 34 97 3d 15 22 87 3e
       -0.12832886 0.13845408 0.07383079 0.2639319
000080 c8 0f 92 3e 4c 94 e2 be 13 20 fc be 53 4f 87 be
       0.28527665 -0.44253767 -0.4924322 -0.26427707
000090 aa 81 5d 3e 48 72 37 bd d0 5d 1d 3e be 0b 41 bd
       0.21631494 -0.04478672 0.15367818 -0.04713034
0000a0 0b f0 9c 3e c8 b2 3e 3e e5 a6 2a 3e ee 57 bd bd
       0.30651888 0.18622887 0.16665228 -0.09245287
0000b0 a8 c8 fb 3c 21 19 b6 3c 89 f3 cc bd 16 2a 57 bd
       0.030735329 0.02222878 -0.10007388 -0.05253037
0000c0 08 5a 11 be fe 44 35 be bf 94 fc be cb 69 c2 bd
       -0.141945 -0.177021 -0.49332234 -0.09492835
0000d0 0f 54 57 3d c5 9b 3e be 71 1c 8d 3e 52 29 88 3e
       0.0525704 -0.18614109 0.27560762 0.26594025
0000e0 18 47 fe 3c 7a 7f 15 be d8 8a 8b 3d 92 ea 0b 3e
       0.03103976 -0.1459941 0.06813592 0.136637
0000f0 7b d4 b1 bd f0 df 1d 3e 20 d0 59 3e da 66 da 3d
       -0.086831056 0.15417457 0.212708 0.10664149
000100 84 ca 69 bd c6 38 78 3e 51 f5 2c be fa 35 06 3e
       -0.0570779 0.24240407 -0.16890456 0.13106528
000110 bd 9f 4f be 9c b5 f7 be c0 98 4e be 86 ce 92 be
       -0.20275779 -0.48380744 -0.20175457 -0.2867319

conv1.bias f4 [8]
000000 fd 35 b6 3e 25 bf 97 3e 7b bd b8 3e 39 60 29 be
       0.35588065 0.2963802 0.36082062 -0.16540612
000010 eb fe b3 3d 1a e4 25 3f 3b 2c a6 bc ec 53 a7 3e
       0.08788856 0.6480118 -0.020284763 0.32681215

conv2.weight f4 [8, 8, 3, 3]
000000 d4 37 98 3d 21 7f a9 3c a5 2c ea 3d 21 8a 86 3d
       0.07432523 0.020690503 0.114342965 0.06569315
000010 6c a5 09 3d 9e 5d 8d 3d d4 a2 3b be 3a 2c 32 be
       0.033605024 0.06902622 -0.18323833 -0.17399684
000020 13 19 bb bd 34 95 ed 3d 3c 42 89 3d a5 a9 fa 3d
       -0.09135642 0.11600724 0.06702086 0.122393884
000030 e9 f3 01 bb 13 00 0c bd 4f 8e b1 3d c2 31 42 be
       -0.001982922 -0.03417976 0.08669721 -0.18964294
000040 9e 4d 32 be 3a 7b b5 bd 4c 43 50 bc 38 93 75 3c
       -0.17412421 -0.08861394 -0.012711357 0.014988713
000050 5c 73 da 3d d7 36 1e 3e 61 fa 24 3e 68 b0 d6 3d
       0.10666534 0.15450607 0.16111137 0.104828656
000060 0d 1e 1f be 8b 01 b3 be 2b 42 d6 bd f8 67 ed bd
       -0.15538807 -0.34962115 -0.10461839 -0.11592096
000070 a3 c2 65 3e ec 8b 17 3d c6 0c e4 3d 7a dc f7 3d
       0.2243753 0.036998674 0.11135249 0.121025994
000080 83 0d cb 3d 6d bc 76 3c 3c dd a4 bc 91 3d 21 3e
       0.099146865 0.015059573 -0.020125024 0.15746142
000090 4e ed ae 3d e7 39 53 3d 73 86 ba bc 95 fd cc bc
       0.08541356 0.05156889 -0.022769189 -0.025023261
0000a0 82 20 05 3d 77 b3 69 3e e2 54 c2 bd 1c dd 35 be
       0.032501705 0.22822367 -0.09488846 -0.17760128
0000b0 cb 14 fd bd 67 7b 24 be 05 6a 28 be 75 eb 19 be
       -0.123574816 -0.160627 -0.16446693 -0.15031226
0000c0 e5 c0 01 3e 99 3a b6 3d 10 e2 42 be 3b b8 cc 3d
       0.1267124 0.08897895 -0.19031549 0.09996077
0000d0 16 f2 43 3e 92 9e 6e 3e f0 35 1b 3c 60 0a 22 3c
       0.19135317 0.23302677 0.009473309 0.009890169
0000e0 70 39 9f 3d 5f c7 fd 3d 09 47 99 3d 25 fc e1 3d
       0.07774627 0.12391543 0.07484252 0.11034421
0000f0 4a 0d 46 be 70 02 1b be ac 1e f9 bd 47 37 25 be
       -0.19341007 -0.15137649 -0.12164053 -0.16134368
000100 72 e6 49 bc 69 3d 33 be b3 fb d3 3d 50 4e d7 3d
       -0.012323009 -0.17503895 0.10350742 0.10512984
000110 49 36 4e 3c c1 1a 3d 3d 81 2d 02 3d e8 f9 12 3e
       0.012586185 0.046168093 0.031781677 0.14353144
000120 f4 bc 5e be 95 b0 82 bd 4c 36 7d 3d d4 c0 2c be
       -0.21751767 -0.063813366 0.06181936 -0.16870433
000130 8e 0b af 3d c1 20 ad 3d 91 28 7d 3d 4f 7c d1 3d
       0.08547126 0.08453513 0.061806265 0.10228788
000140 d7 30 e3 3b f2 65 65 be 76 55 28 be ce 46 0e 3e
       0.0069333124 -0.2240217 -0.16438851 0.13894197
000150 4c 89 e6 bc b0 96 68 3d 67 87 31 3d 88 84 38 3d
       -0.02814164 0.05678433 0.04334202 0.045048267
000160 01 f5 30 3c 30 85 ca 3d 98 77 82 be ed e7 b0 bd
       0.010800601 0.09888685 -0.25481868 -0.08637986
000170 0f 72 cd 3c eb 09 ec bd b6 91 cf 3d 27 60 c2 3d
       0.025078801 -0.11525329 0.10135214 0.09490996
000180 6b 7d 61 3d a3 a3 02 3e 79 26 e3 bb f5 9e 1e 3d
       0.05505125 0.12757735 -0.0069320765 0.038725812
000190 47 ce dd bd 58 66 8f be 3f 31 db bd df d6 e2 3d
       -0.1083036 -0.2800777 -0.10702752 0.1107614
0001a0 fd 66 72 be 38 59 ec 3d 65 fc 4f bc fb d4 17 be
       -0.236721 0.115404546 -0.012694453 -0.1482734
0001b0 e8 f3 36 be 34 2d 36 be 7f c0 93 3d 69 5d 42 bd
       -0.1786648 -0.17790681 0.0721445 -0.047452364
0001c0 8e 2e 5e bd d3 16 04 3e b5 6b 57 3d 52 bc f2 3b
       -0.054243617 0.12899332 0.05259295 0.0074077034
0001d0 f5 30 dc 3d fb 4a 2e 3e c7 b0 93 3e ad c1 c0 bd
       0.10751525 0.1702079 0.28845808 -0.09411941
0001e0 22 02 13 3e 83 95 be bd a9 bb 99 bd 0e a0 7a 3c
       0.14356282 -0.09305861 -0.075064965 0.015296949
0001f0 9d c8 4b bd b2 56 95 be 6f 22 05 be c4 a1 02 be
       -0.049751867 -0.29167706 -0.13001417 -0.12757021
000200 c1 8a fe 3b 00 ae 05 be 6a df 88 bb d7 52 9b 3d
       0.0077680056 -0.13054657 -0.0041770237 0.0758416
000210 3f 7b 48 3b 24 4f 0b 3e fe ca 9a 3d 51 e9 e0 3d
       0.0030591039 0.13604409 0.07558249 0.109820016
000220 95 a0 a4 3d 2a d3 df bd 22 f9 42 3d 66 95 da 3d
       0.08038441 -0.10928948 0.047600873 0.10673027
000230 39 28 83 be 5a 63 69 3e 5c bb 1f be 3e 54 ca bd
       -0.25616625 0.22791806 -0.15598816 -0.09879349
000240 43 8f f8 3d 97 81 ff 3b 92 bf 4f be 13 2b 35 3e
       0.121367 0.0077974307 -0.20287922 0.17692213
000250 51 f9 20 be 8b 46 05 be 95 c7 24 3d 5f 23 a8 be
       -0.15720107 -0.13015191 0.0402294 -0.32839486
000260 a6 eb 69 3e d4 26 37 3e 2c 89 01 bc bc 52 95 be
       0.22843799 0.17885906 -0.0079062395 -0.29164684
000270 e6 ca 38 3e 55 45 4c be 1c 57 97 bd 38 5b 26 bc
       0.1804615 -0.19948323 -0.07389662 -0.010153584
000280 41 0d 95 be 09 3d 7d 3e 06 39 27 3e 60 06 83 3d
       -0.29111674 0.24730314 0.16330346 0.063977
000290 7c 99 47 be ac 6f 0f 3e c6 78 8e be 3a 0d ff bc
       -0.19492143 0.14007443 -0.27826518 -0.031134237
0002a0 b6 7b 1f bc f4 6a 36 be ba 31 41 3e f2 da 72 be
       -0.009734085 -0.17814237 0.18866625 -0.23716334
0002b0 6a aa 69 3d 16 b8 97 3c c9 ba f1 bd 6c 95 b7 3d
       0.057047285 0.018520396 -0.118032046 0.08964047
0002c0 8f 6c 9c bd 50 6c 0a 3d d6 55 92 bd 81 c0 e8 bd
       -0.076378934 0.0337947 -0.07145278 -0.11364842
0002d0 d1 5b 68 3d 4d 59 a0 3d fb 6f c2 be 8b f3 34 3e
       0.056728188 0.07829533 -0.3797606 0.1767103
0002e0 22 3b 6c bd f7 27 9a be a1 a5 1d 3d a6 6d a1 be
       -0.05767358 -0.30108616 0.038488034 -0.31528968
0002f0 1e 33 4b 3e 4d 6c 88 be 7a 72 b3 3d 62 a6 e6 3d
       0.19843718 -0.26645127 0.08762069 0.11262204
000300 f4 1b 1c be 55 2e 7a 3e bc 1f 8c bc a3 cd 10 3c
       -0.15245038 0.24431737 -0.017104976 0.00883809
000310 8a 00 00 3e fd 46 09 be 62 e7 15 3e 11 66 c1 3d
       0.12500206 -0.13405986 0.14639047 0.09443296
000320 9e 4e 7e be 39 48 67 3d ba f7 e8 bd 85 1d 24 be
       -0.24834678 0.05646536 -0.11375375 -0.16026886
000330 4a e1 76 ba 21 9a 47 be b9 50 32 3e 17 00 79 be
       -0.0009417726 -0.1949239 0.17413606 -0.2431644
000340 e9 96 78 3d 25 0a a2 3d 46 3e 04 be cb e3 af 3d
       0.060690794 0.07912091 -0.1291438 0.0858837
000350 a0 3e cd 3d d8 8c fd 3c 20 dc 95 3d 71 1b 78 bd
       0.100217104 0.030950949 0.07317376 -0.060573045
000360 fe 5a 2a 3d db ad 3a 3d 12 f9 9f be 8b bf af 3c
       0.041590683 0.045575958 -0.31244713 0.02145364
000370 63 a4 7b 3e dc ac 99 3d 84 dd 25 be 92 66 04 3d
       0.24574427 0.075036734 -0.16197783 0.03232438
000380 47 71 83 3d 73 ba 65 3d f3 f9 63 bc f7 a4 8b be
       0.0641809 0.056086015 -0.013914573 -0.27274296
000390 cf 8d 61 3c 48 39 a2 3e 89 37 48 3d b3 4a 22 be
       0.01376672 0.31684327 0.048881087 -0.15848808
0003a0 48 ac 1a bd 64 dd ab 3d e7 b2 42 3d 6e ee a9 bd
       -0.037761956 0.08391836 0.047533896 -0.0829743
0003b0 19 2e 95 be 41 b2 ce 3d 9a ef 97 3e fc 29 1a 3e
       -0.29136732 0.10092593 0.2967499 0.15055078
0003c0 85 cd 59 be d3 a5 6c bc 04 cd 9d 3d 56 50 d0 3d
       -0.21269806 -0.014443832 0.07705119 0.10171573
0003d0 29 cb 4a be d4 97 80 be 3e 7f c2 3d 1d c4 13 3e
       -0.19804062 -0.25115836 0.09496926 0.1443028
0003e0 e7 4e b4 bd 22 f1 42 3d bd bd 06 3d d2 76 82 3d
       -0.08804112 0.047593243 0.032895792 0.063703194
0003f0 d6 6a 29 3d b1 3c 6d bd 19 f1 29 be a1 b1 64 3d
       0.041361652 -0.057919208 -0.16595878 0.055833463

conv2.bias f4 [8]
000000 7d 9d 21 3b ed 01 16 3d 1b 1e 8a 3c 8e 84 d4 bd
       0.002466052 0.03662293 0.016860059 -0.10376845
000010 0e 8c a0 bc 6b 02 d8 bb 50 f2 0b 3f 4f 20 8b 3c
       -0.019598033 -0.006592085 0.54666615 0.01698318

fc1.weight f4 [64, 200]
000000 b5 3e 01 3c b1 0b 28 bd 1d 32 c5 3d cf dd b8 3b
       0.007888486 -0.041026775 0.09628699 0.005641676
000010 02 f2 54 bd ca 4b cf bd e8 8f 9b 3b 58 52 61 3c
       -0.05198861 -0.101218775 0.0047473796 0.013752542
000020 b4 29 95 3d 15 88 2c 3e ba 2a f2 bc 15 8e 9b 3d
       0.07283345 0.16848786 -0.02956139 0.07595459
000030 4a 2d 4b 3d f6 51 4c 3a d1 fc af 3c f0 11 98 bd
       0.049603738 0.00077941956 0.021482857 -0.07425296
000040 81 b4 92 bc fc 02 8c 3d 73 be 27 bd c4 de 55 bd
       -0.017908337 0.06836507 -0.04095311 -0.0522144
000050 3f 9d c0 3d ff e4 e5 bc e0 bc 19 bd 27 b4 84 bd
       0.09404992 -0.028063295 -0.03753364 -0.06479674
000060 45 e0 a7 3d 0c 48 82 3c 56 ce 72 3d bf 40 55 bc
       0.08197073 0.015903495 0.05927881 -0.013015925
000070 f0 2f 24 bd 63 6e 26 3c 1b 13 8d 3a be 86 ab bd
       -0.04008478 0.010158154 0.001076314 -0.083753094
000080 ef 59 2c bd 9a 0d ef bd ef ca e2 3c 54 82 a0 3d
       -0.042077955 -0.11672516 0.027684657 0.07837358
000090 59 c5 ca bd 88 57 2d be 3b 8f c5 bd 11 b4 bd 3d
       -0.09900922 -0.16927922 -0.0964646 0.092628606
0000a0 67 0b 17 b8 ca 50 8b bd 6b f1 e1 3c c8 72 98 3c
       -3.6011825e-05 -0.06802519 0.027580937 0.01860942
0000b0 97 16 13 3e 46 43 8d bc 90 e2 41 3d 88 cc b5 3d
       0.14364086 -0.017243993 0.047335207 0.08876902
0000c0 90 c1 c2 3d d3 40 d8 3c 73 9b fe bc dd 3f 2d 3d
       0.09509575 0.026398098 -0.031079983 0.042297233
0000d0 a3 13 d3 bc 7f a8 ca 3d b2 d2 59 3a 39 b4 5e bd
       -0.0257662 0.09895419 0.0008309289 -0.054371092
0000e0 f1 ea d0 3d ed 6a e9 3d 8a b6 c6 3d 2b 6d 73 bd
       0.102010615 0.113973476 0.09702785 -0.059430283
0000f0 57 60 1f bd c2 c9 ea 3d 80 ec b6 3d f4 b5 96 bc
       -0.038910236 0.114642635 0.089318275 -0.018397309
000100 e9 d5 2e be 68 8d c7 bc c1 c4 01 3e 65 5c c2 3d
       -0.17073788 -0.02435942 0.12672712 0.09490279
000110 21 7c 65 bd a4 5e 01 be 6c 30 35 3d a9 a9 c0 3d
       -0.05602658 -0.12633759 0.04423563 0.0940736
000120 a3 8f 89 3d 15 f7 4c bd ff 80 81 3d ae 04 e0 bc
       0.0671685 -0.050040323 0.06323432 -0.027345981
000130 42 d6 78 bd e3 c5 31 bd 8e e3 51 3b bf 0a 2b 3d
       -0.060751207 -0.04340161 0.0032026502 0.041758295
000140 7c 1c b0 bd 1e 4a 51 bd 54 a0 46 bd f2 f1 9d bc
       -0.08599183 -0.051096074 -0.048492745 -0.019280408
000150 e4 49 04 3d 35 fc 4f bd ce 14 9e bd 60 e3 de bc
       0.03229703 -0.050777633 -0.07718812 -0.02720803
000160 81 df 0a 3c aa 7d 1b bd 05 08 86 3b f0 72 2d bc
       0.008476139 -0.03796164 0.0040903115 -0.010586485
000170 80 e3 d6 bd 52 29 db bc 20 63 34 bd 2a 8c b8 3d
       -0.10492611 -0.026753101 -0.044039845 0.09011109
000180 12 89 7d 3d b1 2d c9 ba 8e 76 46 bd e0 55 14 be
       0.0618983 -0.00153487 -0.048452906 -0.14485884
000190 aa ef 49 bc dd a0 29 3c 09 4f 61 bd f2 54 b3 3c
       -0.012325207 0.010353294 -0.055007014 0.021891091
0001a0 ed de 09 3c e6 06 b8 3c 38 1d bd bd 97 49 5e bd
       0.008414966 0.022464227 -0.09234089 -0.0542694
0001b0 d9 d1 e8 bd 94 a5 9e 3c 47 d8 46 3d 7c 50 c1 bd
       -0.1136815 0.019366063 0.048546102 -0.09439179
0001c0 0f 43 55 bd 7b 70 73 bd f1 39 95 bd cd e2 a0 bc
       -0.052065905 -0.05943344 -0.07286442 -0.019639397
0001d0 75 63 aa bc 9a 3d 0e bd 67 e0 64 bd 1d ff 4a bd
       -0.020799378 -0.034726717 -0.05587807 -0.0495597
0001e0 a8 f5 c9 bc 5c 3e 4b 3d 60 ba 51 3c e3 69 8a bd
       -0.02465327 0.049620017 0.012800783 -0.067584775
0001f0 d0 53 4b bd 92 bc 0c bc 7f ef 7b bd 4e d2 bd 3d
       -0.049640477 -0.008589881 -0.0615077 0.09268628
000200 70 18 58 3d 96 71 07 bd 0e 0e a8 bb d9 ec e0 bc
       0.05275768 -0.03306731 -0.0051286286 -0.027456688
000210 16 8b 29 3d 41 8e 40 3b e3 58 99 bc e0 7c 1c bc
       0.04139241 0.0029381665 -0.018719142 -0.009551257
000220 f6 38 92 bc 4f 0f bf 3c b1 52 af bc 17 19 95 3d
       -0.017849427 0.02332273 -0.021401735 0.07280176
000230 1e e5 4e bc 86 f8 de bd 76 d1 58 be 09 ea 10 bd
       -0.012627868 -0.10887246 -0.21173653 -0.035379443
000240 c7 7a ae 3d cc d7 25 3d 4b 08 ac 3d 1e 95 39 bd
       0.08519512 0.040489003 0.08400019 -0.045308225
000250 3f 73 de 3d 71 15 b3 3d be fd 3c bc 9f f4 fb bc
       0.10861825 0.08744324 -0.011535106 -0.030756293
000260 8b 69 5f bd 94 53 91 bd b1 61 97 bc ed dc 05 bd
       -0.054544013 -0.070960194 -0.0184792 -0.032681394
000270 f2 bc 60 3d 99 1f bd 3d d0 23 af 3d de f3 2a 3e
       0.054867692 0.092345424 0.085517526 0.1669459
000280 9a 18 88 bd 9c 3a 39 3c 26 e9 b5 3d 21 0b c2 3d
       -0.066453174 0.0113054775 0.0888236 0.09474779
000290 88 1d f7 bc b5 65 4b bd 7c dd 06 3d 9c 9a 22 3e
       -0.030165449 -0.049657542 0.032926068 0.15879291
0002a0 4c 5a 12 3e fa b4 50 be 0c 43 68 3d 04 2c fb bd
       0.14292258 -0.20381537 0.056704566 -0.12264255
0002b0 fa ec 07 be 84 0f 27 be c9 5b bb 3c ff 56 a9 3d
       -0.13273993 -0.16314512 0.022870915 0.08268546
0002c0 25 16 6a 3d 89 08 8a bb de e4 ce bc 80 96 a8 3c
       0.057150025 -0.0042124433 -0.025255617 0.020579576
0002d0 0e c6 67 3d 4e 81 65 bc e8 f9 db bc 6e 41 79 3c
       0.056585364 -0.014007879 -0.026852563 0.015213354
0002e0 a5 15 50 3c 63 ff dd 3d 3c b6 7d bd 6f 18 a2 bd
       0.012700473 0.10839727 -0.06194137 -0.079148166
0002f0 62 9b f3 bd de 76 33 3d 80 3b 93 3c 2c 0b 23 3c
       -0.11894871 0.043814532 0.017972708 0.009951394
000300 45 fa 37 be f4 7e c7 bd 51 d9 ce 3c de 1f 60 bc
       -0.17966564 -0.09741011 0.025250109 -0.013679473
000310 bf b9 a2 3d 35 ee 5a 3d 0f 4b 78 3c 45 48 d3 3d
       0.079455845 0.05344983 0.015154614 0.10316519
000320 57 39 02 3d de b6 5f 3e 7c 9f e6 3d a1 d6 d5 bd
       0.031792965 0.21847102 0.11260888 -0.10441328
000330 58 d5 1f be 07 c0 5c 3e 27 8d df 3d f7 ed f1 3d
       -0.15608728 0.21557628 0.109155945 0.11812966
000340 a7 fe c3 bd 73 2e 11 3d 46 1e 77 bd 27 85 5e bc
       -0.095700555 0.035444688 -0.060331605 -0.013581551
000350 c2 15 aa bd 0b c1 8d bd 83 21 d9 bd 6e aa 58 be
       -0.08304931 -0.06921586 -0.10602095 -0.21158764
000360 e0 7a 68 3b 8d 6b d2 3d 91 48 b6 bc c2 82 bf 3d
       0.003547363 0.1027442 -0.0222514 0.09351112
000370 bb 64 03 3d 33 9d b6 bd 3a 07 00 3e e6 95 e0 3c
       0.032078486 -0.08916702 0.12502757 0.027415227
000380 3c 74 26 3e ad e5 98 bd 04 66 d7 3d 77 13 18 3d
       0.16255277 -0.07465682 0.10517505 0.037127938
000390 64 05 1c 3e 13 4d c1 3d 3b db 3e be 50 9e 63 be
       0.15236431 0.09438529 -0.18638317 -0.2222836
0003a0 f4 42 88 bd d2 54 53 3e ee b1 1b be 28 24 15 be
       -0.06653395 0.20637825 -0.15204594 -0.14564574
0003b0 d1 01 1e be fc 72 f5 3d ac 9b 38 3e 2e 80 a6 bd
       -0.1543038 0.11984822 0.18028134 -0.08129917
0003c0 c5 58 19 3e 03 3d 2c bd 63 27 56 bd bb 09 52 bd
       0.14975269 -0.042050373 -0.052283656 -0.05127881
0003d0 1a 2e f5 3d 92 1d ed 3d 4c d1 9b bc 88 51 ca 3d
       0.11971684 0.11577906 -0.019020699 0.09878832
0003e0 58 55 4f bd b6 dc 13 3d c1 b8 5d bc e8 29 b2 bd
       -0.0506185 0.03609916 -0.013532818 -0.08699399
0003f0 24 61 c0 bb 76 57 d1 3d de c8 67 3e e1 d2 c9 bc
       -0.005870955 0.1022176 0.22635219 -0.024636688

fc1.bias f4 [64]
000000 11 5a ac 3e d2 c2 a1 3e 1b 72 87 3e 62 60 b7 3e
       0.33662465 0.3159395 0.26454243 0.35815722
000010 e8 d9 ef 3e 16 51 42 3f f2 b5 00 3f 92 b8 2b 3f
       0.46845937 0.7590498 0.50277627 0.67078507
000020 8b 78 a5 3e 2f 1b d7 3e c8 2a f6 3e 91 1e 00 3f
       0.3231853 0.42012927 0.48079515 0.5004664
000030 93 f2 b1 3e a5 d2 11 3f 49 8b 72 3d 15 38 e2 3e
       0.34755382 0.56962043 0.059214864 0.44183412
000040 56 76 22 3f ab 6f ab 3e 5c 2c a2 3e 11 87 a6 3a
       0.63461816 0.33483633 0.3167447 0.0012705048
000050 45 e0 03 3f ce a1 fc 3e 91 d3 01 3f 5a 44 1e 3e
       0.51514083 0.49342197 0.5071345 0.15455762
000060 5c f4 65 3e 9c 65 df 3e bb be ec 3e a4 6a 07 3f
       0.22456497 0.4363221 0.46239266 0.52897096
000070 00 4a 83 3e aa be eb 3d 89 58 cb 3e cf 64 c1 3e
       0.25642395 0.11510976 0.39715984 0.37772223
000080 a6 33 10 3e e6 23 93 3e 44 2c 2a 3f 5b 1e d1 3e
       0.14082202 0.28738326 0.66473794 0.40843472
000090 15 5a b2 3e 47 6b 64 3e 69 96 bc 3e aa a5 af 3e
       0.34834352 0.22306548 0.36833504 0.3430608
0000a0 da 53 8f 3e f7 c0 79 3e be 4b 0e 3f 08 b8 d8 bd
       0.2799366 0.24390016 0.55584323 -0.10581976
0000b0 cb 12 e7 3e 45 11 a5 3e 5d 13 66 3e 8f 97 6f 3e
       0.45131525 0.32239738 0.22468324 0.23397659
0000c0 cd 5c c1 3e c9 ea 09 3f 9d e1 1d 3f 9c f8 26 3e
       0.37766114 0.5387388 0.61672384 0.16305774
0000d0 97 9f 24 3f 93 9e 9d 3e 34 de 05 3f 88 63 54 bc
       0.64306015 0.30785045 0.5229218 -0.012963183
0000e0 eb 43 0a 3f cb 34 c8 bd 02 f9 7b 3e 77 c4 93 3e
       0.54009885 -0.097756945 0.24606708 0.28860828
0000f0 ba 63 02 3f c5 dc cb 3e a6 e7 96 bc 1e 63 19 3e
       0.5093342 0.3981687 -0.018421005 0.14979216

fc2.weight f4 [10, 64]
000000 3d 7f aa 3e 2e ae b7 be b7 ff 83 3d a1 9c ec be
       0.333002 -0.35875076 0.06445258 -0.46213248
000010 41 a9 3c bf ca 66 d4 be a1 fc 3c be eb fe 2d be
       -0.7369576 -0.41484672 -0.18455745 -0.16991775
000020 01 9d 42 3e d4 c7 74 3c 55 f4 b6 3d ab f7 18 3e
       0.19005205 0.014940221 0.089333214 0.14938228
000030 74 0f 1c 3d dd 46 91 3b 55 9d b4 bc 48 a0 49 bc
       0.038100675 0.0044334964 -0.022047678 -0.01230628
000040 f6 f6 63 bd 4b 18 0a bf 81 d2 6a be 1b 87 6d be
       -0.055655442 -0.5394332 -0.22931863 -0.2319607
000050 3b 6f 97 3d 6e ce 4a bd ce 1c 77 be 46 3e af be
       0.073942624 -0.049513273 -0.24132082 -0.34227198
000060 8f 8f 81 bd 3c b2 7f 3c 25 eb bf 3d d4 1b e3 3d
       -0.0632621 0.015606459 0.09371022 0.11089292
000070 db 1e 65 be 91 f2 55 be c0 5e c2 3d 31 4f 0a bf
       -0.22375052 -0.20893313 0.094907284 -0.54027086
000080 ca 79 b8 be 02 9c 98 3d 27 44 38 bf 64 a5 d5 be
       -0.36030418 0.07451631 -0.7197899 -0.41727746
000090 71 94 7a be 8e d8 a4 3d 6c f0 06 3e f9 04 9a be
       -0.24470688 0.08049117 0.13177651 -0.3008192
0000a0 83 98 a0 be ea 4c 7e be ad f6 a6 3e 01 0d 9e 3d
       -0.31366357 -0.24834028 0.32610074 0.07717324
0000b0 4b 68 76 3d d1 bc 88 be e0 46 bf bc e0 b8 b2 be
       0.060158055 -0.26706555 -0.023349226 -0.34906673
0000c0 21 fc 46 be 2c ac 60 be 43 cd 36 3d 40 45 af be
       -0.19432117 -0.21940678 0.044629347 -0.3423252
0000d0 5b a2 2f bf 15 57 0c bf de 23 ca be 44 8d 50 be
       -0.6860711 -0.54820377 -0.3948049 -0.20366389
0000e0 d4 7c 19 bf cc f6 c2 be b9 61 85 be b7 b2 40 3d
       -0.599561 -0.38078916 -0.2605112 0.047045436
0000f0 ca 4b c1 be 6d 09 d0 3d 43 99 f7 3d 87 5e ad be
       -0.37753135 0.10158048 0.12089779 -0.3386118
000100 af 1e b3 be 9a 48 12 3e de b6 45 be 87 61 bd bc
       -0.34984347 0.14285508 -0.1930804 -0.023117794
000110 5e ee ac 3e 46 61 b7 bc 3f 24 f7 3d e0 8f 01 bf
       0.3377561 -0.02238525 0.1206746 -0.5061016
000120 e0 8e 1a 3f c2 e8 8e 3e 17 5e ad bd 35 b6 38 be
       0.6037426 0.27911955 -0.08465212 -0.18038256
000130 ee c0 e4 be 04 d8 27 be 13 83 ac bd c8 33 b8 3c
       -0.44678444 -0.16390997 -0.08423438 0.022485629
000140 b2 ed f3 3d 2c 83 13 bb 21 1c 33 3d 86 b3 91 bd
       0.11910571 -0.0022508604 0.043727998 -0.071143195
000150 c2 f6 8b be fb bc f6 bd 00 cd d4 be 5f 87 91 3e
       -0.273367 -0.12047764 -0.41562653 0.28423592
000160 60 a0 c8 bd ad 87 a6 bc ba bf 35 be 29 be 52 bf
       -0.09796214 -0.020328367 -0.17748919 -0.8232141
000170 29 c6 b2 be 9a e5 86 3d 99 22 41 bf 95 ac da 3e
       -0.3491681 0.06586762 -0.75443417 0.42709795
000180 45 a4 03 be d1 92 56 be cc d4 8a 3e 25 43 f4 be
       -0.12855633 -0.20954444 0.27115476 -0.47707477
000190 e3 af 04 bf 66 6c a1 bd 51 c6 07 bf 7c ff 96 3d
       -0.5183088 -0.078820035 -0.5303698 0.073729485
0001a0 d3 a4 12 3b 8b 31 3f be 5e f6 48 be c5 19 d1 be
       0.0022376075 -0.18671243 -0.19625232 -0.40839973
0001b0 28 0a 23 bf 4b 72 7a be 9f d0 a2 be ea 5e b5 3d
       -0.6368737 -0.24457662 -0.3179979 0.08855994
0001c0 a3 db 71 be af ec 1f 3b 89 e9 68 3d 7f e2 84 bd
       -0.23618941 0.002440255 0.05686334 -0.06488513
0001d0 3e 3a 74 3d de 7e bc 3e ed dd 79 3d 7c 20 85 be
       0.059625857 0.36815542 0.06100266 -0.26001346
0001e0 05 82 0f bf ec a1 87 be 74 22 05 be b2 b0 3f bb
       -0.5605777 -0.26490724 -0.13001424 -0.0029249606
0001f0 0c ba a1 3d 98 b5 dc be 32 06 3d be 20 74 5b be
       0.07896814 -0.43107295 -0.18459395 -0.21431017
000200 86 5e 8e be e6 9e 1c bd b2 f5 05 bf 1c fb cd bd
       -0.2780649 -0.038237475 -0.52328026 -0.10057661
000210 94 50 8a be 53 19 6c be c5 47 70 be 4b b5 ea 3d
       -0.270146 -0.23056535 -0.23464878 0.1146036
000220 00 51 94 be 40 b3 bf be 73 2b b9 3d 79 63 cb be
       -0.28968048 -0.37441444 0.090414904 -0.3972433
000230 a8 02 04 3e a2 23 66 be a9 e2 7e be ec 61 d7 3d
       0.12891638 -0.2247453 -0.24891151 0.10516724
000240 16 23 26 3c 79 1b e2 bd 32 cd 09 bf aa fa ab 3d
       0.010140201 -0.11040396 -0.5382873 0.0839742
000250 e9 70 80 bc ce 10 6d be 50 4f ea 3d a9 9a dd 3d
       -0.01567884 -0.23150942 0.11440909 0.10820515
000260 c7 89 61 bd 14 61 75 3e 3c da d1 be 8b 04 07 bf
       -0.055063035 0.23962814 -0.40986812 -0.5274131
000270 d4 d1 88 be b7 1e 6d be 2f 1a 7a bd 8f 9a 68 be
       -0.26722586 -0.23156248 -0.061060127 -0.2271521
000280 fb ed 07 bf 57 bf 36 3e ca 60 32 bf b6 b4 26 be
       -0.53097504 0.17846428 -0.6967894 -0.16279873
000290 3f 2e f4 bd 9f 3e b2 3d 61 d0 16 be 44 2f c1 be
       -0.11922883 0.0870335 -0.14727928 -0.37731373
0002a0 ad 41 d7 bd 1e a1 1d 3e cc 2b cf 3d 49 7c a8 bd
       -0.105105735 0.15393493 0.101157755 -0.082268305
0002b0 c4 6a cc 3d d4 1c 34 be 7d 0b cd 3c c3 27 65 bd
       0.099813014 -0.17589122 0.025029892 -0.055946123
0002c0 07 a4 9c 3d 4d c1 72 3e ad 68 08 bf 98 c0 e5 be
       0.07648473 0.23706551 -0.5328472 -0.448735
0002d0 72 f4 c2 be 6c e2 4c be ab 45 08 3e b9 6e a5 bb
       -0.38077122 -0.20008248 0.13307826 -0.0050485996
0002e0 0e 6d 86 be 08 06 b9 3d c5 b1 19 3c a4 72 1a 3d
       -0.26255077 0.090343535 0.009380762 0.037706986
0002f0 9c dd 46 3e 24 8c 31 be b2 de 16 bd 85 c5 db 3c
       0.19420475 -0.17338616 -0.036833473 0.026827583
000300 8a 1b b8 3c 50 35 48 bd 43 c1 25 bd 17 43 8a 3d
       0.02247407 -0.048878968 -0.04046751 0.067510776
000310 d1 3d d3 be 5e d3 15 bf c0 c9 d6 be 3e 84 46 be
       -0.412581 -0.58525646 -0.41950798 -0.19386384
000320 85 c2 dc be 11 43 00 bf 53 89 bb 3d c9 bd b9 be
       -0.43117157 -0.50102335 0.09157052 -0.36277607
000330 b4 f7 3c 3d fa 7c 14 3e 40 3d b3 be 07 18 04 3e
       0.046134666 0.145008 -0.35007668 0.1289979
000340 28 25 b3 be 78 46 01 bd af b4 e5 bc 69 9d 4e 3e
       -0.34989285 -0.031561345 -0.028040258 0.20177235
000350 de 9e b0 be 6c fe fa be 90 bc 6a be 5a 52 e1 bd
       -0.34496206 -0.49022233 -0.22923493 -0.110020354
000360 7f 9b aa bd 54 17 52 be a2 82 21 be f0 d8 34 bc
       -0.0833044 -0.20516711 -0.15772489 -0.01103805
000370 9d 5d c2 bd 46 76 8f bc 15 93 d0 be 9f 08 ba be
       -0.094905116 -0.017512452 -0.40737215 -0.36334702
000380 ce a3 ca be 39 de 6f be ea 13 8b bd 91 2f 17 be
       -0.39578098 -0.23424615 -0.06790908 -0.14764239
000390 d4 ff ca be d9 b4 00 be 7b 01 43 be ee 17 53 3e
       -0.39648306 -0.12568988 -0.19043534 0.20614597
0003a0 89 c1 d7 3d 97 f3 bb 3b 35 fe 96 be c5 c8 b0 3b
       0.10534961 0.0057358253 -0.2949082 0.0053950273
0003b0 a3 5f fe bd 7a e4 80 3e ee 90 fe 3d 9a ec df 3c
       -0.12420585 0.25174314 0.12429987 0.0273345
0003c0 35 26 85 bd 64 a7 69 be 82 f3 eb bc d6 65 12 3d
       -0.06501428 -0.2281776 -0.028802637 0.03574165
0003d0 bd fc 9d be 5b 47 11 bf 82 8f cb be 17 10 0d 3d
       -0.30856887 -0.56749505 -0.39757925 0.034439173
0003e0 a8 67 6e be 35 a0 01 3d c1 2b 9e bd 7c 85 b3 bc
       -0.23281729 0.031646926 -0.07723189 -0.021914236
0003f0 a9 0a 7e be 47 61 88 be 39 da 95 be bd 54 7a be
       -0.24808754 -0.26636717 -0.29268053 -0.24446388

fc2.bias f4 [10]
000000 88 61 02 3e 4d 72 21 bd 1b e3 a0 be 89 27 e9 3d
       0.12732518 -0.039415646 -0.31423268 0.11384494
000010 d0 51 a6 3b 05 f3 8f be 05 47 03 bd b1 0a f9 bd
       0.005075671 -0.28115097 -0.03205015 -0.12160242
000020 19 0d 5d bc 51 9a 9b bc
       -0.013491892 -0.018994482
