mnist_model2.pt (torch_old, 604254 bytes, 16 tensors)

conv1.weight f4 [8, 1, 2, 2]
0.45567623 -0.05468312 0.15227057 0.22076146 -0.38324594 0.29277492 -0.028831758 0.41478065
0.10693771 0.006433418 0.3301316 0.11214349 0.31419665 -0.1799434 0.016458528 -0.0029205342
0.045398857 -0.090221375 0.6663376 0.1779843 0.016727587 -0.15150298 -0.25964132 -0.36746764
-0.11088365 0.057400603 0.3243387 0.4441821 -0.34703913 0.36042666 0.14077222 0.6767868
00000000: 654e e93e 68fb 5fbd d1ec 1b3e 4b0f 623e
00000010: d038 c4be 98e6 953e 9430 ecbc 215e d43e
00000020: 2802 db3d 6ccf d23b 0207 a93e 7cab e53d
00000030: 62de a03e 1543 38be 09d4 863c 6f66 3fbb
00000040: 27f4 393d fcc5 b8bd 1a95 2a3f 8441 363e
00000050: 4b08 893c 9923 1bbe b5ef 84be b824 bcbe
00000060: f816 e3bd e51c 6b3d b90f a63e d66b e33e
00000070: 1daf b1be d889 b83e 9826 103e e641 2d3f

conv1.bias f4 [8]
0.101425685 -0.358327 -0.29244825 -0.008234932 0.19069949 0.061236173 0.043080807 -0.23977847
00000000: 45b8 cf3d a376 b7be c7bb 95be cfeb 06bc
00000010: ba46 433e c8d2 7a3d 8075 303d 7d88 75be

conv2.weight f4 [16, 8, 4, 4]
0.1294549 -0.12182521 -0.11443642 -0.12618893 0.03862632 -0.019936256 -0.15021782 0.1010731
0.03753565 -0.15795064 -0.16517492 0.10643733 -0.06058969 -0.26994488 -0.043355826 0.11447002
-0.051894218 -0.23071349 -0.059925977 -0.0056323493 -0.18759505 -0.13112111 -0.008444377 0.03848737
-0.20946261 -0.13615297 0.047358207 0.009851171 -0.24227189 -0.04171963 0.01858086 -0.057214048
0.049184132 -0.045133434 -0.1529532 -0.08343668 0.09223286 -0.09224319 -0.31034243 0.12006403
0.011525426 -0.21055363 -0.200053 0.093616046 -0.06951624 -0.21096426 -0.15253507 0.074441075
0.06661832 0.0021326554 0.004403904 -0.17895764 0.029105224 0.008889442 -0.094039716 -0.11927984
-0.0035149334 -0.0051762247 -0.25427413 -0.012956206 -0.031747 -0.088029996 -0.24992123 0.08561855
0.053960096 -0.08402564 -0.124902554 -0.09197436 0.08866465 -0.14700678 -0.15220122 0.11702939
0.03725784 -0.27728117 -0.030050527 0.1621838 -0.06408692 -0.12404857 -0.08027485 -0.001374655
-0.15978743 0.05291877 0.13403773 -0.0012613394 -0.039453402 0.054408226 -0.019684756 -0.04426106
-0.01743659 0.11170589 -0.10182936 -0.032888424 0.05382028 0.056248415 -0.03003544 -0.010627663
0.12763423 -0.13187149 -0.19199082 -0.06788768 0.08485477 -0.24272458 -0.09753103 0.14798008
0.03403598 -0.2006547 0.023784677 0.06628639 -0.11016566 -0.06555542 -0.11857985 0.034557573
0.05753379 -0.23794128 -0.11211767 -0.032437503 -0.1118381 -0.19490547 0.11773889 -0.011573819
-0.21783544 -0.07416935 0.071081825 0.025532879 -0.21808532 -0.004606701 -0.026432263 0.003084295
-0.19872254 -0.108789966 -0.02514269 0.045684885 -0.07591424 -0.059747826 0.040920347 0.112380855
0.00451593 -0.08310529 -0.13712963 0.10131083 0.025176223 -0.031594317 -0.20755371 -0.08898465
-0.008502626 0.08722135 -0.06567653 -0.1357275 -0.07092117 0.039099447 0.08199955 -0.0704791
-0.13225257 -0.02467883 0.09241133 -0.033148613 0.011384088 -0.050786242 0.03487947 -0.020577312
-0.103849865 -0.12286216 0.0923976 0.03314675 -0.010077917 -0.083696626 0.010656627 0.10911008
-0.025710156 -0.062091563 -0.102593705 0.015397574 -0.11669108 -0.029781412 -0.1164625 -0.05915717
-0.047917683 -0.14780073 -0.0747271 0.12870793 -0.109453045 0.038701132 -0.115338765 -0.023023503
0.024180584 -0.042024635 -0.12876432 0.0526357 0.091485925 0.067029685 -0.1435276 -0.113018684
-0.061619733 -0.105607584 -0.027435794 0.108950585 -0.14632292 -0.031315576 0.071032375 0.036809687
-0.07738346 -0.08692383 -0.060863942 0.057553947 0.022899076 -0.020922415 -0.15009665 -0.07771927
-0.14416198 -0.07928163 -0.087844335 -0.087368354 0.00060490513 -0.07268081 -0.08598267 -0.2053801
0.12650856 0.01123326 -0.034698218 -0.15230612 0.1773558 0.16358632 -0.015087707 0.0053256983
-0.050246127 -0.09964962 0.067161076 -0.015691305 0.038359996 -0.12179918 0.011968853 0.1076396
-0.008636121 -0.0019517085 -0.06931099 0.026455553 -0.04738972 -0.04470813 -0.11163136 -0.03114231
-0.0703533 0.005716304 0.07987882 0.02935547 -0.11654848 -0.08024966 -0.06582901 0.09356901
-0.014526318 -0.08463972 -0.04664834 -0.0046112207 0.09720907 -0.03567511 -0.07635904 -0.036189042
00000000: d38f 043e 7f7f f9bd a45d eabd ac37 01be
00000010: a236 1e3d 5c51 a3bc b3d2 19be 6aff ce3d
00000020: fbbe 193d d0bd 21be 9d23 29be d1fb d93d
00000030: e52c 78bd 3736 8abe e195 31bd 426f ea3d
00000040: 088f 54bd 2840 6cbe f174 75bd 928f b8bb
00000050: eb18 40be 9d44 06be 495a 0abc efa4 1d3d
00000060: 5e7d 56be af6b 0bbe aefa 413d ce66 213c
00000070: 1f16 78be 34e2 2abd e336 983c 4759 6abd
00000080: 4d75 493d d6dd 38bd c39f 1cbe dae0 aabd
00000090: 95e4 bc3d ffe9 bcbd 34e5 9ebe 21e4 f53d
000000a0: 24d5 3c3c 5f9b 57be b2da 4cbe c5b9 bf3d
000000b0: 885e 8ebd 0407 58be 2732 1cbe 9074 983d
000000c0: 306f 883d 05c4 0b3b a04e 903b ac40 37be
000000d0: 146e ee3c 06a5 113c e597 c0bd fd48 f4bd
000000e0: cc5a 66bb 529d a9bb 3830 82be 4446 54bc
000000f0: 2409 02bd 1249 b4bd 5aeb 7fbe c758 af3d
00000100: 4305 5d3d a215 acbd e9cc ffbd 0e5d bcbd
00000110: d095 b53d f288 16be a3da 1bbe 1bad ef3d
00000120: ad9b 183d ccf7 8dbe 862c f6bc 8313 263e
00000130: 0140 83bd 2d0d febd 2467 a4bd c52d b4ba
00000140: 519f 23be 5ac1 583d 3041 093e 8753 a5ba
00000150: e499 21bd 29db 5e3d ed41 a1bc 164b 35bd
00000160: 2ed7 8ebc 0fc6 e43d e98b d0bd 03b6 06bd
00000170: a772 5c3d bd64 663d e20c f6bc a61f 2ebc
00000180: 8cb2 023e 5209 07be 3e99 44be b208 8bbd
00000190: 56c8 ad3d cb8c 78be 59be c7bd 1788 173e
000001a0: 5069 0b3d 6d78 4dbe 15d8 c23c 29c1 873d
000001b0: 899e e1bd ec41 86bd fed9 f2bd 3e8c 0d3d
000001c0: 8da8 6b3d e1a6 73be f39d e5bd 30dd 04bd
000001d0: 600b e5bd 4d95 47be 1621 f13d 1ea0 3dbc
000001e0: 4110 5fbe 1ae6 97bd 5993 913d 542a d13c
000001f0: c251 5fbe cff3 96bb 7988 d8bc e221 4a3b
00000200: ec7d 4bbe 46cd debd 0bf8 cdbc 1320 3b3d
00000210: ed78 9bbd 23ba 74bd 189c 273d ef27 e63d
00000220: 5efa 933b 1b33 aabd b66b 0cbe 0d7c cf3d
00000230: 5e3e ce3c 0b69 01bd f688 54be 963d b6bd
00000240: 994e 0bbc 1ba1 b23d 6b81 86bd 26fc 0abe
00000250: 1e3f 91bd be26 203d 61ef a73d 5957 90bd
00000260: 386d 07be 422b cabc 2742 bd3d d7c6 07bd
00000270: 5384 3a3c 3c05 50bd c6dd 0e3d c091 a8bc
00000280: 3daf d4bd 289f fbbd f43a bd3d e3c4 073d
00000290: d91d 25bc 2369 abbd 2299 2e3c 1b75 df3d
000002a0: 1b9e d2bc b953 7ebd a61c d2bd 1b46 7c3c
000002b0: bcfb eebd 26f8 f3bc e483 eebd ca4e 72bd
000002c0: 5545 44bd 1359 17be 860a 99bd 03cc 033e
000002d0: eb28 e0bd 1485 1e3d bb36 ecbd c99b bcbc
000002e0: 5c16 c63c 0622 2cbd cbda 03be 8898 573d
000002f0: f95c bb3d dc46 893d e6f8 12be 5776 e7bd
00000300: f964 7cbd ca48 d8bd 08c1 e0bc 7c21 df3d
00000310: add5 15be c344 00bd 6c79 913d c1c5 163d
00000320: 387b 9ebd 1f05 b2bd 784c 79bd b0bd 6b3d
00000330: d896 bb3c 7c65 abbc f0b2 19be 482b 9fbd
00000340: 339f 13be 685e a2bd bbe7 b3bd 2eee b2bd
00000350: 7f92 1e3a add9 94bd af17 b0bd 294f 52be
00000360: 768b 013e b50b 383c b81f 0ebd 23f6 1bbe
00000370: c29c 353e 2c83 273e 6e32 77bc 3283 ae3b
00000380: e2ce 4dbd 1a15 ccbd bf8b 893d 0d8b 80bc
00000390: 5f1f 1d3d d971 f9bd 0219 443c 2772 dc3d
000003a0: 847e 0dbc 78d0 ffba ecf2 8dbd 51b9 d83c
000003b0: b91b 42bd df1f 37bd fc9e e4bd 281e ffbc
000003c0: 6415 90bd d54f bb3b 8297 a33d e27a f03c
000003d0: f8b0 eebd ef59 a4bd 5cd1 86bd 1ca1 bf3d
000003e0: cbff 6dbc 9757 adbd 5412 3fbd b919 97bb
000003f0: 8d15 c73d 1020 12bd 2162 9cbd f63a 14bd

conv2.bias f4 [16]
0.051401723 -0.1246411 -0.12853916 -0.021123584 -0.15819734 -0.07571549 -0.040680267 -0.22443391
-0.05783516 -0.09877427 -0.07372868 0.013053855 -0.105975054 0.005033409 0.059304226 -0.095728405
00000000: 9d8a 523d d543 ffbd c59f 03be 5e0b adbc
00000010: 7cfe 21be b910 9bbd 5aa0 26bd 01d2 65be
00000020: 90e4 6cbd 2a4a cabd 10ff 96bd d6df 553c
00000030: 7309 d9bd 4cef a43b fde8 723d 410d c4bd

fc1.weight f4 [64, 2304]
-0.0170561 0.00088235014 0.0044947565 -0.019419659 0.029133394 0.023234699 -0.007154412 0.024396049
0.024458263 -0.011733132 0.0068816855 -0.008885553 0.017886529 -0.0052658925 0.0122110555 -0.04294982
0.049368735 0.064006194 0.104804784 0.123126544 0.021441774 0.0013070022 0.016773602 -0.0038849125
-0.015784387 -0.06286316 -0.042102564 -0.02099774 0.094141185 0.08570106 0.07497588 0.11738021
0.023214566 -0.0074988464 0.039408293 -0.052554168 -0.008495228 -0.045077372 0.0055839894 0.052526914
0.101944245 0.12790287 0.08544536 0.14046568 0.063757606 -0.041246343 0.034865875 -0.018772732
-0.002133491 -0.005882205 0.08989264 0.12236018 0.15486345 0.08802539 0.18997085 0.06021095
-0.057150546 -0.020589035 0.00799711 -0.016456846 -0.006289448 0.042860344 0.076276265 0.085282855
0.03711728 0.022267792 0.034044016 -0.08165106 -0.055719346 0.017773211 0.012865855 -0.020909123
-0.01599298 -0.03726026 -0.013192583 -0.027929014 -0.08775732 -0.13202527 -0.07191603 -0.093729496
-0.012168569 0.0071418895 0.03043573 0.0023469327 -0.033594687 0.022827243 -0.027280666 -0.10800145
-0.17985249 -0.07518995 -0.10670823 -0.10122977 0.010506662 0.06876491 0.046727095 -0.021209737
-0.044025045 -0.03404895 -0.05909461 -0.066906154 -0.08079537 -0.020532796 -0.034911465 0.01666906
0.06849767 0.051228885 -0.009330741 -0.016767427 -0.008636291 0.0015034582 0.00038283484 -0.041146174
0.001104725 0.07614098 0.0037444683 0.052590277 0.03671952 -0.059335265 -0.011709681 -0.018965436
0.005557683 0.0027795313 0.022531286 0.032073382 0.06488165 0.06629255 0.08477791 0.006333578
-0.013694443 -0.009477774 -0.00893474 0.008478981 0.014904742 2.6733758e-05 -0.025652153 0.04532208
0.03185794 0.05643549 -0.03071771 0.0010526855 -0.005174675 -0.007317148 0.029288575 0.006012718
-0.01656404 -0.011130309 0.016962085 0.011542338 0.012258473 0.00548236 -6.017835e-05 0.032542855
0.016060011 0.007562841 0.015886214 -0.011504654 -0.012954726 -0.00507696 -0.010178718 -0.01877536
-0.01271172 0.037316985 -0.0024492918 0.01502918 0.024167657 0.0054769837 0.007903976 -0.018826814
0.007703306 0.007628021 0.009907716 -0.043115217 -0.038964182 0.02490715 -0.002345019 -0.020378599
0.01467889 0.019228242 -0.00085616834 0.004511362 -0.026187563 -0.019050132 -0.022597896 -0.076151915
-0.03434718 -0.045795344 -0.0084925955 0.009596949 0.0064999047 -0.0033739766 0.024573602 0.010496988
-0.0209056 -0.017126875 -0.027669732 -0.10233892 -0.044908 -0.07145074 0.027650226 -0.0148776965
-0.021323852 -0.003965473 0.031388737 -0.00130656 -0.016092537 -0.019676417 -0.03422071 -0.011604242
-0.046642635 -0.089947805 -0.023545006 0.00512063 -0.057704803 0.018212557 0.018952472 0.019895066
0.0063734977 0.058869623 0.033860467 0.006479603 0.005035298 -0.058596805 0.019066297 0.047500223
-0.008230313 -4.946806e-05 0.0078189615 -0.0056874678 0.031906977 0.046850756 0.04248232 0.059904214
0.040490687 -0.017416108 0.030663885 0.081924416 -0.0247648 0.016732115 -0.013996077 0.0060166847
0.009834936 0.01157183 0.07336386 0.06650704 0.016439077 -0.035383895 -0.00015710523 0.035146426
0.018020155 0.050412603 0.036526863 -0.0054330025 -0.015980093 -0.039650045 0.03926107 0.018672416
00000000: 3cb9 8bbc 844d 673a c048 933b fa15 9fbc
00000010: 28a9 ee3c b256 be3c 8f6f eabb 39da c73c
00000020: b25c c83c 533c 40bc c37f e13b b694 11bc
00000030: c586 923c 828d acbb e110 483c 27ec 2fbd
00000040: df36 4a3d ae15 833d e4a3 d63d c529 fc3d
00000050: a9a6 af3c b74f ab3a cb68 893c 049a 7ebb
00000060: 424e 81bc 67be 80bd bd73 2cbd 7403 acbc
00000070: 18cd c03d 0a84 af3d f48c 993d 0965 f03d
00000080: 792c be3c e2b8 f5bb 976a 213d 0a43 57bd
00000090: 922f 0bbc 0da3 38bd e6f9 b63b 7626 573d
000000a0: 25c8 d03d f8f8 023e fafd ae3d 3cd6 0f3e
000000b0: 5993 823d edf1 28bd 85cf 0e3d 46c9 99bc
000000c0: 0ad2 0bbb 83bf c0bb a219 b83d f997 fa3d
000000d0: 8694 1e3e a846 b43d b887 423e c29f 763d
000000e0: b116 6abd 56aa a8bc 4f06 033c 82d0 86bc
000000f0: b717 cebb 548e 2f3d bb36 9c3d c7a8 ae3d
00000100: 4a08 183d f26a b63c bd71 0b3d ac38 a7bd
00000110: f839 64bd 2099 913c 4fcb 523c 9c49 abbc
00000120: b603 83bc 379e 18bd b425 58bc 63cb e4bc
00000130: 1cba b3bd a231 07be b648 93bd 40f5 bfbd
00000140: ad5e 47bc 8306 ea3b 5a54 f93c ffce 193b
00000150: 959a 09bd 3300 bb3c b47b dfbc dd2f ddbd
00000160: 402b 38be 30fd 99bd d889 dabd 8e51 cfbd
00000170: 2224 2c3c 9ed4 8c3d e964 3f3d 0bc0 adbc
00000180: 9b53 34bd e976 0bbd 310d 72bd 1806 89bd
00000190: 0b78 a5bd 6534 a8bc 53ff 0ebd 8d8d 883c
000001a0: 8248 8c3d 61d5 513d f7df 18bc d85b 89bc
000001b0: 3b7f 0dbc b00f c53a 39b7 c839 e488 28bd
000001c0: 6bcc 903a cdef 9b3d c165 753b e768 573d
000001d0: 3567 163d 8909 73bd f6d9 3fbc 675d 9bbc
000001e0: 391d b63b cc28 363b 8893 b83c 615f 033d
000001f0: ace0 843d 63c4 873d 0aa0 ad3d e789 cf3b
00000200: a85e 60bc aa48 1bbc 0463 12bc 6deb 0a3c
00000210: 0533 743c 4f42 e037 7724 d2bc a5a3 393d
00000220: 797d 023d e628 673d b5a3 fbbc 44fa 893a
00000230: 5290 a9bb b0c4 efbb 98ee ef3c 5606 c53b
00000240: 4fb1 87bc e65b 36bc 12f4 8a3c 131c 3d3c
00000250: c3d7 483c 5ea5 b33b 0368 7cb8 a84b 053d
00000260: 4990 833c b5d1 f73b ce23 823c 047e 3cbc
00000270: 0f40 54bc a15c a6bb a3c4 26bc c9ce 99bc
00000280: d144 50bc b2d9 183d 4c84 20bb f33c 763c
00000290: 40fb c53c 4578 b33b ae7f 013c b13a 9abc
000002a0: 046c fc3b 7af4 f93b f953 223c 9599 30bd
000002b0: e898 1fbd 140a cc3c e4ae 19bb 05f1 a6bc
000002c0: ba7f 703c 8c84 9d3c 7c70 60ba 0cd4 933b
000002d0: 4d87 d6bc 060f 9cbc 391f b9bc 89f5 9bbd
000002e0: a1af 0cbd e693 3bbd 8724 0bbc 863c 1d3c
000002f0: 27fd d43b ef1d 5dbb 944e c93c 8ffb 2b3c
00000300: 3942 abbc a94d 8cbc a2ab e2bc 1197 d1bd
00000310: 73f1 37bd c454 92bd ba82 e23c 95c1 73bc
00000320: 5caf aebc ccf0 81bb 7a91 003d e140 abba
00000330: 7fd4 83bc 7030 a1bc 042b 0cbd b81f 3ebc
00000340: 590c 3fbd 8e36 b8bd 75e1 c0bc f5ca a73b
00000350: df5b 6cbd 8032 953c 3742 9b3c fafa a23c
00000360: c6d8 d03b 4621 713d 46b1 0a3d d952 d43b
00000370: 24ff a43b 3403 70bd ec30 9c3c 988f 423d
00000380: 6fd8 06bc ed7b 4fb8 1a1b 003c f05d babb
00000390: e4b0 023d 94e6 3f3d f101 2e3d 1f5e 753d
000003a0: 90d9 253d 3aac 8ebc d432 fb3c fdc7 a73d
000003b0: 8ddf cabc ca11 893c cd4f 65bc 9c27 c53b
000003c0: b622 213c c697 3d3c cb3f 963d d834 883d
000003d0: 3eab 863c b4ee 10bd 9dbc 24b9 b3f5 0f3d
000003e0: 019f 933c 727d 4e3d 319d 153d 5407 b2bb
000003f0: afe8 82bc 1668 22bd 37d0 203d e5f6 983c

fc1.bias f4 [64]
0.007400083 0.009989426 -0.009217369 0.009975624 0.04306376 0.051470637 0.025997754 0.013294493
-0.050486248 0.0039046532 0.02615572 0.04753994 0.0017689016 0.02804938 0.03296778 -0.013602602
0.0108739175 -0.028842999 -0.0015095135 0.00047299033 -0.025187423 -0.01718528 0.028328389 0.017229866
0.03328511 0.024335546 -0.02161519 0.029683143 0.02495425 0.06669914 0.05261209 -0.0068224147
0.025726639 -0.0012047578 0.02027692 -0.020959685 0.008350017 -0.024804581 0.069637135 0.025643894
0.032109328 0.022205483 -0.011152787 0.029068246 0.032086223 -0.0157182 -0.0061694914 0.021334058
0.0071149953 0.029612947 0.0061058546 0.028643418 0.033115234 0.013723435 0.033021335 -0.0153079545
0.02756675 -0.012639743 0.04350167 0.00899497 0.029524008 -0.017123876 0.014581116 0.028948171
00000000: 657c f23b b0aa 233c 7304 17bc cd70 233c
00000010: a063 303d e0d2 523d 3ef9 d43c 25d1 593c
00000020: abca 4ebd 36e5 7f3b 8544 d63c 3db9 423d
00000030: 7dda e73a d0c7 e53c 3909 073d 73dd 5ebc
00000040: 8428 323c 2748 ecbc deda c5ba b0fb f739
00000050: db55 cebc 25c8 8cbc f010 e83c a625 8d3c
00000060: f855 083d 575b c73c 5712 b1bc 102a f33c
00000070: db6c cc3c 8f99 883d c67f 573d 908e dfbb
00000080: acc0 d23c f7e8 9dba c91b a63c a5b3 abbc
00000090: 82ce 083c fa32 cbbc ea9d 8e3d 2513 d23c
000000a0: 1285 033d 46e8 b53c 2eba 36bc 8820 ee3c
000000b0: d86c 033d 74c3 80bc 7229 cabb c3c4 ae3c
000000c0: e824 e93b da96 f23c 9f13 c83b 9aa5 ea3c
000000d0: d7a3 073d 42d8 603c 6141 073d 37ce 7abc
000000e0: aad3 e13c ed16 4fbc cf2e 323d a35f 133c
000000f0: 55dc f13c 5f47 8cbc a2e5 6e3c b724 ed3c

fc2.weight f4 [10, 64]
-0.18119127 0.15784083 0.031109162 0.09453595 0.071837835 -0.1959837 0.14928561 0.14219491
0.08604309 0.024477469 -0.12387755 0.11576141 -0.011714144 0.07420642 0.07250061 -0.030605666
-0.26450834 -0.1204618 -0.14025202 -0.15878989 0.13349548 0.097041234 0.042137872 -0.18443403
-0.37664613 -0.09445603 0.180424 -0.08068306 -0.21577233 -0.35087913 -0.25296634 0.19555579
0.1612876 -0.21997693 0.036607813 0.067060746 0.15079999 -0.09278665 -0.20851931 -0.23806222
-0.31145436 -0.28516847 -0.1853701 0.06951549 0.09210345 -0.004130951 -0.07133045 -0.21739185
-0.28941238 -0.0020740293 -0.2424564 -0.40193066 0.14217967 -0.14453408 -0.30861637 -0.15319115
-0.30444252 -0.21467353 -0.26929596 -0.22288147 -0.01992205 -0.11608907 0.04167216 -0.075247884
-0.26147896 0.1396229 -0.22751948 -0.28458273 -0.37150788 -0.28019947 -0.10846971 -0.06461892
-0.11462647 -0.2685539 0.109524906 -0.05073169 -0.33546886 -0.34014007 0.057832874 0.20015615
-0.17836608 -0.06553527 -0.0978147 -0.17159294 -0.07744404 0.07163173 0.08107759 -0.059042986
0.23570643 -0.10181422 -0.22809935 0.064882144 0.14822517 -0.03749672 -0.32105914 -0.10958303
-0.16216396 -0.06603957 -0.26691782 -0.15936652 0.09169209 -0.27307683 -0.054142915 0.1767478
0.102317594 0.107499614 0.035262212 -0.27973107 -0.36579332 0.17055474 -0.2778629 -0.010147493
0.106997505 -0.4785857 0.10123066 -0.007954918 0.13733038 -0.13596962 0.09181799 -0.07519438
-0.1191235 0.0012401177 0.03717089 0.1899274 -0.15487982 0.012147761 -0.40667188 0.20496549
-0.07642601 -0.027842443 -0.20062487 0.14605917 0.12162334 -0.31125847 -0.0036161894 -0.2055349
-0.30618706 -0.14633833 0.09984744 0.08632864 -0.15725075 0.11050781 -0.1969516 -0.22265214
-0.17342623 -0.07083053 0.042948324 0.027140962 -0.3062785 0.021869522 -0.20917504 0.176955
-0.09479778 -0.28089792 -0.1792654 0.22629611 -0.13818502 -0.0062589375 0.05926656 0.034517195
0.19008824 -0.20600592 -0.1971447 -0.1130195 -0.34181985 0.024405397 0.13509008 0.21536447
0.15357353 -0.0978821 -0.22189881 0.14768115 0.13461913 -0.2032604 -0.13070872 -0.0072917175
-0.022800015 -0.15437984 -0.2716644 -0.48662576 0.18592542 -0.3042097 -0.2112401 0.0047916067
0.06731425 -0.08256494 0.16368651 0.09763434 -0.28671098 -0.3836202 -0.24033934 -0.042602696
-0.2743016 0.12045113 0.16494092 -0.045663465 -0.34746963 0.098063104 -0.1094801 -0.06458
-0.2620257 -0.13985011 -0.32115674 0.073382996 -0.2617071 -0.21966131 -0.04567162 -0.20911415
-0.056381617 -0.09342995 0.10854547 0.25490344 -0.11745967 0.07805947 -0.1031994 -0.2554513
-0.35058329 0.050418794 -0.2714174 -0.22754581 -0.109487884 0.10260796 0.11615558 -0.149854
-0.22575748 -0.18370639 0.1509453 -0.274798 -0.32272005 -0.14779015 0.057830863 -0.25584865
-0.023220414 0.19108242 0.12089647 0.0729406 -0.16530468 -0.3054643 0.046003677 -0.17414199
0.041360877 -0.036602836 -0.23490526 -0.0072818366 -0.33218032 -0.2116836 0.19196846 -0.007248908
0.15538815 -0.3221825 -0.33046362 -0.26349676 -0.19694003 -0.045431126 0.092432685 0.021829836
00000000: 348a 39be 07a1 213e a4d8 fe3c 109c c13d
00000010: b71f 933d f3af 48be 54de 183e 8b9b 113e
00000020: 5c37 b03d f984 c83c 83b3 fdbd 5114 ed3d
00000030: aeec 3fbc 89f9 973d 337b 943d bcb8 fabc
00000040: a36d 87be adb4 f6bd 3a9e 0fbe d199 22be
00000050: 0ab3 083e 8ebd c63d c398 2c3d 46dc 3cbe
00000060: c3d7 c0be 2a72 c1bd 12c1 383e 293d a5bd
00000070: 6cf3 5cbe 6ea6 b3be ce84 81be c73f 483e
00000080: 9428 253e a241 61be 13f2 153d 2557 893d
00000090: 506b 1a3e ed06 bebd 1686 55be 95c6 73be
000000a0: f276 9fbe 9a01 92be a9d1 3dbe 235e 8e3d
000000b0: bca0 bc3d ee5c 87bb b315 92bd f89b 5ebe
000000c0: dc2d 94be 70ec 07bb 7e46 78be dbc9 cdbe
000000d0: 8c97 113e be00 14be f702 9ebe 24de 1cbe
000000e0: e4df 9bbe 61d3 5bbe 29e1 89be 0a3b 64be
000000f0: 9133 a3bc 1bc0 edbd 6db0 2a3d 901b 9abd
00000100: 92e0 85be 4ef9 0e3e defa 68be d4b4 91be
00000110: 4836 bebe 4e76 8fbe 5e25 debd ed56 84bd
00000120: 48c1 eabd e67f 89be 984e e03d 08cc 4fbd
00000130: 93c2 abbe d726 aebe 2ae2 6c3d bcf5 4c3e
00000140: 99a5 36be 5b37 86bd 1353 c8bd 0fb6 2fbe
00000150: fb9a 9ebd a8b3 923d 020c a63d 0fd7 71bd
00000160: 075d 713e f983 d0bd e092 69be eee0 843d
00000170: 57c8 173e 2996 19bd dd61 a4be 116d e0bd
00000180: 4f0e 26be c13f 87bd 74a9 88be fa30 23be
00000190: 10c9 bb3d bad0 8bbe f6c4 5dbd 60fd 343e
000001a0: e38b d13d c228 dc3d 1c6f 103d e938 8fbe
000001b0: 4349 bbbe e7a5 2e3e 0c44 8ebe ac41 26bc
000001c0: 8221 db3d 2f09 f5be 0552 cf3d 5855 02bc
000001d0: 56a0 0c3e 9f3b 0bbe 120b bc3d 83ff 99bd
000001e0: 06f7 f3bd 728b a23a 8140 183d 547c 423e
000001f0: d198 1ebe 6707 473c 4c37 d0be 79e2 513e
00000200: 3d85 9cbd d615 e4bc 9b70 4dbe 8990 153e
00000210: a815 f93d 455d 9fbe 97fd 6cbb be77 52be
00000220: 8dc4 9cbe b7d9 15be d17c cc3d 12cd b03d
00000230: 5706 21be eb51 e23d aead 49be ecfe 63be
00000240: a596 31be 990f 91bd 95ea 2f3d b956 de3c
00000250: 89d0 9cbe b627 b33c fb31 56be b133 353e
00000260: 5725 c2bd dad1 8fbe 5991 37be 2bba 673e
00000270: 6080 0dbe c617 cdbb 7ec1 723d e761 0d3d
00000280: 7ea6 423e 37f3 52be 4de0 49be c576 e7bd
00000290: 0303 afbe d4ed c73c 0e55 0a3e 8188 5c3e
000002a0: 6142 1d3e 6976 c8bd 7139 63be ba39 173e
000002b0: 99d9 093e 7f23 50be 82d8 05be 5cef eebb
000002c0: 19c7 babc c015 1ebe 9917 8bbe 0327 f9be
000002d0: 3c63 3e3e 60c1 9bbe 534f 58be e902 9d3b
000002e0: 0edc 893d cf17 a9bd 709d 273e 83f4 c73d
000002f0: c8cb 92be de69 c4be 841b 76be 2a80 2ebd
00000300: 4271 8cbe 15af f63d 46e6 283e 9d09 3bbd
00000310: 8ae7 b1be 4fd5 c83d 1a37 e0bd 8542 84bd
00000320: 3c28 86be de34 0fbe a86e a4be d349 963d
00000330: 79fe 85be e5ee 60be 2a12 3bbd 0522 56be
00000340: 69f0 66bd 3458 bfbd 164d de3d b482 823e
00000350: b28e f0bd a5dd 9f3d 355a d3bd 83ca 82be
00000360: a77f b3be f083 4e3d 39f7 8abe c501 69be
00000370: 2f3b e0bd 1f24 d23d fae2 ed3d 5473 19be
00000380: f82c 67be 871d 3cbe 6891 1a3e 53b2 8cbe
00000390: 903b a5be 4d56 17be 0ee0 6c3d 98fe 82be
000003a0: bd38 bebc 1cab 433e 9298 f73d e261 953d
000003b0: a145 29be d165 9cbe 5a6e 3c3d 4752 32be
000003c0: 066a 293d dbec 15bd 018b 70be 799c eebb
000003d0: 8a13 aabe 96c3 58be 6193 443e 3f88 edbb
000003e0: 121e 1f3e 1bf5 a4be 8732 a9be 0ce9 86be
000003f0: a6aa 49be fd15 3abd 594d bd3d 7cd4 b23c

fc2.bias f4 [10]
0.0051513948 -0.11715498 -0.0896322 0.0057350956 -0.042442843 0.066812076 -0.03416033 -0.11118849
-0.148767 -0.08731651
00000000: 08cd a83b f3ee efbd 1691 b7bd 78ed bb3b
00000010: 8cd8 2dbd c5d4 883d b4eb 0bbd cbb6 e3bd
00000020: 6056 18be 00d3 b2bd

batchnorm1.weight f4 [8]
0.6190076 0.60641617 0.6056189 0.6781673 0.60569614 0.5095115 0.76904595 0.7327014
00000000: 4877 1e3f 173e 1b3f d709 1b3f 5f9c 2d3f
00000010: e70e 1b3f 586f 023f 32e0 443f 5292 3b3f

batchnorm1.bias f4 [8]
0.13959597 0.09479285 0.0630176 0.13532028 0.14465481 0.24347267 0.20750101 0.109462015
00000000: 3ff2 0e3e c122 c23d 5f0f 813d 6691 0a3e
00000010: 6420 143e e650 793e 257b 543e 9f2d e03d

batchnorm1.running_mean f4 [8]
0.29267424 0.08810575 0.14109455 0.06815758 0.3125972 0.30876932 0.26145303 0.27219915
00000000: 66d9 953e ca70 b43d 177b 103e 3496 8b3d
00000010: bd0c a03e 0317 9e3e 2cdd 853e b05d 8b3e

batchnorm1.running_var f4 [8]
0.91531944 0.15393166 0.26596665 0.067052074 1.1761231 0.13892673 0.825953 1.0023617
00000000: 6052 6a3f 43a0 1d3e c82c 883e 9952 893d
00000010: 348b 963f cf42 0e3e a871 533f 634d 803f

batchnorm2.weight f4 [16]
1.2375793 0.86326724 1.1673373 1.0884078 0.41557688 0.45032233 0.92921597 0.9405491
0.566214 0.88842386 0.41339213 1.453961 0.4877388 0.75355315 1.299152 1.0991307
00000000: 0069 9e3f 15ff 5c3f 4f6b 953f f250 8b3f
00000010: 7ec6 d43e a690 e63e 19e1 6d3f d3c7 703f
00000020: 67f3 103f bf6f 633f 22a8 d33e 651b ba3f
00000030: e6b8 f93e dce8 403f 9d4a a63f 51b0 8c3f

batchnorm2.bias f4 [16]
0.06245031 0.017753074 0.11249672 0.12667033 0.041690674 0.08349989 0.100162275 0.15759145
0.10357576 0.12619749 0.06863398 0.117902815 0.043172356 0.15856768 0.117916785 0.17642002
00000000: e5cb 7f3d e56e 913c ae64 e63d deb5 013e
00000010: d7c3 2a3d fe01 ab3d e121 cd3d a75f 213e
00000020: 871f d43d ea39 013e f98f 8c3d 0877 f13d
00000030: 7fd5 303d 915f 223e 5b7e f13d 73a7 343e

batchnorm2.running_mean f4 [16]
0.42924067 0.112515554 0.15434477 0.34676015 0.026489146 0.24282858 0.22774455 0.32965848
0.42669544 0.17704734 0.577838 0.27830073 0.046106048 0.47524095 0.380495 0.31635132
00000000: 6fc5 db3e 8e6e e63d 8e0c 1e3e 8c8a b13e
00000010: c4ff d83c 0ea8 783e de35 693e ffc8 a83e
00000020: d377 da3e e64b 353e 31ed 133f 6f7d 8e3e
00000030: b2d9 3c3d c852 f33e 3ed0 c23e cdf8 a13e

batchnorm2.running_var f4 [16]
0.15053199 0.07942818 0.1798236 0.21744654 0.016699955 0.277372 0.30258104 0.6923949
0.7556763 0.19845502 1.1062683 0.16343096 0.025322292 0.7987808 0.20702182 0.40371248
00000000: 0f25 1a3e 3eab a23d ae23 383e 4eaa 5e3e
00000010: 58ce 883c b403 8e3e e7eb 9a3e cb40 313f
00000020: 0174 413f cb37 4b3e 339a 8d3f 725a 273e
00000030: b270 cf3c e67c 4c3f 87fd 533e 67b3 ce3e
