mnist_model.pt (torch_old, 58119 bytes, 8 tensors)

conv1.weight f4 [8, 1, 3, 3]
0.13544469 -0.026664231 0.041108713 0.17507966 -0.059652403 0.32219842 0.009768821 0.08477316
0.1330789 -0.08320658 0.13028122 -0.02264472 0.17335358 0.10879022 0.106060036 0.067985475
0.053260412 0.15854181 0.26155865 0.15542816 -0.025289234 -0.066569425 0.01720607 0.036521576
0.024615215 0.10627075 0.33512923 0.15335155 -0.13180654 0.1422259 0.079302296 0.25635767
0.2912414 -0.4189151 -0.4834988 -0.26748624 0.2172479 -0.04404697 0.13859476 -0.03543226
0.3074409 0.18360841 0.16609934 -0.09765565 0.029409928 0.02497234 -0.07773922 -0.041137043
-0.16536345 -0.19771661 -0.48030415 -0.08968043 0.05643014 -0.18283209 0.2608531 0.26677498
0.049844228 -0.13588949 0.083543755 0.12498921 -0.1110771 0.16170573 0.21107076 0.12123838
-0.055463117 0.24286489 -0.16314863 0.11902291 -0.19892845 -0.43827656 -0.20896192 -0.2952366
00000000: 03b2 0a3e f26e dabc 9c61 283d 1548 333e
00000010: 1456 74bd 31f7 a43e 680d 203c 8d9d ad3d
00000020: d645 083e 3668 aabd 7168 053e 6b81 b9bc
00000030: 9a83 313e 68cd de3d 0136 d93d f83b 8b3d
00000040: 9727 5a3d c958 223e 04eb 853e 8f28 1f3e
00000050: 5e2b cfbc 8d55 88bd bef3 8c3c a697 153d
00000060: d9a5 c93c 7ba4 d93d 0f96 ab3e 3008 1d3e
00000070: 4bf8 06be aba3 113e 3e69 a23d 5041 833e
00000080: 981d 953e 0a7c d6be 288d f7be f5f3 88be
00000090: 3c76 5e3e 986a 34bd c9eb 0d3e 6b21 11bd
000000a0: e568 9d3e d803 3c3e f215 2a3e afff c7bd
000000b0: 17ed f03c cb92 cc3c bd35 9fbd 517f 28bd
000000c0: 0955 29be 3976 4abe 6dea f5be 60aa b7bd
000000d0: 4a23 673d 5638 3bbe 8a8e 853e bb96 883e
000000e0: 7629 4c3d 9d26 0bbe fd18 ab3d 58fa ff3d
000000f0: 647c e3bd 3096 253e ef22 583e d44b f83d
00000100: 4b2d 63bd 93b1 783e 6f10 27be 49c2 f33d
00000110: e6b3 4bbe c965 e0be 1dfa 55be 4029 97be

conv1.bias f4 [8]
0.35477772 0.2978519 0.3582947 -0.14638229 0.09507042 0.63960755 -0.013414207 0.3430278
00000000: 6da5 b53e 0b80 983e 6772 b73e 3de5 15be
00000010: 48b4 c23d 52bd 233f 43c7 5bbc 57a1 af3e

conv2.weight f4 [8, 8, 3, 3]
0.070736244 0.02275397 0.11417548 0.06791267 0.040012565 0.0720235 -0.184783 -0.1855613
-0.08714787 0.1139103 0.06672259 0.12150197 0.015858706 -0.042286575 0.08356298 -0.18434995
-0.16086696 -0.08709994 -0.016750218 0.015174659 0.09554047 0.1568877 0.17538182 0.10980676
-0.14882745 -0.35664678 -0.096281275 -0.11825403 0.2107406 0.03515787 0.10764796 0.12614113
0.08413223 0.026077393 -0.028866496 0.14772289 0.086827666 0.053444553 -0.010466717 -0.029328395
0.031232536 0.22223039 -0.08843833 -0.18830629 -0.11634994 -0.1596775 -0.15165642 -0.14708295
0.11822192 0.08558161 -0.19207993 0.09942105 0.18739575 0.23013899 -0.0017117382 -0.002056362
0.06440439 0.13819279 0.08218144 0.118564874 -0.18869434 -0.14846519 -0.11882999 -0.15307608
-0.01810184 -0.16926825 0.10124462 0.11009346 0.0118876025 0.044238877 0.029837439 0.12985736
-0.21390736 -0.063719064 0.07360722 -0.16026664 0.08863219 0.07954398 0.056598913 0.102625996
0.009221508 -0.21737064 -0.15126273 0.13892287 -0.0273661 0.06463141 0.042902574 0.037203446
-0.00543657 0.11685029 -0.26360747 -0.09119183 0.028569086 -0.1042411 0.11879039 0.09828378
0.04661022 0.12879816 -0.0062335976 0.027306965 -0.08912289 -0.2789001 -0.115605466 0.11667536
-0.2260833 0.102701575 -0.011390853 -0.14894709 -0.17956597 -0.16148727 0.0703418 -0.05274126
-0.047254767 0.13476694 0.061129518 0.0058806855 0.10053627 0.17710693 0.28595003 -0.086214244
0.1411416 -0.074909806 -0.09258583 0.029766364 -0.06808899 -0.3064113 -0.12806323 -0.13364685
0.010880233 -0.12930492 0.0006000904 0.0800098 -0.00043595157 0.12813532 0.08741909 0.104558386
0.06594273 -0.1143952 0.043155815 0.113961816 -0.25555685 0.24313143 -0.16481037 -0.09009473
0.11974126 0.006789233 -0.1920098 0.1741105 -0.16246657 -0.13600153 0.05108675 -0.33051828
0.2229084 0.18582663 -0.014362859 -0.2899636 0.18353009 -0.20657514 -0.071486026 -0.009828158
-0.28792113 0.24582809 0.16719413 0.058374997 -0.1835177 0.14062135 -0.27887195 -0.026132315
-0.00480031 -0.18636666 0.19263053 -0.21617952 0.042611785 0.020067876 -0.11799325 0.083052725
-0.058129784 0.036518805 -0.06225589 -0.08120448 0.052127853 0.09470954 -0.37493888 0.17509294
-0.0401648 -0.326828 0.034083236 -0.31193918 0.18987294 -0.2700949 0.08487406 0.112123944
-0.15392756 0.24889557 -0.014437679 0.009527316 0.12742978 -0.13318342 0.15388876 0.07131193
-0.23797497 0.059289668 -0.11322804 -0.15083675 0.0016614385 -0.20396343 0.17864543 -0.23058186
0.057217658 0.07210962 -0.12326597 0.09044436 0.090687916 0.03447571 0.06596462 -0.06329623
0.047953412 0.042881798 -0.3185914 0.02326328 0.24788234 0.07928011 -0.16483209 0.04129166
0.06308964 0.047994863 -0.0092515275 -0.2653728 0.01953197 0.32491043 0.0493001 -0.17165813
-0.044806343 0.0910603 0.051832348 -0.09101933 -0.28963733 0.10939148 0.29354224 0.1542996
-0.21667154 -0.013461401 0.0737807 0.10674715 -0.18464991 -0.26207963 0.0887042 0.15000458
-0.084643126 0.038999014 0.03381587 0.06443559 0.046440102 -0.05260658 -0.18131536 0.046907563
00000000: 2ade 903d 8966 ba3c d6d4 e93d cc15 8b3d
00000010: 37e4 233d 0f81 933d c137 3dbe c803 3ebe
00000020: 957a b2bd ce49 e93d daa5 883d 06d6 f83d
00000030: 1eea 813c b034 2dbd 1123 ab3d 3cc6 3cbe
00000040: 4fba 24be 7461 b2bd c137 89bc 229f 783c
00000050: b9aa c33d 2ba7 203e 4b97 333e 5ee2 e03d
00000060: 3966 18be 689a b6be 1e2f c5bd 2b2f f2bd
00000070: 62cc 573e b301 103d 8976 dc3d 242b 013e
00000080: 854d ac3d 42a0 d53c 6e79 ecbc ab44 173e
00000090: b4d2 b13d ade8 5a3d 987c 2bbc 1a42 f0bc
000000a0: 60db ff3c 5d90 633e 281f b5bd 5dd3 40be
000000b0: e148 eebd 8082 23be d24b 1bbe ea9c 16be
000000c0: 561e f23d 6945 af3d 9ab0 44be 439d cb3d
000000d0: ace4 3f3e 8ea9 6b3e 675c e0ba 08c4 06bb
000000e0: 73e6 833d 6982 0d3e be4e a83d 24d2 f23d
000000f0: 1739 41be 4207 18be 235d f3bd fabf 1cbe
00000100: 4f4a 94bc a854 2dbe 5759 cf3d ae78 e13d
00000110: 38c4 423c d333 353d a56d f43c 54f9 043e
00000120: 880a 5bbe 247f 82bd 62bf 963d f01c 24be
00000130: cb84 b53d f4e7 a23d 43d4 673d 942d d23d
00000140: cf15 173c 6996 5ebe 9ee4 1abe cc41 0e3e
00000150: df2e e0bc 795d 843d 9cba 2f3d a462 183d
00000160: 4125 b2bb 344f ef3d 8ff7 86be c8c2 babd
00000170: b709 ea3c 5c7c d5bd 6048 f33d 0249 c93d
00000180: 5cea 3e3d aae3 033e 3543 ccbb dbb2 df3c
00000190: 1086 b6bd fecb 8ebe 8fc2 ecbd 7ef3 ee3d
000001a0: 6182 67be 3455 d23d b3a0 3abc 9685 18be
000001b0: 24e0 37be eb5c 25be 5d0f 903d 3807 58bd
000001c0: 378e 41bd 5800 0a3e f262 7a3d c4b2 c03b
000001d0: f6e5 cd3d 855b 353e 0b68 923e 1891 b0bd
000001e0: 6c87 103e 506a 99bd a49d bdbd 97d8 f33c
000001f0: 3e72 8bbd f1e1 9cbe 0223 03be b8da 08be
00000200: 0143 323c 8268 04be 634f 1d3a 2edc a33d
00000210: 6e90 e4b9 e835 033e c808 b33d b522 d63d
00000220: fb0c 873d 0848 eabd 27c4 303d d064 e93d
00000230: 59d8 82be 72f7 783e 0dc4 28be 9683 b8bd
00000240: e83a f53d 3778 de3b 389e 44be 064a 323e
00000250: a35d 26be fc43 0bbe 5740 513d b139 a9be
00000260: 1a42 643e 5649 3e3e 3252 6bbc 1c76 94be
00000270: 50ef 3b3e 6f88 53be 4467 92bd 4806 21bc
00000280: 666a 93be 5cba 7b3e f034 2b3e 9f1a 6f3d
00000290: 10ec 3bbe 0bff 0f3e 4ec8 8ebe 7013 d6bc
000002a0: eb4b 9dbb e7d6 3ebe f040 453e 2a5e 5dbe
000002b0: b289 2e3d 6365 a43c 72a6 f1bd 8c17 aa3d
000002c0: 7f19 6ebd be94 153d 0800 7fbd 894e a6bd
000002d0: 0484 553d 13f7 c13d fdf7 bfbe 904b 333e
000002e0: d883 24bd 0056 a7be dd9a 0b3d 7eb6 9fbe
000002f0: 0d6e 423e e149 8abe 73d2 ad3d 3da1 e53d
00000300: 309f 1dbe 7bde 7e3e 048c 6cbc 7618 1c3c
00000310: f47c 023e 3c61 08be 0495 1d3e fd0b 923d
00000320: b6af 73be b9d9 723d 1ae4 e7bd f374 1abe
00000330: a0c4 d93a cadb 50be d4ee 363e a71d 6cbe
00000340: 105d 6a3d 35ae 933d de72 fcbd e53a b93d
00000350: 96ba b93d 6736 0d3d 7518 873d 74a1 81bd
00000360: cc6a 443d d3a4 2f3d 691e a3be a292 be3c
00000370: ded4 7d3e 9c5d a23d bec9 28be 7221 293d
00000380: 2435 813d 4396 443d b893 17bc f2de 87be
00000390: 8301 a03c a95a a63e e7ee 493d 26c7 2fbe
000003a0: db86 37bd d37d ba3d 284e 543d 5868 babd
000003b0: 584b 94be a408 e03d 2b4b 963e b700 1e3e
000003c0: 25df 5dbe 358d 5cbc 561a 973d 409e da3d
000003d0: de14 3dbe 4d2f 86be 8caa b53d cd9a 193e
000003e0: 6059 adbd 6ebd 1f3d 8282 0a3d cef6 833d
000003f0: fa37 3e3d ff79 57bd bcaa 39be 2522 403d

conv2.bias f4 [8]
0.0025455654 0.03332563 0.020469036 -0.10821136 -0.018113917 -0.0061892415 0.5424672 0.012716158
00000000: 80d3 263b 7580 083d aeae a73c eb9d ddbd
00000010: a363 94bc 1fcf cabb 21df 0a3f 6f57 503c

fc1.weight f4 [64, 200]
0.0144577 -0.038135804 0.11677067 0.030507602 -0.047573425 -0.10158138 0.004638087 0.009359412
0.07724235 0.17304598 -0.0062298593 0.07407766 0.025644058 0.010067599 0.03472328 -0.07504162
-0.011343094 0.05289361 -0.03125871 -0.03759323 0.08283452 -0.03497043 -0.030557599 -0.061702315
0.08898914 0.018191783 0.05438345 -0.022583704 -0.04647298 -0.008035063 -0.005313015 -0.09889177
-0.07510851 -0.099642456 0.04629887 0.066087164 -0.12835535 -0.1408613 -0.095890306 0.097571395
-0.0062689222 -0.033437554 0.024710508 -0.0050630565 0.15031856 -0.03682129 0.03868807 0.056675307
0.053284686 0.032458995 -0.026580317 0.039223313 -0.009241983 0.11311171 0.0022019874 -0.035878472
0.100257054 0.10658821 0.104593515 -0.08482544 -0.028763175 0.12978207 0.09054835 -0.021744253
-0.18462686 -0.024493134 0.14250985 0.09756471 -0.06454631 -0.12403832 0.03992459 0.1020574
0.06558819 -0.05142589 0.06504573 -0.036553286 -0.06812387 -0.034390226 -0.0046063685 0.04828148
-0.07565828 -0.03891552 -0.031719964 -0.012372228 0.02770157 -0.038670916 -0.07467217 -0.040552408
0.025754554 -0.019602723 0.014099565 0.001769519 -0.09930456 -0.047944374 -0.042043347 0.10245159
0.08415152 0.013505086 -0.050511695 -0.14442007 -0.008975147 0.0075988695 -0.06082053 0.016397437
0.0056373808 0.032256953 -0.07926382 -0.05263966 -0.11191671 0.021674987 0.059683707 -0.08407058
-0.044028997 -0.06167182 -0.07486012 -0.021018881 -0.026475307 -0.03699066 -0.049053896 -0.051114835
-0.033774447 0.046878036 0.011778467 -0.0738795 -0.041323245 -0.011679181 -0.06703258 0.069772534
0.055805165 -0.043234866 -0.01305502 -0.020645894 0.05435743 0.013545459 -0.0037668739 -0.0077009727
-0.009169914 -0.0021879526 -0.015401037 0.08337619 -0.010926214 -0.11927992 -0.22627261 -0.0450362
0.10045324 0.03873451 0.07587432 -0.04945628 0.101318866 0.09328633 -0.02005458 -0.0392478
-0.04565561 -0.0758908 -0.020169867 -0.04651095 0.079118215 0.09946436 0.092307545 0.14981994
-0.05510762 0.037739992 0.077481456 0.094905354 -0.038272236 -0.07297621 0.028485892 0.15919064
0.14429912 -0.19024242 0.055018786 -0.11247329 -0.1257563 -0.15102962 0.023367526 0.08613108
0.06810914 0.0035791784 -0.023615582 0.009591367 0.045551255 -0.019041259 -0.04182438 -0.001668684
-0.00626231 0.09465893 -0.05351775 -0.065887436 -0.11419969 0.040102445 0.0050046667 0.01498746
-0.1696659 -0.09638985 0.026519982 -0.019768545 0.085549384 0.056005187 0.016686717 0.10797017
0.0160595 0.19606721 0.10415099 -0.10211365 -0.14763895 0.1888447 0.121428855 0.13154031
-0.07806616 0.02828469 -0.06499969 -0.043133155 -0.098248824 -0.052570153 -0.09715829 -0.21844903
-0.01926507 0.090718724 -0.01857075 0.07823635 0.030135656 -0.10469329 0.123829134 0.017753348
0.14945543 -0.055617683 0.111804955 0.041042358 0.14085972 0.08433628 -0.17065942 -0.22501527
-0.07811729 0.17546149 -0.13121942 -0.17762654 -0.15673634 0.12908082 0.18325347 -0.081817776
0.13764413 -0.020650819 -0.061899275 -0.061728932 0.106789306 0.12586568 0.0017334844 0.07650389
-0.06364078 0.03514899 0.0005714578 -0.09183601 -0.027992113 0.09661165 0.23136099 -0.021664837
00000000: fddf 6c3c 4a34 1cbd 7625 ef3d 14eb f93c
00000010: 5adc 42bd e609 d0bd 18fb 973b 3858 193c
00000020: 3d31 9e3d f732 313e d923 ccbb 07b6 973d
00000030: 7d13 d23c 92f2 243c 003a 0e3d 6caf 99bd
00000040: 62d8 39bc f8a6 583d 2209 00bd 5cfb 19bd
00000050: 25a5 a93d 273d 0fbd ee53 fabc 91bb 7cbd
00000060: f03f b63d ef06 953c 2ec1 5e3d 7601 b9bc
00000070: 745a 3ebd 7fa5 03bc cd18 aebb c587 cabd
00000080: 7ed2 99bd 5811 ccbd e2a3 3d3d b558 873d
00000090: 966f 03be f23d 10be 2362 c4bd 83d3 c73d
000000a0: 886b cdbb d1f5 08bd b16d ca3c ffe7 a5bb
000000b0: 1ced 193e ecd1 16bd 6277 1e3d 5e24 683d
000000c0: 0b41 5a3d b9f3 043d f7be d9bc a0a8 203d
000000d0: b06b 17bc 1da7 e73d 384f 103b 4ef5 12bd
000000e0: 9253 cd3d eb4a da3d 2035 d63d f6b8 adbd
000000f0: c0a0 ebbc 97e5 043e 6a71 b93d 0121 b2bc
00000100: d30e 3dbe d3a5 c8bc 1aee 113e 02d0 c73d
00000110: db30 84bd cd07 febd f887 233d 7803 d13d
00000120: 1a53 863d f4a3 52bd b236 853d e6b8 15bd
00000130: 8784 8bbd c4dc 0cbd 05f1 96bb cdc2 453d
00000140: baf2 9abd e165 1fbd cbec 01bd e3b4 4abc
00000150: 67ee e23c 6565 1ebd b9ed 98bd 481a 26bd
00000160: 37fb d23c e495 a0bc dd01 673c 34ef e73a
00000170: 3060 cbbd 5261 44bd a535 2cbd 24d2 d13d
00000180: a257 ac3d 7044 5d3c 5ae5 4ebd dbe2 13be
00000190: 7f0c 13bc f0ff f83b f31e 79bd eb53 863c
000001a0: c7b9 b83b de1f 043d 1255 a2bd af9c 57bd
000001b0: 9734 e5bd be8f b13c e776 743d 322d acbd
000001c0: c057 34bd 979b 7cbd 4350 99bd ca2f acbc
000001d0: bee2 d8bc 8583 17bd bdec 48bd ca5d 51bd
000001e0: 1357 0abd 2f03 403d 79fa 403c 234e 97bd
000001f0: 9042 29bd 095a 3fbc 6148 89bd e7e4 8e3d
00000200: f593 643d 0b17 31bd b9e4 55bc 9421 a9bc
00000210: e6a5 5e3d c6ed 5d3c a8dd 76bb 7158 fcbb
00000220: 683d 16bc c163 0fbb a254 7cbc 23c1 aa3d
00000230: dd03 33bc 0849 f4bd 02b4 67be e177 38bd
00000240: 6eba cd3d 14a8 1e3d ff63 9b3d ab92 4abd
00000250: 4480 cf3d e70c bf3d 8149 a4bc 4dc2 20bd
00000260: 6001 3bbd a36c 9bbd 473b a5bc 4482 3ebd
00000270: bb08 a23d f8b3 cb3d bd0b bd3d 666a 193e
00000280: 87b8 61bd 4095 1a3d 99ae 9e3d bd5d c23d
00000290: 59c3 1cbd 8d74 95bd 3f5b e93c df02 233e
000002a0: 26c3 133e e9ce 42be 615b 613d 6558 e6bd
000002b0: 42c6 00be 82a7 1abe 416d bf3c 7e65 b03d
000002c0: ce7c 8b3d a690 6a3b 7775 c1bc 1c25 1d3c
000002d0: f493 3a3d 6afc 9bbc 0b50 2bbd beb7 daba
000002e0: 1034 cdbb 8bdc c13d 6e35 5bbd feef 86bd
000002f0: 87e1 e9bd 7642 243d 30fe a33b f78d 753c
00000300: e6bc 2dbe 0b68 c5bd 6f40 d93c a5f1 a1bc
00000310: 8434 af3d b265 653d 95b2 883c 771f dd3d
00000320: 368f 833c d8c5 483e 1d4d d53d f620 d1bd
00000330: aa2e 17be 8160 413e b1af f83d 81b2 063e
00000340: 27e1 9fbd 4bb5 e73c 8f1e 85bd 64ac 30bd
00000350: ae36 c9bd cd53 57bd edfa c6bd 1ab1 5fbe
00000360: c8d1 9dbc bdca b93d af21 98bc 613a a03d
00000370: 0ddf f63c 7069 d6bd 219a fd3d 786f 913c
00000380: d80a 193e 5ecf 63bd fff9 e43d 081c 283d
00000390: 883d 103e 80b8 ac3d 58c1 2ebe 676a 66be
000003a0: f5fb 9fbd 2dac 333e 625e 06be bbe3 35be
000003b0: 7e7f 20be c32d 043e cca6 3b3e 1490 a7bd
000003c0: 95f2 0c3e e82b a9bc 188a 7dbd 7ad7 7cbd
000003d0: 5ab4 da3d efe2 003e 1636 e33a 12ae 9c3d
000003e0: 1956 82bd 63f8 0f3d e2cd 153a 8514 bcbd
000003f0: b74f e5bc 54dc c53d e5e9 6c3e 757a b1bc

fc1.bias f4 [64]
0.28593567 0.33455223 0.27198708 0.31972006 0.46740052 0.7473476 0.51245993 0.66634774
0.31823158 0.4215894 0.4933683 0.48294044 0.36188078 0.5693829 0.08785263 0.46070564
0.639636 0.32119173 0.32561365 0.05275902 0.5096074 0.47548515 0.49127406 0.15866524
0.22515592 0.43365377 0.45696193 0.5309046 0.27898288 0.061078783 0.39616406 0.38395658
0.14851722 0.2860432 0.6889713 0.4172351 0.32726875 0.22553658 0.3568854 0.35432434
0.2808927 0.21892744 0.5429042 -0.07575727 0.4674372 0.3248059 0.16749679 0.20896402
0.35235268 0.54961693 0.6486679 0.1997055 0.636404 0.32505238 0.5170579 0.050596703
0.53045416 -0.11297127 0.24294822 0.30211133 0.5016494 0.4065533 -0.023323128 0.15839568
00000000: 2966 923e 6e4a ab3e e441 8b3e 59b2 a33e
00000010: 1f4f ef3e 2c52 3f3f 9330 033f c495 2a3f
00000020: 40ef a23e 91da d73e c59a fc3e f843 f73e
00000030: 7048 b93e 14c3 113f 14ec b33d 9ce1 eb3e
00000040: 2fbf 233f 3e73 a43e d5b6 a63e d819 583d
00000050: a175 023f ca72 f33e 4688 fb3e 2479 223e
00000060: 468f 663e de07 de3e eaf6 e93e 5de9 073f
00000070: d8d6 8e3e bf2d 7a3d 04d6 ca3e f595 c43e
00000080: e614 183e 4174 923e 6c60 303f d79f d53e
00000090: c58f a73e 10f3 663e afb9 b63e 006a b53e
000000a0: 2bd1 8f3e 842e 603e c5fb 0a3f a126 9bbd
000000b0: ee53 ef3e f54c a63e 4784 2b3e aafa 553e
000000c0: 9267 b43e b2b3 0c3f 190f 263f 997f 4c3e
000000d0: 5feb 223f 446d a63e e85d 043f 7d3e 4f3d
000000e0: d8cb 073f 7b5d e7bd 6bc7 783e 56ae 9a3e
000000f0: 186c 003f c127 d03e 2510 bfbc 7a32 223e

fc2.weight f4 [10, 64]
0.35165495 -0.38315004 0.07832927 -0.37424845 -0.7491698 -0.4173023 -0.15891723 -0.21639502
0.17622976 -0.02615102 0.08560111 0.14011817 0.03718212 0.0020585908 -0.012446515 0.0061865146
-0.04945129 -0.51644844 -0.18671931 -0.24675871 0.07254482 -0.040261913 -0.22311394 -0.36401832
-0.045632146 0.0057554794 0.08363077 0.107631825 -0.22902225 -0.17106971 0.08763995 -0.5442673
-0.3604805 0.07551281 -0.7251404 -0.42195952 -0.2443309 0.06998812 0.14267145 -0.31521824
-0.30913037 -0.25022423 0.33038738 0.076692425 0.053779498 -0.26473495 0.0033403712 -0.34148866
-0.18876301 -0.23101468 0.04515999 -0.34777278 -0.6924851 -0.5273265 -0.37301412 -0.21774612
-0.59909296 -0.3757977 -0.27368703 0.051095985 -0.36948827 0.11291534 0.09819849 -0.30119303
-0.35432145 0.13701147 -0.19836216 -0.034608595 0.3525496 -0.024396863 0.111390285 -0.5565896
0.5948374 0.29179236 -0.074379385 -0.17317261 -0.44881305 -0.17120618 -0.14325859 0.028622061
0.115001515 0.003800932 0.033018943 -0.08398466 -0.26769188 -0.099626474 -0.37474623 0.28659698
-0.11036503 -0.02289462 -0.18144003 -0.8230161 -0.350804 0.06034846 -0.7628372 0.40451333
-0.1265256 -0.22267434 0.26145285 -0.48142764 -0.5138374 -0.074539185 -0.52174115 0.07197334
0.0045904675 -0.15880175 -0.1922375 -0.4298816 -0.6448498 -0.24439122 -0.2792972 0.09422145
-0.22668354 -0.0023815932 0.043325663 -0.08367124 0.09418197 0.33459103 0.05434453 -0.27759042
-0.5538149 -0.2567844 -0.14040756 -0.014116253 0.07539561 -0.44858068 -0.24097785 -0.19162859
-0.28075293 -0.03361024 -0.5033872 -0.09660363 -0.29919744 -0.21914919 -0.22148418 0.12661657
-0.28914267 -0.40195113 0.09936984 -0.34257382 0.12857187 -0.22842756 -0.28980753 0.114891335
0.009620491 -0.11916052 -0.5296135 0.089510486 -0.0104455585 -0.22289266 0.12334447 0.10442648
-0.055109147 0.23510203 -0.39312887 -0.5212209 -0.26035747 -0.18251677 -0.051071707 -0.21286453
-0.5207739 0.1781973 -0.7142349 -0.1567934 -0.13380216 0.06577273 -0.16674522 -0.3895293
-0.110828795 0.15600955 0.10313712 -0.09092097 0.089355245 -0.18215507 0.016719904 -0.05671809
0.07593299 0.23916794 -0.5466202 -0.45424667 -0.3735005 -0.124631785 0.11854447 0.022322305
-0.26374513 0.089195624 0.0047609513 0.037661366 0.19189532 -0.1603659 -0.019803375 0.038312487
0.014706821 -0.056099936 -0.03801368 0.0626233 -0.3854023 -0.5892094 -0.4159541 -0.1983661
-0.4355771 -0.5372425 0.082750455 -0.3194566 0.05077856 0.14107724 -0.3784129 0.11958684
-0.34031442 -0.04003095 -0.047110967 0.19888826 -0.34964997 -0.48647207 -0.21230105 -0.114193946
-0.08954257 -0.23192446 -0.16015399 -0.0056844614 -0.08671061 0.016356805 -0.41624537 -0.3680312
-0.4012635 -0.24011193 -0.053725574 -0.17851369 -0.40949777 -0.18249078 -0.18115543 0.21449693
0.097737364 0.007823828 -0.27673537 -0.005416127 -0.118235245 0.25178364 0.11498842 0.024203047
-0.06443166 -0.21245694 -0.03966591 0.030994702 -0.32410416 -0.52422094 -0.39354095 0.033297278
-0.21591568 0.022034463 -0.07350422 -0.035268757 -0.25034392 -0.24908537 -0.28319198 -0.22782865
00000000: 1e0c b43e 3e2c c4be 196b a03d 7e9d bfbe
00000010: 98c9 3fbf a6a8 d5be 33bb 22be a896 5dbe
00000020: 9375 343e aa3a d6bc a24f af3d 237b 0f3e
00000030: 474c 183d 6ce9 063b 78ec 4bbc 3fb8 ca3b
00000040: 708d 4abd f735 04bf 5933 3fbe 51ae 7cbe
00000050: 6192 943d ade9 24bd fb77 64be 9c60 babe
00000060: c6e8 3abd 7698 bc3b 9c46 ab3d 136e dc3d
00000070: cf84 6abe e62c 2fbe 937c b33d 1a55 0bbf
00000080: e690 b8be 76a6 9a3d cda2 39bf 140b d8be
00000090: e131 7abe ee55 8f3d 7718 123e 4964 a1be
000000a0: 5646 9ebe 641d 80be 8928 a93e eb10 9d3d
000000b0: e447 5c3d 578b 87be 21ea 5a3b 9ad7 aebe
000000c0: 174b 41be 1d8f 6cbe aff9 383d 460f b2be
000000d0: b446 31bf dffe 06bf b5fb bebe d7f8 5ebe
000000e0: 285e 19bf 8e68 c0be b520 8cbe 064a 513d
000000f0: 912d bdbe 2840 e73d 4a1c c93d f935 9abe
00000100: 9f69 b5be bc4c 0c3e 731f 4bbe bec1 0dbd
00000110: 6281 b43e eedb c7bc 9720 e43d a87c 0ebf
00000120: 4447 183f cf65 953e 3854 98bd 2954 31be
00000130: d3ca e5be ac50 2fbe 61b2 12be d078 ea3c
00000140: ea85 eb3d 0f19 793b df3e 073d 2600 acbd
00000150: e90e 89be f708 ccbd bdde bfbe d7bc 923e
00000160: 1007 e2bd 808d bbbc 6acb 39be 2fb1 52bf
00000170: 959c b3be f22f 773d 4c49 43bf 5f1c cf3e
00000180: ed8f 01be be04 64be 26dd 853e af7d f6be
00000190: d98a 03bf 00a8 98bd d490 05bf c266 933d
000001a0: a26b 963b ed9c 22be e8d9 44be 7119 dcbe
000001b0: e014 25bf b141 7abe 0b00 8fbe 2df7 c03d
000001c0: bb1f 68be 8114 1cbb 4076 313d d45b abbd
000001d0: 7ae2 c03d 844f ab3e 5f98 5e3d 5520 8ebe
000001e0: d0c6 0dbf 3f79 83be 00c7 0fbe db47 67bc
000001f0: 0369 9a3d 5eac e5be e6c2 76be 493a 44be
00000200: d9be 8fbe e4aa 09bd fcdd 00bf 20d8 c5bd
00000210: 6830 99be a568 60be c0cc 62be c6a7 013e
00000220: 820a 94be 8acc cdbe 6a82 cb3d d665 afbe
00000230: 58a8 033e eae8 69be a761 94be 264c eb3d
00000240: 449f 1d3c 6e0a f4bd c094 07bf 4651 b73d
00000250: d923 2bbc f93d 64be 079c fc3d 8ddd d53d
00000260: 21ba 61bd 96be 703e 3048 c9be bc6e 05bf
00000270: 934d 85be ade5 3abe 9130 51bd 29f9 59be
00000280: 7051 05bf 5a79 363e 19d8 36bf 738e 20be
00000290: 6f03 09be dab3 863d 42bf 2abe 6270 c7be
000002a0: 35fa e2bd f8c0 1f3e 8e39 d33d c634 babd
000002b0: e2ff b63d dc86 3abe 2ef8 883c 3a51 68bd
000002c0: c182 9b3d 71e8 743e 4def 0bbf 0593 e8be
000002d0: 753b bfbe f33e ffbd 71c7 f23d 44dd b63c
000002e0: 9a09 87be 32ac b63d c101 9c3b ce42 1a3d
000002f0: 3580 443e f536 24be b03a a2bc 8eed 1c3d
00000300: e1f4 703c 0cc9 65bd 3cb4 1bbd a540 803d
00000310: 7353 c5be 6dd6 16bf f0f7 d4be 7c20 4bbe
00000320: f603 dfbe b988 09bf 1279 a93d d18f a3be
00000330: 2efd 4f3d 8d76 103e 56bf c1be f2e9 f43d
00000340: b13d aebe 7ef7 23bd 6ef7 40bd 5da9 4b3e
00000350: 5205 b3be de12 f9be 7265 59be 84de e9bd
00000360: 1862 b7bd 9b7d 6dbe 68ff 23be b844 babb
00000370: 5595 b1bd b5fe 853c 1d1e d5be 966e bcbe
00000380: 6972 cdbe e7df 75be 590f 5cbd 4bcc 36be
00000390: b1a9 d1be ddde 3abe cf80 39be 15a5 5b3e
000003a0: 872a c83d 832f 003c 42b0 8dbe c479 b1bb
000003b0: 5225 f2bd c9e9 803e 0c7f eb3d 7845 c63c
000003c0: bff4 83bd 508e 59be b978 22bd 9ae8 fd3c
000003d0: fbf0 a5be 5833 06bf 337e c9be ba62 083d
000003e0: 0019 5dbe 9e81 b43c 6189 96bd f975 10bd
000003f0: 142d 80be 3c10 7fbe 8afe 90be ea4b 69be

fc2.bias f4 [10]
0.12608556 -0.038847797 -0.3055404 0.109758295 -0.0013925679 -0.28420073 -0.03017111 -0.12814495
-0.009594344 -0.011379807
00000000: 931c 013e de1e 1fbd cb6f 9cbe f5c8 e03d
00000010: d386 b6ba c282 91be 6729 f7bc 6e38 03be
00000020: 9831 1dbc 5f72 3abc
